DepthSensingCUDA/Source/Scan2CAD/data/checkpoint/scene0470_00/decode.pt (torch, 885915 bytes, 20 tensors)

weight f4 [48, 16, 6, 6, 6]
0	0xbbfca343	-0.007709892
1	0x3b8286b7	0.0039833444
2	0x3be6ebf5	0.0070471712
3	0x3c997808	0.018733993
4	0x3b801e65	0.0039098733
5	0x3c108807	0.008821494
6	0xbcc312f1	-0.023812743
7	0x3c2189e9	0.0098595405
8	0xbc8eb08e	-0.017418172
9	0x3c16ce15	0.009204407
10	0xbd13b655	-0.036062557
11	0x3a8b4648	0.0010625804
12	0xbcb193b3	-0.021676874
13	0xbbf6d98d	-0.0075332583
14	0xbcaf2071	-0.021377774
15	0x3be3bc5f	0.006949946
16	0x3c3dc020	0.011581451
17	0x3c82bcf4	0.01595924
18	0xbd0c3cc2	-0.03423763
19	0xbc19eefe	-0.009395359
20	0xbc12638e	-0.0089348685
21	0xbc013be4	-0.007887814
22	0xbd10d65e	-0.035360686
23	0xbc8ff171	-0.017571183
24	0xbca16b40	-0.019704461
25	0x3b439d5b	0.002984843
26	0xbc67d483	-0.014149788
27	0x3b7f3769	0.003894294
28	0xbcaee7d6	-0.021350782
29	0xbd04a1aa	-0.032380737
30	0xbd05b726	-0.032645367
31	0xbc882a5d	-0.016621763
32	0xbcdf23a4	-0.027238674
33	0xbd0fbdee	-0.03509324
34	0xbd0c9505	-0.034321804
35	0xbc83d830	-0.016094297
36	0x3c6d2c13	0.01447584
37	0x3d2bd061	0.041946772
38	0x3c0530c6	0.008129304
39	0x3cc2cdd4	0.023779787
40	0xbc3f1cdf	-0.011664598
41	0x3c5e022a	0.013550321
42	0xbca7033f	-0.02038729
43	0x3cd1b593	0.025599277
44	0xbc4096b1	-0.011754678
45	0x3c1199aa	0.008886734
46	0xbbbf2434	-0.005833173
47	0xbc304933	-0.01075964
48	0x3c13e732	0.009027289
49	0x3cb6cc4e	0.022314217
50	0x3b78c14e	0.0037957015
51	0x3cb247d0	0.021762758
52	0x3cbdd61c	0.023173384
53	0x396149bc	0.0002148514
54	0xbd134b76	-0.035960637
55	0x3cd567fb	0.026050558
56	0xbd26e016	-0.04074105
57	0x3cca3830	0.024684995
58	0xbcad103a	-0.021125901
59	0xbc804b64	-0.015660949
60	0x3bac0bf6	0.0052504493
61	0xbc11f210	-0.00890781
62	0x3ac52e9a	0.0015043796
63	0xbd32824a	-0.043581285
64	0xbcafe6d5	-0.021472374
65	0xbd2610b6	-0.04054328
66	0xbd42b0a0	-0.047531724
67	0x3cb2c2ca	0.021821398
68	0xbc704ee8	-0.01466725
69	0x3c39ef7c	0.011348601
70	0xbbf9992a	-0.0076171355
71	0x3ac00d42	0.0014652389
72	0xbb52e519	-0.003218001
73	0x3bc9233e	0.0061382344
74	0x3c806960	0.015675247
75	0x3bc4325f	0.00598745
76	0xbc9268d4	-0.017872252
77	0x3cace453	0.021104967
78	0xbcc95678	-0.024577364
79	0x3b8c2c3a	0.004277733
80	0xbcfa6e34	-0.030570127
81	0xbc4ab95f	-0.0123732975
82	0xbc07c37b	-0.008286352
83	0x3b806a13	0.003918895
84	0xbc5930bc	-0.013256248
85	0xbbf6c63e	-0.0075309565
86	0xbab265b8	-0.0013610637
87	0xbbb4b1dd	-0.005514367
88	0x3c3d9cdf	0.0115730455
89	0xbb24c881	-0.0025143924
90	0xbca7c6c8	-0.020480528
91	0xbcec069c	-0.028811745
92	0xbd143f07	-0.03619292
93	0xbb3e1b76	-0.0029008067
94	0xbc8a3fbb	-0.016876092
95	0xbcad05c3	-0.021120911
96	0xbc54c7e3	-0.01298711
97	0xbc023bd2	-0.007948833
98	0xbd078f42	-0.033095606
99	0xbb45fd25	-0.00302107
100	0xbd205c0c	-0.039150283
101	0xbc1469b3	-0.009058404
102	0xbc6cded5	-0.014457424
103	0xbcae9d46	-0.021315228
104	0xbc565461	-0.013081641
105	0xbc65a509	-0.014016398
106	0xbc3212a5	-0.010868703
107	0xbcb342c8	-0.02188243
108	0x3c114820	0.008867294
109	0x3d170d7b	0.03687809
110	0xbb1274bc	-0.002234741
111	0x3c27083e	0.010194836
112	0xbb4eb461	-0.003154062
113	0x3cac9d72	0.02107117
114	0xbd143227	-0.03618064
115	0x3bf7dc87	0.0075641307
116	0xbcae9cd2	-0.021315012
117	0x3cb90428	0.02258499
118	0xbce97eb7	-0.028502805
119	0xbc391066	-0.011295414
120	0xbc722b73	-0.014780867
121	0x3b4291fd	0.0029689067
122	0xbbed6647	-0.0072448584
123	0x3ca9fc50	0.020750195
124	0x3c8a17f7	0.01685713
125	0xbb138d54	-0.0022514658
126	0xbd1cfab0	-0.03832501
127	0x3ba0bc99	0.004905295
128	0xbd1fd024	-0.039016858
129	0x3cb07b82	0.021543268
130	0xbca6c58b	-0.020357868
131	0xbb082435	-0.0020773534
132	0xbceefd33	-0.02917347
133	0xbcf4b129	-0.029869633
134	0xbcb9da41	-0.02268708
135	0xbd11b328	-0.035571247
136	0xbcb9555a	-0.022623707
137	0xbd0229dd	-0.031778205
138	0xbcdfab72	-0.027303431
139	0xbbf56645	-0.007488998
140	0xbcefcd73	-0.02927277
141	0x3caa00e9	0.020752387
142	0xbd122390	-0.035678446
143	0xbc4b2da7	-0.012401021
144	0x3b807291	0.0039199074
145	0x3c47b9da	0.012190307
146	0x3b952422	0.0045514265
147	0x3c904286	0.017609846
148	0x3876138a	5.8669168e-05
149	0x3c3d9707	0.011571652
150	0xbd173efe	-0.03692531
151	0xbc8a49a7	-0.016880823
152	0xbc0887c0	-0.008333147
153	0x3bd1211c	0.006382121
154	0xbb3577a5	-0.0027689722
155	0x3ba84ed6	0.005136351
156	0x3b765f4b	0.003759342
157	0xbc90fe38	-0.017699346
158	0xbbf065bc	-0.0073363464
159	0x3a2f8063	0.00066948513
160	0x3c2e8cde	0.010653703
161	0xbc405dc8	-0.011741109
162	0xbcaa1478	-0.020761713
163	0xbc896917	-0.016773744
164	0xbc7b3a66	-0.0153337475
165	0xbc140223	-0.009033713
166	0xbc0bb66d	-0.00852738
167	0xbc83e98a	-0.016102571
168	0xbc6545f1	-0.013993726
169	0xbcc227c4	-0.023700602
170	0xbcc56e59	-0.02410047
171	0xbd32ca1e	-0.043649785
172	0xbc94f203	-0.018181806
173	0xbd0358ba	-0.032067038
174	0xbd111b8f	-0.035426673
175	0xbc8bec6c	-0.017080508
176	0xbd445d11	-0.047940318
177	0xbce389a3	-0.027775591
178	0xbd352cf1	-0.044232313
179	0xbc363efe	-0.011123417
180	0x3b810e9c	0.003938509
181	0x3d21c21a	0.03949175
182	0xba1a492c	-0.0005885537
183	0x3d328303	0.043581974
184	0x3cb4656d	0.02202102
185	0x3bfdca94	0.0077450965
186	0xbc8c97fc	-0.017162316
187	0x3caa31a0	0.020775616
188	0xbcd26ff9	-0.025688158
189	0x3cc19227	0.023629261
190	0xbccc518f	-0.024941234
191	0x3c93a69d	0.018023783
192	0x3b472024	0.0030384148
193	0x3d10b491	0.03532845
194	0x3c9db09e	0.019249257
195	0x3d3e61de	0.046480052
196	0x3c665ca1	0.01406017
197	0x3a4e3244	0.00078657665
198	0xbd622f49	-0.055220876
199	0x3d10e79d	0.035377134
200	0xbd1082c7	-0.03528097
201	0x3d554dc6	0.052076124
202	0xbcc65b60	-0.024213493
203	0x3c54e3c2	0.012993755
204	0xbaea1cb7	-0.0017861341
205	0xbca57407	-0.020196928
206	0xbc9ce1a1	-0.019150557
207	0xbc914168	-0.017731383
208	0x3c10d881	0.008840681
209	0xbc36223a	-0.011116559
210	0xbc891390	-0.016732961
211	0x3c52c45c	0.012864199
212	0xbc06043a	-0.008179719
213	0x3d3342bd	0.04376482
214	0xbcfcd32b	-0.030862411
215	0x3c58e77a	0.013238782
216	0xbb44fcc5	-0.003005789
217	0xbc64d462	-0.013966652
218	0x3bcd7026	0.0062694727
219	0xbc882a5d	-0.016621763
220	0x3c7ecc7d	0.0155516835
221	0xbc952a75	-0.018208722
222	0xbb50cdf1	-0.0031861032
223	0xbd25bc14	-0.04046257
224	0xbc2652bd	-0.010151562
225	0xbc161771	-0.009160862
226	0xbbb8b7a0	-0.005637124
227	0xbd156644	-0.03647448
228	0xbcb8f42a	-0.022577364
229	0xbd46b72d	-0.048514534
230	0x3c61eae1	0.01378891
231	0xbd00842c	-0.03137605
232	0x3c408db2	0.011752533
233	0xbd2bbcaa	-0.04192797
234	0xbc73968b	-0.014867435
235	0xbcece359	-0.028917002
236	0xbcd8c796	-0.026462357
237	0xbcb433f5	-0.021997431
238	0xbd04d5c1	-0.032430414
239	0xbd09f1de	-0.03367793
240	0xbd81a082	-0.063294426
241	0xbd0f4209	-0.034975085
242	0xbc5ecc7e	-0.013598559
243	0xbcceb9fd	-0.02523517
244	0xbcbea72a	-0.02327307
245	0xbd36b86c	-0.044609472
246	0xbb28c248	-0.0025750566
247	0xbd35c8a1	-0.044380788
248	0xbc7a55ee	-0.015279276
249	0xbc16165e	-0.009160606
250	0xbcfe3af7	-0.031033976
251	0xbcedf612	-0.029048
252	0x3a79d1bb	0.00095298485
253	0x3cc8c5ab	0.024508318
254	0x3cccd940	0.025005937
255	0x3cff2bdf	0.031148849

bias f4 [16]
0	0xbc3d04ba	-0.011536771
1	0x3bf66ad6	0.00752006
2	0x3b2306d3	0.0024875894
3	0xbbbc3a9a	-0.0057442905
4	0xba8483c1	-0.0010110067
5	0xbcaca5c3	-0.021075135
6	0xbc895235	-0.016762832
7	0xbbc45760	-0.005991861
8	0xbbfb5348	-0.00766984
9	0xbc12bfa3	-0.008956823
10	0x3aebc942	0.0017989057
11	0xbce92087	-0.028457893
12	0xba906849	-0.0011017408
13	0xbb23fe27	-0.0025023313
14	0x3a14e165	0.00056793384
15	0x3c2640a0	0.010147244

weight f4 [16]
0	0x3f80d1ef	1.0064067
1	0x3f7ce8df	0.98792833
2	0x3f7efe85	0.99607116
3	0x3f809acf	1.0047244
4	0x3f8701ad	1.0547386
5	0x3f81d3be	1.0142744
6	0x3f839195	1.0278803
7	0x3f7d1cd2	0.988721
8	0x3f80aff0	1.0053692
9	0x3f86bfba	1.052726
10	0x3f7fa29d	0.99857503
11	0x3f754758	0.95811987
12	0x3f786c08	0.9703984
13	0x3f8011cb	1.000543
14	0x3f7435fa	0.9539486
15	0x3f82dda2	1.0223887

bias f4 [16]
0	0x3c91fec2	0.017821673
1	0x3c17af32	0.009258078
2	0x3c31d9e7	0.010855175
3	0xbc6da3d7	-0.0145043945
4	0x3d2e78f8	0.042595834
5	0x3cf1fba0	0.02953893
6	0xbd6f2c9f	-0.058392163
7	0x3a26b7d3	0.00063597894
8	0x3ce4485b	0.027866533
9	0x3d6d6a57	0.05796274
10	0x3c8a7075	0.016899327
11	0xbc384b23	-0.011248383
12	0x3a3a0401	0.00070959335
13	0x3cdfefea	0.02733608
14	0xbb044a75	-0.0020185981
15	0x3d2f83be	0.04285025

running_mean f4 [16]
0	0xc1225c2e	-10.147505
1	0xc11db4f9	-9.856683
2	0xc10f61d0	-8.96138
3	0xc1040929	-8.252236
4	0xc0fe95fa	-7.9558077
5	0xc10ebd54	-8.921223
6	0xc101dc2f	-8.116256
7	0xc073ecdc	-3.8113317
8	0xc11ae661	-9.681245
9	0xc0c29f15	-6.081919
10	0xc0c4b16d	-6.1466584
11	0xc13c2a12	-11.760271
12	0xc17b68d0	-15.713089
13	0xc10f23d6	-8.946249
14	0xc10bd0e3	-8.738498
15	0xc1146992	-9.275774

running_var f4 [16]
0	0x43ccb485	409.4103
1	0x43e85e6b	464.73764
2	0x43cc4dd9	408.6082
3	0x430957fc	137.34369
4	0x4305670e	133.40256
5	0x43b1ca45	355.58023
6	0x42b37f8b	89.74911
7	0x42ce4ed9	103.154
8	0x43cccd4e	409.60394
9	0x42efecf5	119.96281
10	0x43b8fbc3	369.9669
11	0x43b8f3f8	369.906
12	0x44338a3e	718.16003
13	0x43aa5622	340.6729
14	0x43f58f30	491.11865
15	0x439f0f5c	318.12

weight f4 [16, 8, 6, 6, 6]
0	0xba4d61dc	-0.00078347116
1	0xbd5a70ee	-0.053330354
2	0xb863cde3	-5.4312764e-05
3	0xbd1b48e9	-0.03791133
4	0x3c15e170	0.009147987
5	0xbd2b8fde	-0.04188525
6	0xbd824275	-0.06360332
7	0xbd800679	-0.062512346
8	0xbc078e84	-0.0082737245
9	0xbd3e417e	-0.046449177
10	0xbcfb244a	-0.030656952
11	0xbd54b394	-0.05192907
12	0x3d3d572e	0.04622572
13	0xbd15aca8	-0.03654161
14	0x3b70eba8	0.0036761556
15	0xbc64af89	-0.0139578665
16	0x3c35aa14	0.011087913
17	0xbc11cf09	-0.008899459
18	0xbcc7622e	-0.024338808
19	0xbceecb24	-0.0291496
20	0xbc9c5649	-0.019084113
21	0xbd754b4c	-0.05988626
22	0xbd400da9	-0.046888027
23	0xbd048c5a	-0.032360412
24	0x3c8a3f6a	0.016875941
25	0xbcd109ea	-0.025517423
26	0x3bc14d69	0.0058991206
27	0xbd21d424	-0.039508954
28	0xbc94a8d1	-0.018146904
29	0xbcfb28fb	-0.03065919
30	0xbd251ee9	-0.04031268
31	0xbd5bf4a8	-0.05370012
32	0xbcb3e88f	-0.021961479
33	0xbd3ec6a2	-0.04657615
34	0xbd4f4935	-0.050606925
35	0xbd093d41	-0.033505682
36	0xbc83aa24	-0.01607234
37	0xbd75e812	-0.060035773
38	0x3be8a860	0.00710015
39	0xbcc1f90e	-0.023678329
40	0xbb8eec3a	-0.0043616565
41	0xbcf015ce	-0.029307272
42	0xbbb3eae2	-0.0054906467
43	0x3d030cb6	0.031994544
44	0x3bcd9249	0.006273542
45	0xbcdfe413	-0.027330434
46	0xbc843408	-0.016138092
47	0x3bb0fd87	0.0054013166
48	0x3d091ef0	0.03347677
49	0xbd0f13c8	-0.034930974
50	0x3c394d6b	0.011309962
51	0xbd6e77b9	-0.058219645
52	0x3b96dacc	0.0046037193
53	0xbcba36b7	-0.022731168
54	0x3bcb8b0f	0.0062116454
55	0x3c59ece0	0.013301104
56	0xbc2cdf30	-0.010551259
57	0xbd2006be	-0.03906893
58	0xbc7324e6	-0.01484034
59	0x3c97fd8c	0.018553518
60	0x3c2d882f	0.010591551
61	0xbd6d5de8	-0.057950884
62	0xbcea74bd	-0.028620118
63	0xbcecdba6	-0.02891333
64	0xbca74eea	-0.020423371
65	0xbcd4f1bb	-0.025994172
66	0x3ca6257e	0.02028155
67	0x3d01df9a	0.031707384
68	0xbba8a0f8	-0.005146142
69	0xbd220f1c	-0.03956519
70	0xbc3665ef	-0.011132701
71	0xbc7ef230	-0.015560672
72	0xbc8a1862	-0.01685733
73	0xbd2dacba	-0.042401053
74	0xbc5740e7	-0.0131380325
75	0xbcbc5ed8	-0.022994444
76	0x3c095930	0.00838308
77	0xba7e6e4c	-0.00097057666
78	0xbd74026c	-0.059572622
79	0xbd1f7ba6	-0.03893628
80	0xbd116b0e	-0.035502486
81	0xbd4b309f	-0.049606916
82	0xbd0a0d62	-0.03370417
83	0xbd5a223a	-0.053255297
84	0x3cd6a071	0.026199551
85	0xbcc80112	-0.024414573
86	0xbb651193	-0.0034953102
87	0xbcc2e541	-0.023790957
88	0x3c3d0bf2	0.0115384925
89	0xbd03c8a7	-0.03217378
90	0xbcad051c	-0.0211206
91	0xbd67b07e	-0.0565648
92	0xbd3a756b	-0.045522135
93	0xbd1924da	-0.03738866
94	0xbd4eb8c3	-0.05046917
95	0xbd4d5274	-0.05012746
96	0xbbf7ff66	-0.0075682877
97	0xbc978aed	-0.018498862
98	0xbcb74350	-0.022370964
99	0xbd318ec8	-0.043349057
100	0xb943c021	-0.00018668223
101	0xbd08a283	-0.03335811
102	0xbd0202d7	-0.03174099
103	0xbc9c20e5	-0.019058654
104	0xbcdfd946	-0.027325284
105	0xbd08834c	-0.03332834
106	0xbd4c091d	-0.04981338
107	0xbd2856c5	-0.041098375
108	0xbc8cb9f7	-0.017178519
109	0xbd13a55a	-0.036046363
110	0xbbdb7887	-0.0066977176
111	0xbbbb3476	-0.005713041
112	0x3c641885	0.013921862
113	0xbccee50f	-0.025255708
114	0x3c887615	0.016657868
115	0xbd13997e	-0.036035053
116	0xbd0c58c5	-0.034264345
117	0x3c861ee4	0.016372152
118	0x3ba19a42	0.004931719
119	0xbc5f2b4b	-0.013621162
120	0x3cc36402	0.023851398
121	0xbc9a23ad	-0.01881584
122	0x3c434fdf	0.011920898
123	0xbd0d62fe	-0.034518234
124	0x3c99e159	0.018784212
125	0xbd6a8b32	-0.057261653
126	0x3cd73d53	0.026274359
127	0xbc21a506	-0.009866005
128	0xbb428650	-0.0029682107
129	0x3c941ec6	0.01808108
130	0xbca4a7dd	-0.020099575
131	0xbba7cab6	-0.0051206006
132	0xbb666ef7	-0.0035161355
133	0xbc988c7d	-0.018621678
134	0xbbde0e01	-0.0067765717
135	0xbd3ba616	-0.04581269
136	0xbc39be48	-0.0113368705
137	0xbd53f144	-0.05174376
138	0x3d13057c	0.035893902
139	0x3bbfb45e	0.005850359
140	0xbc03f04d	-0.008052898
141	0x3c8f5546	0.017496716
142	0xbb6b9105	-0.0035944593
143	0xbc8fe5e3	-0.017565673
144	0x3c7990c4	0.015232269
145	0xbd0760a5	-0.03305115
146	0x3c4bef40	0.012447178
147	0xbca1995a	-0.019726444
148	0x3bd7e0f1	0.0065880944
149	0xbc43c2f1	-0.011948333
150	0xbd2f6160	-0.042817473
151	0xbd2c8e9c	-0.04212819
152	0xbcfadd01	-0.030622961
153	0xbc90cd3d	-0.01767599
154	0xbd2cb811	-0.042167727
155	0xbcbb85fa	-0.022891033
156	0x3be50ab0	0.0069897994
157	0xbd073802	-0.033012398
158	0x3c80d0bb	0.01572453
159	0xbcd24e90	-0.025672227
160	0x3b47e5a6	0.0030501871
161	0xbc304b1a	-0.010760093
162	0xbd66d94c	-0.056359574
163	0xbd6cb795	-0.057792265
164	0xbd59979a	-0.053123094
165	0xbd13bad8	-0.03606686
166	0xbcdbd2b9	-0.026833879
167	0xbce6c3f2	-0.028169606
168	0xbbc13bbb	-0.005897013
169	0xbcb14582	-0.02163959
170	0x3c6dd63f	0.014516412
171	0xbd2f50c1	-0.042801622
172	0x3ca13534	0.01967869
173	0xbd3e41db	-0.046449523
174	0xbcf1b864	-0.02950687
175	0xbc9bd1a3	-0.019020861
176	0xbd367c50	-0.044552147
177	0xbd10cedc	-0.035353526
178	0xbd3ad944	-0.045617357
179	0xbcd62f8b	-0.026145717
180	0x3c5469e8	0.012964703
181	0xbcf27a66	-0.02959938
182	0xbb8a8780	-0.0042275786
183	0xbc9c6b13	-0.019094026
184	0x3c82ba7d	0.015958065
185	0xbd3a62e5	-0.04550447
186	0xbd196cb6	-0.03745719
187	0x3c30b2c4	0.010784809
188	0xbd1d04bf	-0.038334604
189	0xbd12471c	-0.035712346
190	0xbcf0e0d2	-0.029404078
191	0xbca908a5	-0.020634005
192	0xb94f4f38	-0.0001977057
193	0xbca55d23	-0.020186013
194	0x3cb3e67f	0.021960495
195	0xbcb201d5	-0.02172939
196	0xbadaa874	-0.0016682283
197	0xbd69fbf2	-0.05712504
198	0xbc8a446f	-0.016878335
199	0x3c8f78d9	0.01751368
200	0x3b8c8696	0.004288505
201	0xbd39aef4	-0.045332864
202	0xbccd955a	-0.02509563
203	0x3aa073e6	0.0012241572
204	0x3bba136f	0.005678586
205	0xbd398f0e	-0.045302443
206	0xbc846c81	-0.01616502
207	0xbd11a538	-0.035557956
208	0xbcd0284c	-0.02540984
209	0xbcb81da4	-0.022475071
210	0x3be626ac	0.007023653
211	0xb9ed80ff	-0.00045300272
212	0x3c0b285c	0.008493509
213	0xbb7dec85	-0.0038745713
214	0xbc8c9d2a	-0.017164785
215	0x3b4b547c	0.0031025698
216	0xbcb112e8	-0.02161546
217	0xbb205a5d	-0.0024467923
218	0x3cb44dab	0.022009691
219	0x3c8b5c8f	0.017011909
220	0x3c35609a	0.011070395
221	0x3cbcf345	0.023065219
222	0x3b9f4487	0.004860464
223	0xbcad0ccc	-0.021124266
224	0xbcea419d	-0.02859574
225	0xbd1f09c7	-0.038827684
226	0x3b8087e6	0.0039224504
227	0xbd43971b	-0.047751527
228	0x3ca42646	0.020037781
229	0x3b415609	0.0029500744
230	0x3ca41c2f	0.02003297
231	0x3ca3cd02	0.019995216
232	0x3c76c58d	0.015061748
233	0x3cfba2c2	0.030717257
234	0xbcccf28b	-0.025017997
235	0xbcce22d6	-0.025163095
236	0xb88e4753	-6.784373e-05
237	0xbc80db7b	-0.015729656
238	0xbb9a525a	-0.004709524
239	0xbd131d46	-0.03591659
240	0xbc0fab5f	-0.008768885
241	0x3c9e3920	0.019314349
242	0x3c90dd85	0.017683754
243	0x3ceb3101	0.02870989
244	0x3b88defe	0.0041769734
245	0xbbe67f98	-0.0070342533
246	0xbbdfd8c9	-0.0068312627
247	0xbd5c7232	-0.053819843
248	0xbc2f4a8c	-0.010698926
249	0xbd2526bd	-0.040320147
250	0x3ba3cd18	0.0049988143
251	0xbd26ad9c	-0.04069291
252	0x3c11ba21	0.008894474
253	0x3aa828f2	0.0012829585
254	0xbb4e44ac	-0.0031474037
255	0x3ce68b27	0.028142525

bias f4 [8]
0	0x3cce9136	0.025215726
1	0x3db97cf8	0.09057039
2	0x3cf1e8bd	0.029529924
3	0x3d9a0d15	0.075220264
4	0xbd2eece7	-0.042706396
5	0x3bc3d822	0.005976693
6	0xbd2086b7	-0.039190974
7	0xbb8c1a01	-0.004275561

weight f4 [8]
0	0x3f7bfe14	0.9843457
1	0x3f74c7bd	0.95617276
2	0x3f7b1d41	0.9809151
3	0x3f7d9658	0.9905753
4	0x3f7f1926	0.9964775
5	0x3f86f501	1.0543519
6	0x3f7f2bf4	0.9967644
7	0x3f7e1248	0.99246645

bias f4 [8]
0	0x3d04c374	0.03241296
1	0xbc925738	-0.017863855
2	0x3d23fc3a	0.040035464
3	0x3ce77848	0.028255597
4	0x3cbcdd39	0.023054706
5	0x3dd6a709	0.10481078
6	0x3d272015	0.04080208
7	0x3c82277e	0.015887972

running_mean f4 [8]
0	0xc03189f2	-2.7740445
1	0xbf8765b1	-1.0577909
2	0xbfa9ea57	-1.327464
3	0xbfbd8cf9	-1.4808646
4	0xc0336c23	-2.8034751
5	0xbfc1c9e9	-1.5139743
6	0xbfb00fe0	-1.3754845
7	0xbfd766dd	-1.6828266

running_var f4 [8]
0	0x4112e7d3	9.181598
1	0x408c3766	4.3817625
2	0x4116ebee	9.4326
3	0x40ce49f6	6.4465284
4	0x41221916	10.1311245
5	0x407fedba	3.9988847
6	0x4069fb78	3.6559734
7	0x404fdfd6	3.2480369

weight f4 [16, 48, 3, 3, 3]
0	0xbd9ceb22	-0.076620355
1	0xbd0f5130	-0.034989536
2	0xbd6a4f05	-0.057204265
3	0xbcff4df2	-0.031165097
4	0xbcda2941	-0.026631
5	0x3c16ed5e	0.009211866
6	0xbc40e35c	-0.011772957
7	0x3d291127	0.041276123
8	0x3d01681f	0.03159344
9	0xbca0dba1	-0.019635977
10	0xbc4d77f0	-0.012540802
11	0xbcb54fa3	-0.0221327
12	0xbd1f1c69	-0.038845453
13	0xba83aacc	-0.0010045408
14	0xbadb8c28	-0.0016750144
15	0x3beb3bb0	0.007178746
16	0x3d257856	0.040397964
17	0x3c649a3e	0.01395279
18	0xbcac41c7	-0.021027459
19	0x3c8c0c9b	0.017095855
20	0xbc4d64c4	-0.012536231
21	0xbba451db	-0.0050146407
22	0x3caf7a3e	0.021420594
23	0xbca6624e	-0.020310547
24	0x3d38fa69	0.045160685
25	0xbb4b321c	-0.003100521
26	0x3ce4498e	0.027867105
27	0xbc6be7a1	-0.014398486
28	0xbca5ae9c	-0.020224862
29	0x3af03372	0.0018325879
30	0xbd0517a0	-0.032493234
31	0xbce50dc7	-0.027960671
32	0x3bf82b0f	0.0075734924
33	0xbcb1172f	-0.0216175
34	0xbccb139a	-0.02478962
35	0x3be19c6f	0.0068851034
36	0xbcef04b6	-0.029177051
37	0xbd0c2093	-0.034210753
38	0xbc606af7	-0.013697377
39	0xbc6f8ad5	-0.0146205025
40	0xbc1139f7	-0.008863918
41	0x3d14e8ff	0.036355015
42	0xbb1b775a	-0.0023722262
43	0x3cb67813	0.022274053
44	0x3b65297d	0.0034967356
45	0xbd68501f	-0.056717034
46	0xbd11ebd7	-0.035625305
47	0xbd0a4c39	-0.033764098
48	0x3c03993c	0.008032139
49	0xbd0184ca	-0.03162078
50	0x3ad8080a	0.0016481888
51	0xbcaec219	-0.021332787
52	0xbcb8a1bf	-0.022538064
53	0x3c179ab1	0.00925319
54	0xbc9a4e51	-0.018836172
55	0xbc556111	-0.013023631
56	0x3c1f8a51	0.009737567
57	0xbb5f3fe9	-0.0034065193
58	0x3d118149	0.035523687
59	0xba600fe9	-0.00085472927
60	0xbcb67f98	-0.022277638
61	0x3d0dd961	0.034631137
62	0x3d072a41	0.03299928
63	0x3c001994	0.007818598
64	0x3d1bcde3	0.038038146
65	0x3bb41b42	0.0054964134
66	0x3c876ad2	0.016530428
67	0x3c931d99	0.01795845
68	0x3cb887ab	0.022525629
69	0x3c3813a0	0.011235148
70	0x3d2395d3	0.039937805
71	0xbc9a6510	-0.018847018
72	0xbcbb1fbf	-0.022842286
73	0x3d088257	0.033327427
74	0x3c2d4c1e	0.01057723
75	0x3d147157	0.0362409
76	0x3ce86233	0.028367138
77	0x3cf689f2	0.030095074
78	0xbc0442e3	-0.008072588
79	0x3d43437b	0.047671776
80	0x3cd32bcd	0.025777722
81	0xbd34af6c	-0.044112608
82	0xbc149221	-0.009068043
83	0x3d16a33f	0.036776777
84	0x3c24667e	0.010034202
85	0x3c63f204	0.0139126815
86	0x3d685978	0.05672595
87	0xbd1011ff	-0.035173412
88	0x3c84ddff	0.016219137
89	0x3d695bfc	0.05697249
90	0x3a8df007	0.001082898
91	0xbbd5135d	-0.0065025524
92	0x3d2d2f35	0.04228135
93	0xbc3a5dcc	-0.011374902
94	0x3c5d8b0f	0.013521924
95	0x3d8cae27	0.068691544
96	0x3b5ec427	0.0033991428
97	0x3c048e2d	0.008090538
98	0x3d81083e	0.063004
99	0xbcd20bd1	-0.0256404
100	0xbb200e5a	-0.0024422617
101	0x3c7c3c4d	0.015395236
102	0x3c20c801	0.00981331
103	0x3c29fbc7	0.01037497
104	0x3c7a2d57	0.015269599
105	0xbb6af059	-0.0035848825
106	0xba5a2699	-0.00083217915
107	0x3c9b1883	0.018932587
108	0x3ac0ea7e	0.0014718322
109	0xbc4d0c6f	-0.012515171
110	0xbd2a6d69	-0.041608248
111	0xbc0ba995	-0.008524318
112	0xbafea9de	-0.0019429286
113	0xbc91d8f6	-0.01780365
114	0xbc52a170	-0.0128558725
115	0xbc7adc3c	-0.015311297
116	0xbc6ca994	-0.014444727
117	0xbc877b85	-0.01653839
118	0xbbc7eb92	-0.00610108
119	0xbca74c5b	-0.020422151
120	0xbcb31d93	-0.021864688
121	0xbd39a6a3	-0.045324933
122	0xbcf8ad24	-0.030355997
123	0xbc7f22e8	-0.015572287
124	0xbcfbbf8b	-0.030730983
125	0xbcc56875	-0.02409766
126	0xbc4ae147	-0.012382812
127	0xbd18d9a1	-0.037316922
128	0xbc8c8121	-0.017151417
129	0xbd0f2fce	-0.0349577
130	0xbd31fd5b	-0.04345451
131	0xbbf18e2d	-0.007371685
132	0xbc1ea972	-0.009683954
133	0x3c406856	0.011743626
134	0xbcfff198	-0.03124313
135	0xbd0e13ab	-0.034686726
136	0xbce339e3	-0.027737563
137	0xbd10b37e	-0.035327427
138	0xbcfa95d8	-0.03058903
139	0xbc2a9446	-0.010411328
140	0xb9fab62f	-0.00047819453
141	0xbcc311de	-0.02381223
142	0xbcddcc37	-0.027074916
143	0x3b884ab8	0.004159298
144	0xbdb2861e	-0.08716987
145	0xbbd2c26b	-0.006431868
146	0xbcdb3bcc	-0.026761912
147	0xbca41211	-0.020028146
148	0xbb5e3941	-0.0033908638
149	0x3d06aa47	0.032877233
150	0xbc50ec70	-0.012751684
151	0xbb9fca68	-0.0048764236
152	0xbc1c6e2f	-0.009547754
153	0xbd739acf	-0.05947381
154	0xbcf5a806	-0.029987346
155	0x3c687b44	0.014189545
156	0x3c393ff7	0.011306754
157	0x3d266103	0.04061986
158	0x3d226cfd	0.03965472
159	0x3c460db2	0.012088226
160	0x3cea7567	0.028620435
161	0x3d094a32	0.033518024
162	0xbd5a22a3	-0.05325569
163	0xbdb83d53	-0.08996072
164	0xbda3b131	-0.07992781
165	0xbc3f835f	-0.011689036
166	0xbd66fe39	-0.05639479
167	0xbdd2696b	-0.10274013
168	0xbcbf60c1	-0.023361566
169	0x3b7fa823	0.003901013
170	0xbd5a5048	-0.05329922
171	0xbd79a47d	-0.060947884
172	0xbdd9c768	-0.10633737
173	0xbd423ad9	-0.047419403
174	0xbd334b46	-0.04377296
175	0xbdb58c22	-0.08864619
176	0xbda5fada	-0.08104487
177	0x3c867ee8	0.016417935
178	0xba2350b1	-0.00062299805
179	0xbd5c42e3	-0.053774726
180	0xbdd3fe8a	-0.10351284
181	0xbd847861	-0.06468273
182	0xbd8c989d	-0.06865046
183	0x3c77a62f	0.015115305
184	0xbcd633a1	-0.026147665
185	0xbce98193	-0.028504169
186	0x3cd9a447	0.026567591
187	0xbc986211	-0.01860145
188	0xbced0285	-0.028931865
189	0xbb1d0891	-0.0023961405
190	0xbd1d6a6d	-0.038431574
191	0x3c50ef8b	0.012752424
192	0xbcb30a74	-0.02185557
193	0xbc8cb553	-0.017176306
194	0x3c91c378	0.017793402
195	0x3d088e6f	0.03333896
196	0x3c9da0b2	0.019241665
197	0x3cb2f03c	0.021843068
198	0xbd0e0a8a	-0.03467802
199	0xbd5c3be6	-0.05376806
200	0x3cafa525	0.021441052
201	0x3b4f19c3	0.0031601049
202	0xbc8649f9	-0.016392695
203	0x3d348e2d	0.044080902
204	0xbc931bc7	-0.017957581
205	0xbc8ea3c0	-0.017412066
206	0xba3bc38a	-0.00071626215
207	0xbd6e2c70	-0.058147848
208	0xbcf0522e	-0.029336061
209	0x3c92a3b4	0.017900325
210	0x3c324212	0.01088001
211	0xbcddeb08	-0.02708961
212	0x3a0fdf01	0.0005488247
213	0xba8d4bc2	-0.0010780024
214	0x3c790023	0.0151977865
215	0xbca8bf96	-0.020599168
216	0xbce1f88c	-0.027584337
217	0x3c9330ed	0.017967666
218	0x3cca763b	0.02471458
219	0xbbf093aa	-0.0073418217
220	0x3cfe6d23	0.0310579
221	0x3d02ccef	0.03193372
222	0xbaac4fc9	-0.0013146336
223	0x3d176c24	0.036968365
224	0x3d5107d8	0.05103287
225	0x3c3e5637	0.011617235
226	0x3cdfbe79	0.027312504
227	0x3d1740f4	0.03692718
228	0xbcae5fa2	-0.021285836
229	0x3d24b068	0.040207297
230	0x3cc94fc9	0.024574177
231	0xbcbd08fd	-0.023075575
232	0x3cbdae4e	0.023154404
233	0x3b22bbd8	0.0024831202
234	0xbaafe39b	-0.0013419272
235	0x3d409cd5	0.047024567
236	0x3cfe1c68	0.031019405
237	0xbd0574a9	-0.03258196
238	0x3cb2c4fb	0.021822443
239	0x3c8e87fd	0.017398829
240	0xbc07a427	-0.008278883
241	0x3ca7f7fa	0.020503987
242	0xbbc61e07	-0.00604606
243	0xbce2469e	-0.027621564
244	0xbcf76214	-0.030198134
245	0x3af2786e	0.0018499026
246	0xbc8afe6f	-0.016967027
247	0xbccf133f	-0.025277732
248	0x3b87e901	0.0041476493
249	0x3d03149c	0.032002077
250	0xbbd5e369	-0.0065273535
251	0x3cc03fee	0.023467984
252	0xbcf1fbab	-0.02953895
253	0xbcb4cdeb	-0.022070846
254	0x3c149c38	0.009070449
255	0x3adf22d6	0.0017023932

bias f4 [16]
0	0x3b45d2a1	0.003018536
1	0x3c9b4fa9	0.018958883
2	0x3c7502f4	0.014954317
3	0xbc927858	-0.01787965
4	0x3cad61b1	0.021164747
5	0xbb8a2dde	-0.0042168936
6	0x3c35a60b	0.011086951
7	0x3ba8a1f2	0.0051462585
8	0x3b6e8104	0.0036392817
9	0xbcc32c88	-0.023824945
10	0xbbb77622	-0.0055987993
11	0x3ce7afc7	0.02828206
12	0xbc8f1bcf	-0.017469315
13	0xbcddb397	-0.027063174
14	0x3c87aa52	0.016560707
15	0x3c5e9bf7	0.01358699

weight f4 [16]
0	0x3f44325f	0.7663936
1	0x3f6cd401	0.9251099
2	0x3f66bbfe	0.90130603
3	0x3f58ef26	0.8473991
4	0x3f65f060	0.8981991
5	0x3f6e51b8	0.9309344
6	0x3f621a1c	0.8832109
7	0x3f75de35	0.96042186
8	0x3f5ac6e4	0.85459733
9	0x3f693862	0.9110166
10	0x3f5f5e6f	0.8725347
11	0x3f7839ec	0.9696338
12	0x3f7379f0	0.95107937
13	0x3f61a080	0.8813553
14	0x3f5ee75f	0.87071794
15	0x3f6c7fc6	0.92382467

bias f4 [16]
0	0xbd37c520	-0.044865727
1	0xbb8907d8	-0.0041818433
2	0x3d436e55	0.047712643
3	0x3c35a317	0.011086247
4	0x3d7f4822	0.06232465
5	0x3d5db8e5	0.054131407
6	0xbccb17a8	-0.024791554
7	0xbd64660c	-0.055761382
8	0x3b7d39a3	0.003863909
9	0xbc642e85	-0.013927107
10	0x3d67cc94	0.056591585
11	0xbd81ceb6	-0.06338255
12	0xbccdbd9d	-0.025114829
13	0x3cab336c	0.020898543
14	0x3cae2083	0.021255737
15	0x3d04483b	0.032295447

running_mean f4 [16]
0	0xc08b5c32	-4.3550043
1	0x4113b5f0	9.231918
2	0x411e0178	9.875359
3	0x40d6a947	6.7081637
4	0x416013f2	14.004869
5	0x40fb31a0	7.8498077
6	0xc1003a89	-8.014291
7	0x4169eadc	14.619839
8	0x40e4193d	7.128081
9	0x411b73ef	9.715804
10	0x410acc3c	8.674862
11	0x413c93c9	11.78608
12	0x417ce08e	15.804823
13	0x41138ac4	9.221378
14	0x413407d7	11.251914
15	0xc1687428	-14.528358

running_var f4 [16]
0	0x43374c3c	183.29779
1	0x43a994ad	339.16153
2	0x435d21e3	221.13237
3	0x436c553e	236.33298
4	0x435969c5	217.41316
5	0x434488d3	196.53447
6	0x4352e36c	210.88837
7	0x43a92a74	338.33167
8	0x435b0788	219.02942
9	0x43a416c6	328.17792
10	0x438edfe9	285.7493
11	0x439a4a64	308.58118
12	0x43cc4421	408.53226
13	0x4343cd6a	195.8024
14	0x4396c689	301.55106
15	0x43e9e30d	467.77383

weight f4 [3, 16, 3, 3, 3]
0	0x3cd8fdf3	0.02648828
1	0xbcae4f95	-0.021278182
2	0x3d11013f	0.03540158
3	0x3c170300	0.009217024
4	0xba50a184	-0.0007958638
5	0xbd15d161	-0.036576632
6	0x3c81ff5f	0.01586884
7	0x3bd3d723	0.0064648553
8	0x3b51c1dc	0.0032006418
9	0xbc869674	-0.016429164
10	0xbc9525b8	-0.018206462
11	0x3af90d6a	0.001900119
12	0x3c8555bd	0.016276235
13	0xbc261bfa	-0.010138506
14	0x3d098c42	0.033581026
15	0xbcd2cbf4	-0.025732018
16	0x3bf2a1af	0.007404528
17	0xbbaa01d6	-0.005188207
18	0xbcc92570	-0.024553984
19	0x3d09fa93	0.03368623
20	0xbc5fdc7d	-0.013663408
21	0x3ca35b22	0.019940916
22	0x3abe5af9	0.0014522962
23	0xbc6e8b77	-0.014559618
24	0xbc8eeb51	-0.017446192
25	0xbbc167b7	-0.0059022564
26	0x3c90357d	0.01760363
27	0x3caf890b	0.021427652
28	0xbd362ca8	-0.04447618
29	0xbd7442f5	-0.059634168
30	0xbd36fcd5	-0.044674713
31	0xbcac1793	-0.021007335
32	0x3be3d392	0.0069527114
33	0xbc4428a0	-0.011972576
34	0x3c872122	0.016495291
35	0x3c016948	0.007898636
36	0x3aabf2cb	0.0013118623
37	0xbcf54f74	-0.029945113
38	0x3d09d720	0.033652425
39	0x3b970eff	0.004609942
40	0x3d30085d	0.042976726
41	0xbd15f7da	-0.036613323
42	0x3d0136ce	0.031546406
43	0x3c4f5da6	0.012656605
44	0xbd1224ee	-0.03567975
45	0xbc30c1d8	-0.010788403
46	0x3d112c82	0.035442837
47	0xbc05c619	-0.008164906
48	0xbb07c739	-0.0020718111
49	0x3c00eaf7	0.00786852
50	0x3d216e1b	0.039411645
51	0xbc8ffcfb	-0.017576685
52	0xba399822	-0.00070798595
53	0xbbdc6258	-0.0067255907
54	0x3cd256ab	0.025676092
55	0xbce47600	-0.027888298
56	0x3cf68c52	0.030096207
57	0x3b8f46c4	0.0043724496
58	0xbc8b32ef	-0.01699206
59	0xbd187dae	-0.037229232
60	0xbcf9cb63	-0.03049249
61	0xbc16216a	-0.00916324
62	0xbd03524e	-0.032060914
63	0xbc743008	-0.01490403
64	0xbd0b109f	-0.033951398
65	0x3d14ec55	0.036358196
66	0x3cde28af	0.027119009
67	0x3c0e4a61	0.0086847255
68	0x3b6ca388	0.0036108214
69	0x3d0ebc8c	0.03484778
70	0xbc0471b9	-0.008083754
71	0x3b90b128	0.00441565
72	0xbca6d3a7	-0.020364596
73	0xbc431c29	-0.011908569
74	0xba9804d9	-0.0011598124
75	0x3b279120	0.002556868
76	0xbabdd621	-0.0014483371
77	0x3c100afe	0.008791683
78	0xbcb05c36	-0.021528345
79	0x3c69465e	0.014237968
80	0x3d84a17f	0.064761154
81	0x3acde0d9	0.0015707269
82	0xbd2b7a1a	-0.041864492
83	0x3bcc7247	0.006239209
84	0xbd0d72f9	-0.034533475
85	0xbbf6ec78	-0.0075355135
86	0xbd22ef4e	-0.039779
87	0x3cc4665d	0.023974592
88	0xbd194ae3	-0.037424933
89	0x3c14a80b	0.009073268
90	0x3d509b2a	0.050929226
91	0x3cc3acd5	0.023886124
92	0xbcf5941a	-0.029977847
93	0x3cbe3308	0.023217693
94	0xbb5c204e	-0.003358859
95	0x3c16efa1	0.009212405
96	0xbcf8a516	-0.030352157
97	0x3c65219b	0.013985063
98	0x3be0cf80	0.0068606734
99	0xbd028f7e	-0.031875126
100	0x3cf7e4a5	0.030260393
101	0x3d39d573	0.045369577
102	0xbcd082ef	-0.025453059
103	0x3c40410f	0.011734261
104	0xba9acb6f	-0.0011809896
105	0x3baaae1a	0.005208743
106	0x3bb85631	0.005625509
107	0xbcb0c21d	-0.021576935
108	0x3d5a70b7	0.05333015
109	0x3d16e7d4	0.036842182
110	0x3cb6cb87	0.022313846
111	0x3bfea1f9	0.0077707735
112	0xbcf341ca	-0.029694457
113	0xbcb78d3f	-0.022406219
114	0xbc61792d	-0.013761801
115	0x3c34beb5	0.011031796
116	0xbd47120f	-0.048601206
117	0xbd097175	-0.033555467
118	0x3b646508	0.0034850258
119	0xbc166d25	-0.0091812955
120	0xbb6bc9a4	-0.0035978341
121	0x3c92a7ec	0.017902337
122	0xbc440d35	-0.011966039
123	0x3d29e647	0.041479375
124	0xbd17fcf9	-0.037106488
125	0x3d07c4f7	0.033146825
126	0xbc107358	-0.008816563
127	0xbd033272	-0.03203053
128	0xbb885d11	-0.004161485
129	0x3bef1b00	0.00729692
130	0x3c750369	0.014954426
131	0xbcb7306d	-0.022361958
132	0xbc2b7e63	-0.010467145
133	0x3cc64ac5	0.024205575
134	0xbbd4b167	-0.0064908746
135	0x3ca86dcb	0.020560166
136	0xbc9e3b3d	-0.019315356
137	0xbd59a918	-0.053139776
138	0xbd536213	-0.051607203
139	0x3c30eeb6	0.010799101
140	0xbc8d4597	-0.017245097
141	0x3b316a39	0.002707137
142	0x3ce532de	0.027978357
143	0xbc725b31	-0.01479225
144	0xbd465de8	-0.0484294
145	0x3c4d2c9e	0.012522845
146	0x3d0c1c37	0.034206595
147	0xbb3e44d4	-0.0029032724
148	0xbb9f7778	-0.0048665367
149	0x3cfcc2b0	0.030854553
150	0x3d435aad	0.047693897
151	0x3bb7cfee	0.005609504
152	0xbd2e5067	-0.042557146
153	0x3bedffcc	0.0072631594
154	0xbcccf1e6	-0.02501769
155	0x3cc92171	0.024552079
156	0xbc238908	-0.009981401
157	0xbc2468cc	-0.010034751
158	0x3c6a5138	0.014301591
159	0xbad2e38d	-0.0016089544
160	0x3c9ab2a2	0.018884007
161	0x3d194e95	0.037428457
162	0x3bb485c0	0.0055091083
163	0x3c062c46	0.008189267
164	0x3b9bded3	0.0047567873
165	0xbcfeb181	-0.0310905
166	0xbc95001d	-0.01818853
167	0x3cabfb92	0.020993982
168	0x3d17e381	0.0370822
169	0xbcb0c5bb	-0.02157866
170	0xbc95a162	-0.01826543
171	0xbcde7ae5	-0.02715821
172	0xbd2fd23b	-0.0429251
173	0xbc9449b4	-0.01810155
174	0x3d218094	0.039429262
175	0x3d138045	0.036011
176	0x3c5ac889	0.013353475
177	0x3cd50d24	0.026007243
178	0x3c12cb5c	0.0089596175
179	0xbc1ee1b5	-0.009697367
180	0x3d6c4ced	0.05769055
181	0x3b159bc0	0.002282843
182	0x3d492f5e	0.04911744
183	0xbd00e365	-0.03146686
184	0xbc19d2df	-0.0093886545
185	0xbc63bd9b	-0.013900186
186	0xbc945f7a	-0.018111933
187	0x3bde883d	0.006791143
188	0xbd625582	-0.055257328
189	0x3c44ba07	0.012007243
190	0x3c422a5a	0.011850918
191	0xbd38ccd2	-0.045117207
192	0xbc988f81	-0.018623115
193	0xbb6bbef0	-0.0035971962
194	0xbd88074a	-0.06642015
195	0x3a8f004a	0.001091012
196	0xbc7a4552	-0.015275316
197	0xbd2a2bec	-0.041545793
198	0xbc47b5df	-0.012189358
199	0xbd0ba59d	-0.034093488
200	0xbb786087	-0.0037899332
201	0x3cc0a8e7	0.023518039
202	0x3ca4e797	0.020129962
203	0xbd0dc600	-0.034612656
204	0x3bb7973b	0.005602745
205	0x39a9b10a	0.00032366096
206	0xbd3d7b4a	-0.046260156
207	0xbcb07cb9	-0.021543847
208	0x3c994294	0.018708505
209	0xbb0b7678	-0.002128033
210	0xbc440bd6	-0.0119657125
211	0x3d0451bc	0.03230451
212	0xbd1a21ea	-0.03763
213	0xbbb507cc	-0.005524611
214	0xbcb279c5	-0.02178658
215	0x3c32cb06	0.010912662
216	0x3b694d32	0.003559899
217	0x3b94d546	0.0045420257
218	0x3b8b9841	0.0042600934
219	0x3a99b61b	0.0011727245
220	0x3cc8c07a	0.024505842
221	0x3d374d5b	0.044751506
222	0xbc47a959	-0.012186372
223	0x3c57362e	0.013135476
224	0xbd0caebf	-0.03434634
225	0xbc249ebd	-0.010047612
226	0x3b53625b	0.003225467
227	0x3c26d557	0.0101827
228	0x3d0d5862	0.034508117
229	0xbcedb8c4	-0.029018767
230	0x3c97b8c6	0.018520724
231	0xbcbc6b70	-0.023000449
232	0x3cb375ef	0.021906821
233	0x3c723689	0.01478351
234	0xbcc226e8	-0.023700193
235	0x3c813daa	0.015776474
236	0xb90dae0b	-0.00013511644
237	0xbba3b15e	-0.004995509
238	0xbbf64f93	-0.00751681
239	0xbcad5059	-0.021156477
240	0xbcdff5b3	-0.027338838
241	0xbb23eb43	-0.0025012053
242	0xbb3824db	-0.002809814
243	0xbd0f8244	-0.03503634
244	0xbc2b3c61	-0.010451407
245	0x3cf33403	0.029687887
246	0xbc6893c0	-0.014195383
247	0x3c7733ff	0.01508808
248	0xbd18e725	-0.03732981
249	0xbbbbf3d5	-0.005735854
250	0xbd4180a6	-0.04724183
251	0xbc85fdd3	-0.016356384
252	0x3ccb9088	0.024849191
253	0xbca82ce3	-0.020529216
254	0xbc461865	-0.012090777
255	0xbd2d77ef	-0.042350706

bias f4 [3]
0	0x3cfaa855	0.030597845
1	0x3ddbb90c	0.10728654
2	0x3dd9eb9b	0.10640641
