DepthSensingCUDA/Source/Scan2CAD/data/checkpoint/scene0470_00/feature2noc.pt (torch, 805700 bytes, 9 tensors)

weight f4 [64, 64, 3, 3, 3]
-0.023494957 -0.018903121 0.019444766 -0.021578645 -0.007634725 -0.0033884174 0.007268652 -0.0060250764
-0.004136182 0.009720405 -0.004490736 0.030670825 0.02905304 0.009078503 0.029417746 0.00037226526
0.025486736 0.010319005 0.031330366 0.024564698 0.028116068 -0.013298767 0.029422117 -0.00790051
0.0072798566 -0.005454397 0.0033744872 -0.023260873 0.0075537288 -0.02491043 -0.032913808 -0.008087736
-0.03699584 -0.00888954 -0.002228705 -0.01612253 -0.024080522 -0.015431696 8.411482e-05 0.0023657482
-0.0035305237 -0.043564744 0.009590418 -0.033812 -0.017971946 -0.032392047 -0.009845834 -0.028220877
-0.0073254462 -0.019773064 -0.04577891 -0.020843543 -0.014145514 -0.0039145383 -0.03810347 -0.03196261
-0.026240446 -0.008622198 -0.003470865 -0.046993714 0.009932408 -0.014563104 -0.0067163385 -0.036580283
-0.025480079 -0.044174716 -0.012161632 -0.04622446 -0.032989725 -0.03062905 -0.03345885 -0.017298102
-0.030772686 -0.04595215 -0.020686578 -0.025165033 -0.045507386 -0.0053727655 -0.029012416 -0.0015147484
0.009697664 0.05324808 0.012354295 -0.03469022 0.02941776 0.006371355 -0.04761353 -0.0028749197
0.010689475 -0.023372212 0.024028467 0.007668358 -0.02518302 0.012869799 0.015201168 -0.039641153
-0.016908333 -0.02998453 -0.031319972 -0.003357538 0.0024090386 0.01135719 0.032978844 -0.009385517
-0.0027916525 -0.0097982 -0.041769836 0.00020548647 0.007089406 -0.015140654 0.005582808 0.02015726
0.015198944 0.014648089 0.02394139 -0.011626007 0.019204833 0.007450151 0.015055143 0.033992786
-0.025522664 -0.0139357215 0.015662981 0.018605934 0.013283377 0.01138283 -0.032490123 -0.010255244
-0.034715448 -0.03757012 0.008119915 -0.021558467 -0.04064988 0.010812773 -0.0053633293 -0.028492115
-0.028987136 0.009737483 -0.018046267 -0.029185265 0.013248923 -0.018006274 0.013275187 0.005315289
-0.052696686 -0.031392176 -0.006577648 -0.033827994 -0.009989321 -0.021816432 -0.0132071655 -0.009394061
-0.0077877548 -0.02060768 -0.029099679 0.011753715 0.008064044 -0.013596639 0.044797987 -0.0031837542
-0.01131417 0.022460312 0.03674828 0.037435114 0.025568213 0.006145562 0.034592014 0.008502009
0.02435311 0.03428843 0.045112785 0.03676096 0.0055664494 0.023432106 0.024672404 0.0077998713
0.03500918 0.004442377 0.02159673 0.053699974 0.008569619 0.012530791 -0.0108876955 -0.008712706
0.019954344 0.029583303 0.008549916 -0.012650135 0.03288046 0.0036378778 0.009871634 0.014071125
-0.02412873 -0.050446566 -0.0025584837 -0.05208532 -0.015317987 -0.023778986 -0.0077390377 -0.0023183625
0.028203374 -0.04403912 -0.04342373 0.005176975 -0.05335961 -0.04753074 -0.0054307845 -0.018927034
0.013455333 -0.014515387 -0.0062622963 0.0075471075 0.013176508 -0.011880711 -0.01602503 -0.013654905
-0.0012879363 0.0007612168 -0.016167426 0.005761997 -0.0393538 0.0017402961 -0.0055131163 -0.036635917
-0.02125831 -0.027044438 -0.03438136 -0.017524429 -0.03830504 -0.007732696 -0.02083849 -0.00818818
-0.009516912 -0.0039716787 -0.042824008 -0.049421433 -0.018920882 -0.051263012 -0.028555816 -0.052460723
-0.0040662405 -0.03364374 -0.020329267 0.0077935914 -0.022961697 0.028144073 -0.02159404 -0.0101805525
0.013999566 -0.020839864 0.004600238 0.01118569 -0.017578023 -0.031858284 0.019085854 -0.009374501
00000000: 7f78 c0bc b8da 9abc a14a 9f3c b3c5 b0bc
00000010: b72c fabb 3610 5ebb df2d ee3b 016e c5bb
00000020: cf88 87bb 5542 1f3c 0627 93bb 6241 fb3c
00000030: a400 ee3c 00be 143c 7cfd f03c 992c c339
00000040: 8fc9 d03c 0b11 293c 4554 003d e83b c93c
00000050: ab53 e63c 12e3 59bc a706 f13c 2471 01bc
00000060: dd8b ee3b ccba b2bb 8026 5d3b 968d bebc
00000070: 4585 f73b f510 ccbc a1d0 06bd 6c82 04bc
00000080: f388 17bd 6fa5 11bc 770f 12bb 6513 84bc
00000090: 8444 c5bc 39d5 7cbc cd66 b038 ab0a 1b3b
000000a0: 5c60 67bb f270 32bd 2121 1d3c 747e 0abd
000000b0: e739 93bc 86ad 04bd 6c50 21bc 782f e7bc
000000c0: 4c0a f0bb 1ffb a1bc ab82 3bbd 14c0 aabc
000000d0: 96c2 67bc 8745 80bb 6212 1cbd 3aeb 02bd
000000e0: 34f6 d6bc 1f44 0dbc 7477 63bb 7b7c 40bd
000000f0: 8abb 223c 169a 6ebc bb14 dcbb 35d5 15bd
00000100: 99bb d0bc 8cf0 34bd 9541 47bc dc55 3dbd
00000110: 3c20 07bd c6e9 fabc 260c 09bd c0b4 8dbc
00000120: 0017 fcbc 5238 3cbd e676 a9bc e626 cebc
00000130: f465 3abd 060e b0bb 72ab edbc 868a c6ba
00000140: f3e2 1e3c a91a 5a3d ab69 4a3c 5517 0ebd
00000150: 84fd f03c cdc6 d03b 6806 43bd 2669 3cbb
00000160: e822 2f3c 1577 bfbc 59d7 c43c d946 fb3b
00000170: 9f4c cebc d9db 523c 520e 793c c35e 22bd
00000180: 5883 8abc 1ea2 f5bc 5f49 00bd 240a 5cbb
00000190: f6e0 1d3b 8213 3a3c d314 073d b6c5 19bc
000001a0: 28f4 36bb a188 20bc d916 2bbd db77 5739
000001b0: 3f4e e83b 8110 78bc fdef b63b d720 a53c
000001c0: fe04 793c 8afe 6f3c bc20 c43c 027b 3ebc
000001d0: 7453 9d3c 6520 f43b d9a9 763c 053c 0b3d
000001e0: e814 d1bc a752 64bc a74f 803c 796b 983c
000001f0: 85a2 593c 0d7f 3a3c 5d14 05bd 9c05 28bc
00000200: c931 0ebd 20e3 19bd 6409 053c 629b b0bc
00000210: 7d80 26bd 0f28 313c debe afbb 4c68 e9bc
00000220: 6e76 edbc f789 1f3c c4d5 93bc f015 efbc
00000230: 0312 593c e581 93bc 2c80 593c e02b ae3b
00000240: 7bd8 57bd 1595 00bd 5089 d7bb 398f 0abd
00000250: 40aa 23bc 60b8 b2bc de62 58bc 8ce9 19bc
00000260: 6c30 ffbb 70d1 a8bc 7362 eebc a792 403c
00000270: 0d1f 043c 70c4 5ebc 187e 373d 88a6 50bb
00000280: 125f 39bc b0fe b73c 5d85 163d 9055 193d
00000290: 6e74 d13c b660 c93b 5bb0 0d3d 034c 0b3c
000002a0: 2c80 c73c 0672 0c3d 2fc8 383d a992 163d
000002b0: c366 b63b b0f4 bf3c c81d ca3c 1096 ff3b
000002c0: c965 0f3d 5c91 913b a0eb b03c 81f4 5b3d
000002d0: 9667 0c3c f24d 4d3c 4e62 32bc bdbf 0ebc
000002e0: 4b77 a33c af58 f23c f214 0c3c 8342 4fbc
000002f0: a9ad 063d 7669 6e3b a2bc 213c 938a 663c
00000300: 9da9 c5bc 0fa1 4ebd 3cac 27bb 6b57 55bd
00000310: 4bf8 7abc 26cc c2bc c197 fdbb abef 17bb
00000320: c30a e73c 5d62 34bd 15dd 31bd 9da3 a93b
00000330: 9b8f 5abd 98af 42bd b9f4 b1bb de0c 9bbc
00000340: c273 5c3c f2d1 6dbc f333 cdbb ba4d f73b
00000350: 48e2 573c 50a7 42bc ec46 83bc d3b8 5fbc
00000360: f9cf a8ba 658c 473a 8d71 84bc 22cf bc3b
00000370: 7331 21bd a61a e43a 5fa7 b4bb 8b0f 16bd
00000380: e825 aebc 4c8c ddbc 78d3 0cbd 648f 8fbc
00000390: bfe5 1cbd 8e62 fdbb 7bb5 aabc b727 06bc
000003a0: d2ec 1bbc db24 82bb 3a68 2fbd 216e 4abd
000003b0: f7ff 9abc 2af9 51bd e3ed e9bc 0ee1 56bd
000003c0: 193e 85bb 05ce 09bd 9089 a6bc 6261 ff3b
000003d0: 2b1a bcbc 668e e63c fce5 b0bc 55cc 26bc
000003e0: 705e 653c 5db8 aabc 98bd 963b 2f44 373c
000003f0: c9ff 8fbc d57d 02bd f059 9c3c 8297 19bc

bias f4 [64]
0.033980794 0.0121017145 0.0008475677 0.035812963 0.023288535 0.01848078 0.006527351 0.03619582
-0.0012629416 0.025052363 0.007442483 -0.010348733 0.0076387115 0.019447396 -0.011334371 -0.013698742
0.038619336 -0.0003270887 -0.006801959 -0.0016075298 -0.0044677844 0.007486505 0.032111097 0.019673642
0.020698866 0.0070586973 0.0076074456 0.033554036 0.003100935 0.01815799 0.020051446 0.04038592
0.027626935 -0.0011733125 0.019125326 0.029906984 0.011295108 -0.001161482 0.030455505 0.033986054
0.046716932 0.025423234 0.02735202 0.030695828 0.030762207 -0.016788358 0.011935935 0.013113945
0.012188324 0.0052305316 -0.0027854412 0.0015010228 -0.00963721 0.014982826 0.020506224 -0.004289938
0.0021308714 -0.0030005302 0.024498384 -0.008757247 0.02543469 0.009773722 0.0071484805 0.021072248
00000000: 722f 0b3d 4546 463c 4e2f 5e3a 9db0 123d
00000010: 99c7 be3c 0165 973c 64e3 d53b 1142 143d
00000020: 4a89 a5ba 9d3a cd3c 13e0 f33b bb8d 29bc
00000030: 284e fa3b 2550 9f3c ccb3 39bc b070 60bc
00000040: 4f2f 1e3d 1a7d abb9 f8e2 debb c0b3 d2ba
00000050: 7e66 92bb 5b51 f53b ed86 033d 9e2a a13c
00000060: ab90 a93c a54c e73b e147 f93b f56f 093d
00000070: 0e39 4b3b 11c0 943c ee42 a43c b56b 253d
00000080: e251 e23c d6c9 99ba b7ac 9c3c 7eff f43c
00000090: 1e0f 393c de3c 98ba d37d f93c f634 0b3d
000000a0: 415a 3f3d 6344 d03c 5811 e03c d175 fb3c
000000b0: 0601 fc3c bd87 89bc f18e 433c dfdb 563c
000000c0: 89b1 473c e164 ab3b f38b 36bb f8bd c43a
000000d0: 63e5 1dbc 877a 753c abfc a73c 9c92 8cbb
000000e0: 17a6 0b3b 8ba4 44bb d6b0 c83c 8e7a 0fbc
000000f0: 695c d03c f621 203c cd3d ea3b b59f ac3c

weight f4 [64]
0.8954469 0.89143157 0.8818537 0.91106796 0.86020046 0.85690653 0.8825931 0.94364864
0.86854285 0.8463628 0.88257563 0.9181489 0.92715704 0.9469127 0.92305833 0.8503827
0.91576815 0.88189536 0.8738784 0.89763826 0.89625275 0.8879502 0.8767897 0.89853704
0.9469055 0.918987 0.89959824 0.8781513 0.94267935 0.85502976 0.8718432 0.85258967
0.9070109 0.9394452 0.92161053 0.87622327 0.86303693 0.8337672 0.9298951 0.9079498
0.9079253 0.8999408 0.9680634 0.8809525 0.8793104 0.88866484 0.8663594 0.9523198
0.9366744 0.9470909 0.8230957 0.8695523 0.8022807 0.95859426 0.93459123 0.90502554
0.8791614 0.92258364 0.8899559 0.9493121 0.9206858 0.8714367 0.8723716 0.8908428
00000000: 023c 653f dc34 643f 2ac1 613f c03b 693f
00000010: 1936 5c3f 3a5e 5b3f 9ff1 613f f592 713f
00000020: d358 5e3f 3cab 583f 7af0 613f ce0b 6b3f
00000030: 2a5a 6d3f df68 723f 8d4d 6c3f aeb2 593f
00000040: c86f 6a3f e5c3 613f 7fb6 5f3f 9fcb 653f
00000050: d270 653f b450 633f 4a75 603f 8606 663f
00000060: 6668 723f bb42 6b3f 124c 663f 86ce 603f
00000070: 6f53 713f 3be3 5a3f 1e31 5f3f 5143 5a3f
00000080: de31 683f 7b7f 703f abee 6b3f 2b50 603f
00000090: fdef 5c3f c471 553f 9b0d 6e3f 666f 683f
000000a0: cb6d 683f 8562 663f 01d3 773f 1a86 613f
000000b0: 7d1a 613f 8a7f 633f bbc9 5d3f 3bcb 733f
000000c0: e5c9 6f3f 8d74 723f 66b6 523f fb9a 5e3f
000000d0: 4562 4d3f 6f66 753f 5f41 6f3f c1af 673f
000000e0: b910 613f 712e 6c3f 26d4 633f 1e06 733f
000000f0: 11b2 6b3f 7a16 5f3f bf53 5f3f 460e 643f

bias f4 [64]
-0.15719515 -0.13504449 -0.13051994 -0.073710375 -0.15109494 -0.16762955 -0.16129607 -0.02543993
-0.13955168 -0.12646763 -0.12066502 -0.043571774 -0.045130808 -0.023103582 -0.07678403 -0.15418392
-0.08878837 -0.15702401 -0.13471106 -0.11362911 -0.14379448 -0.13757522 -0.12711163 -0.14111272
-0.036573768 -0.06811117 -0.10373709 -0.13575439 -0.015694713 -0.20282276 -0.11000478 -0.14489879
-0.10132136 -0.058793794 -0.06517574 -0.16925356 -0.15231365 -0.08686253 -0.05295924 -0.11948669
-0.082932405 -0.08546602 -0.00540936 -0.0966613 -0.15422995 -0.11896795 -0.15874411 -0.032370657
-0.0065842937 -0.02602644 -0.1376777 -0.13351198 -0.18504292 -0.0071808686 -0.08218255 -0.11735384
-0.10350764 -0.103474975 -0.14266641 -0.024589915 -0.06883387 -0.15835924 -0.1457215 -0.08244003
00000000: c4f7 20be 1a49 0abe 05a7 05be 77f5 96bd
00000010: a2b8 1abe 15a7 2bbe cc2a 25be 6667 d0bc
00000020: a3e6 0ebe bb80 01be 391f f7bd 5178 32bd
00000030: 15db 38bd b943 bdbc f240 9dbd 64e2 1dbe
00000040: add6 b5bd e7ca 20be b2f1 09be 61b6 e8bd
00000050: dc3e 13be 85e0 0cbe 8d29 02be da7f 10be
00000060: 60ce 15bd de7d 8bbd 1d74 d4bd 3303 0bbe
00000070: 3392 80bc c5b0 4fbe 304a e1bd 5960 14be
00000080: 9381 cfbd c3d1 70bd dc7a 85bd ce50 2dbe
00000090: 1cf8 1bbe fbe4 b1bd caeb 58bd 70b5 f4bd
000000a0: 77d8 a9bd cf08 afbd 0041 b1bb 5cf6 c5bd
000000b0: 75ee 1dbe 78a5 f3bd d18d 22be 1897 04bd
000000c0: 0fc1 d7bb 6735 d5bc 62fb 0cbe 5db7 08be
000000d0: e47b 3dbe 7e4d ebbb 534f a8bd 3657 f0bd
000000e0: d0fb d3bd b0ea d3bd 2517 12be ca70 c9bc
000000f0: c6f8 8cbd ed28 22be 0438 15be 52d6 a8bd

running_mean f4 [64]
-1.0139446 -2.5856879 -2.150588 -2.9464846 -1.5506581 -0.7981909 -2.215835 -2.1476297
-0.9164296 -2.3650463 -2.4247477 -1.8357986 -2.0929604 -1.9052922 -0.2797035 -2.4138772
-1.3603946 -2.3831916 -1.5625266 -1.3794253 -1.2944157 -1.8017795 -2.1526437 -1.1094837
-1.1212858 -2.1776025 -0.8685707 -2.3953018 -0.636791 -2.85145 -1.6838564 -2.1157432
-1.5195289 -2.8728945 -0.85014105 -2.6176116 -1.818142 -2.0242689 -1.3962573 -1.6892484
-1.4066316 -1.7092198 -1.4651825 -0.35937902 -2.4268236 -1.4410981 -0.5237045 -2.1504362
-6.471136 -0.8591564 -2.242065 -2.3185923 -1.9639504 -2.5235908 -0.94555616 -2.1013584
-2.1350238 -1.3813773 -1.7030363 -1.5363053 -1.6132302 -1.8979133 -0.98350894 -1.6908778
00000000: f0c8 81bf e97b 25c0 3ca3 09c0 3493 3cc0
00000010: f77b c6bf 3d56 4cbf 3ed0 0dc0 c472 09c0
00000020: 219b 6abf eb5c 17c0 112f 1bc0 73fb eabf
00000030: 10f3 05c0 9de0 f3bf 4c35 8fbe f77c 1ac0
00000040: 6921 aebf 3686 18c0 df00 c8bf 0291 b0bf
00000050: 6aaf a5bf b6a0 e6bf eac4 09c0 9003 8ebf
00000060: 4b86 8fbf d75d 0bc0 a65a 5ebf a04c 19c0
00000070: bc04 23bf 287e 36c0 9b88 d7bf 5668 07c0
00000080: ec7f c2bf 81dd 37c0 d8a2 59bf f386 27c0
00000090: e1b8 e8bf 9f8d 01c0 8fb8 b2bf 4b39 d8bf
000000a0: 810c b4bf b7c7 dabf 1a8b bbbf 8700 b8be
000000b0: 1451 1bc0 e775 b8bf 8011 06bf bfa0 09c0
000000c0: 8c13 cfc0 adf1 5bbf fe7d 0fc0 d163 14c0
000000d0: ba62 fbbf 8382 21c0 f80f 72bf a87c 06c0
000000e0: 3ba4 08c0 f9d0 b0bf 18fd d9bf a7a5 c4bf
000000f0: 547e cebf d3ee f2bf 3ec7 7bbf af6e d8bf

running_var f4 [64]
39.632072 84.29209 55.09397 53.45059 54.247116 115.30874 68.60018 64.0507
43.186676 89.28808 51.84536 83.67492 90.68326 30.930834 48.709858 97.12762
41.655163 70.645424 34.06645 30.796026 43.517063 75.452866 47.744457 49.287144
37.617897 35.064533 28.767178 74.29659 39.125988 115.84223 55.151997 86.07706
51.188183 22.471542 40.90581 94.091995 58.13224 29.335215 39.59776 17.515985
36.75175 74.42672 40.60028 46.002903 47.739544 31.920763 77.04205 30.794928
19.55473 55.753098 74.64514 99.88812 135.89053 111.96784 31.646296 35.914978
74.58737 37.10513 69.75909 56.724514 50.48033 65.72089 44.164356 62.05875
00000000: 3e87 1e42 8d95 a842 3a60 5c42 67cd 5542
00000010: 0cfd 5842 139e e642 4b33 8942 f519 8042
00000020: 28bf 2c42 7f93 b242 a661 4f42 8f59 a742
00000030: d45d b542 5972 f741 e5d6 4242 5741 c242
00000040: e39e 2642 754a 8d42 0b44 0842 435e f641
00000050: 7911 2e42 dee7 9642 53fa 3e42 0926 4542
00000060: ba78 1642 1542 0c42 2e23 e641 db97 9442
00000070: 0381 1c42 39af e742 a59b 5c42 7427 ac42
00000080: b3c0 4c42 b8c5 b341 8d9f 2342 1a2f bc42
00000090: 6a87 6842 85ae ea41 1b64 1e42 bd20 8c41
000000a0: cb01 1342 7bda 9442 b066 2242 f902 3842
000000b0: 4bf5 3e42 b95d ff41 8815 9a42 035c f641
000000c0: 1670 9c41 2c03 5f42 504a 9542 b8c6 c742
000000d0: fae3 0743 89ef df42 9d2b fd41 f0a8 0f42
000000e0: bc2c 9542 a76b 1442 a784 8b42 e7e5 6242
000000f0: dceb 4942 1871 8342 4da8 3042 293c 7842

weight f4 [48, 64, 3, 3, 3]
0.01286521 0.0002956918 -0.0008813722 -0.022463793 0.01217441 -0.017013796 -0.039569337 0.007346824
0.012404306 -0.027199527 0.03022629 0.022983644 -0.040002905 0.021312915 0.031433333 -0.03867445
0.012817565 -0.0043905387 0.020076541 0.039320905 -0.011926196 0.007730104 0.04103818 -0.01016512
0.02288029 0.032085564 -0.017306611 -0.012187066 0.008493026 0.026375696 -0.018070627 0.0037810917
-0.018949391 0.008135309 -0.006581564 -0.017034927 -0.0033840723 0.013398165 0.0036948763 -0.015319409
0.0035576331 0.007580394 -0.053848583 -0.03832632 -0.020979846 0.020093301 0.008441365 0.007482535
-0.008715661 -0.0077637183 -0.007863501 0.00042814473 0.013742231 0.009253207 0.009938098 0.007132998
0.014340288 -0.015670765 0.015945269 0.03795005 -0.015776271 -0.021920929 -0.0087140715 0.0023921402
0.02248869 -0.02189985 0.014265539 0.011301667 0.038539473 -0.038864207 -0.014189049 -0.00068982627
0.0009955077 -0.009418586 0.02721163 0.009056939 -0.0049220747 0.023414247 0.0048547518 -0.012780867
-0.014876989 -0.00020756545 -0.03090249 0.02436076 -0.0072617047 -0.004722478 0.004757677 0.00804312
0.008662304 0.01932416 0.000768814 -0.027741864 -0.013104911 -0.008115423 -0.0034021656 -0.005598852
0.015601008 -0.024292149 0.016774043 0.0236043 0.014037811 -0.01779213 0.010175973 0.009794174
0.019048167 -0.02131246 -0.016418863 0.017163165 -0.0031872243 -0.004836029 0.028214306 0.019168787
0.0059851324 -0.009018985 -0.0027631153 0.0051876926 0.0011140695 0.013335893 0.013865777 -0.01744456
-0.013344853 0.044311743 0.010557213 0.013932956 -0.014956321 -0.00037345852 -0.008922445 0.012361217
-0.006703048 0.0064907772 0.019780606 -0.0075812247 0.019344306 -0.02771439 -0.0024003938 -0.0037497499
-0.012272252 0.008042496 -0.0027602774 0.025016444 -0.006820287 0.009703735 -0.0094722165 0.029484147
-0.008389717 0.011564239 0.031200878 0.010901108 0.0058978456 0.016978396 0.021334745 0.01325547
0.013506582 0.014128965 -0.013793597 -0.014320915 -0.0011005605 0.006768088 -0.006278788 0.008095172
0.0065863314 0.018046482 -0.014409532 -0.009064551 0.020649735 -0.006333749 0.0011587347 -0.0018809657
-0.00057369564 0.019721434 0.019458516 0.00634986 -0.0063302065 -0.009883324 0.009511912 0.015204383
0.019161953 -0.0022633777 0.016266676 0.01106853 -0.0007804316 0.011608155 -0.014977371 0.002540969
-0.01123468 -0.034273457 0.013385163 -0.014570892 -0.027054166 0.021793883 -0.0007806131 -0.0090568205
0.007535194 -0.008543536 -0.022805287 -0.011752778 -0.0001266736 -0.014479247 0.002588066 -0.009138692
-0.042185217 0.011697974 -0.012123251 0.014360357 0.018554151 -0.012801149 0.017356543 -0.012869001
-0.014863582 0.010579162 0.008397768 0.012304516 0.0052617188 0.014619612 -0.00090372685 -0.0076381317
-0.028532911 -0.0025347813 -0.024064355 0.0011455631 -0.0016169581 -0.02761558 0.0021062954 0.0068796007
-0.021423727 -0.022146594 0.0058418233 -0.007072854 -0.018832318 0.022068374 0.009065944 0.01422738
0.0007716326 0.032361053 0.02025927 0.00982656 -0.021794306 0.008228569 0.015417225 0.022131158
0.012163241 -0.030188005 0.030242654 0.001329273 -0.028348815 0.004317514 -0.016467161 -0.018718464
-0.00890266 -0.017332528 -0.012593774 -0.0027488992 0.018554723 0.018975088 0.01131994 0.025743695
00000000: 9ac8 523c 1507 9b39 e30b 67ba fd05 b8bc
00000010: 2d77 473c 8460 8bbc 7513 22bd a0bd f03b
00000020: 6e3b 4b3c 8bd1 debc 209d f73c 3248 bc3c
00000030: 16da 23bd 6c98 ae3c 3dc0 003d 1a69 1ebd
00000040: c400 523c 82de 8fbb 8f77 a43c f50e 213d
00000050: 1766 43bc d04c fd3b a717 283d 9a8b 26bc
00000060: 726f bb3c 276c 033d 98c6 8dbc 42ac 47bc
00000070: 5526 0b3c d811 d83c da08 94bc 31cc 773b
00000080: c13b 9bbc f649 053c 29aa d7bb d58c 8bbc
00000090: 50c7 5dbb fa83 5b3c bd25 723b 42fe 7abc
000000a0: 2e27 693b f464 f83b 5590 5cbd 0ffc 1cbd
000000b0: eddd abbc b59a a43c a74d 0a3c 0e30 f53b
000000c0: 22cc 0ebc ca66 febb ead5 00bc 9d78 e039
000000d0: 1827 613c c39a 173c 67d3 223c edbb e93b
000000e0: 87f3 6a3c fa5f 80bc a79f 823c 8371 1b3d
000000f0: 3d3d 81bc 8593 b3bc 77c5 0ebc 74c5 1c3b
00000100: 343a b83c 5067 b3bc 02ba 693c a12a 393c
00000110: 91db 1d3d 1330 1fbd 2f79 68bc 75d5 34ba
00000120: b27b 823a 6a50 1abc edea de3c 8e63 143c
00000130: 5b49 a1bb 3ccf bf3c 9c14 9f3b d766 51bc
00000140: 9dbe 73bc eda5 59b9 3827 fdbc 3790 c73c
00000150: 98f3 edbb 04bf 9abb 4ae6 9b3b 4ac7 033c
00000160: 56ec 0d3c b34d 9e3c 3c8a 493a e842 e3bc
00000170: fbb5 56bc 8df6 04bc def6 5ebb 9376 b7bb
00000180: 5f9b 7f3c 5400 c7bc b869 893c ce5d c13c
00000190: d9fe 653c cdc0 91bc 20b9 263c be77 203c
000001a0: e70a 9c3c 7897 aebc da80 86bc c499 8c3c
000001b0: c0e0 50bb 8d77 9ebb b021 e73c dc07 9d3c
000001c0: ee1e c43b 5dc4 13bc 6215 35bb 85fd a93b
000001d0: f805 923a ca7e 5a3c 492d 633c e5e7 8ebc
000001e0: 5fa4 5abc 3b80 353d 29f8 2c3c 0e47 643c
000001f0: 5b0b 75bc c1cc c3b9 722f 12bc b486 4a3c
00000200: 3ea5 dbbb 96b0 d43b f00a a23c ec6b f8bb
00000210: f377 9e3c 4a09 e3bc ed4f 1dbb 5dbe 75bb
00000220: 8e11 49bc acc4 033c c5e5 34bb 49ef cc3c
00000230: b77c dfbb 6afc 1e3c 5b31 1bbc bd88 f13c
00000240: 0675 09bc ef77 3d3c fc98 ff3c 909a 323c
00000250: b742 c13b 4716 8b3c 34c6 ae3c 792d 593c
00000260: b64a 5d3c 2d7d 673c 8afe 61bc 45a2 6abc
00000270: af40 90ba d6c6 dd3b 4bbe cdbb 9da1 043c
00000280: 27d2 d73b 37d6 933c f515 6cbc 7c83 14bc
00000290: a229 a93c 568b cfbb afe0 973a bc8a f6ba
000002a0: 1064 16ba d88e a13c 7767 9f3c 7d12 d03b
000002b0: 9f6d cfbb aaed 21bc dad7 1b3c ce1b 793c
000002c0: 87f9 9c3c 2d55 14bb b141 853c c858 353c
000002d0: e195 4cba 2230 3e3c a663 75bc 6386 263b
000002e0: aa11 38bc 5362 0cbd 714d 5b3c c0ba 6ebc
000002f0: b3a0 ddbc 1689 b23c 0fa2 4cba 0f63 14bc
00000300: cae9 f63b 30fa 0bbc 27d2 babc b98e 40bc
00000310: b0d3 04b9 5d3a 6dbc 8b9c 293b 74ba 15bc
00000320: 68ca 2cbd dca8 3f3c 9aa0 46bc b447 6b3c
00000330: e0fe 973c e9bb 51bc 4f2f 8e3c 81d8 52bc
00000340: 6286 73bc 3954 2d3c cb96 093c e198 493c
00000350: 7f6a ac3b 1987 6f3c 15e8 6cba 4b49 fabb
00000360: dabd e9bc 931e 26bb 9c22 c5bc b826 963a
00000370: 1cf0 d3ba 123a e2bc c609 0a3b 466e e13b
00000380: d080 afbc c66c b5bc c46c bf3b 66c3 e7bb
00000390: 3c46 9abc bcc8 b43c 5389 143c f519 693c
000003a0: 6347 4a3a 068d 043d c5f6 a53c 94ff 203c
000003b0: f989 b2bc 1fd1 063c 8798 7c3c 674c b53c
000003c0: 5548 473c d64c f7bc 71bf f73c 003b ae3a
000003d0: c63b e8bc ef79 8d3b 24e6 86bc 7757 99bc
000003e0: 76dc 11bc f2fc 8dbc 1e56 4ebc e026 34bb
000003f0: 1300 983c a571 9b3c 4577 393c 71e4 d23c

bias f4 [48]
-0.0014407885 -0.0021486226 -0.008236541 -0.0053393366 -0.018400041 -0.024249192 0.05146846 0.013387362
0.009861081 -0.021688746 -0.026637254 0.054817565 -0.02031015 -0.014950882 0.02276755 0.03178631
-0.008956412 -0.017135821 -0.01977772 -0.025738511 -0.030036474 0.016584836 0.022982387 -0.075200476
0.009269149 0.0016182729 -0.012685812 0.016865807 0.011706038 0.020115923 -0.07983438 0.01665265
-0.0023313842 0.057536256 0.005408464 0.021878652 -0.007022417 0.030734174 -0.012356009 0.021620551
0.035699137 -0.015863778 0.010924798 0.025842495 0.019327674 0.011262778 0.07287022 0.02590634
00000000: d7d8 bcba e8cf 0cbb 8ff2 06bc 9af5 aebb
00000010: afbb 96bc 3ea6 c6bc 98d0 523d aa56 5b3c
00000020: 5f90 213c 99ac b1bc 5f36 dabc 6288 603d
00000030: 7961 a6bc 8bf4 74bc 0383 ba3c 5d32 023d
00000040: eabd 12bc 6c60 8cbc e304 a2bc 92d9 d2bc
00000050: 0d0f f6bc ecdc 873c 8f45 bc3c b502 9abd
00000060: a1dd 173c 3a1c d43a 27d8 4fbc 292a 8a3c
00000070: afca 3f3c 26ca a43c 3580 a3bd 236b 883c
00000080: 23ca 18bb 23ab 6b3d 7c39 b13b dc3a b33c
00000090: 4e1c e6bb 3cc6 fb3c dc70 4abc 951d b13c
000000a0: 4239 123d c1f4 81bc edfd 323c a4b3 d33c
000000b0: 1255 9e3c 8487 383c fb3c 953d 8839 d43c

weight f4 [3, 48, 3, 3, 3]
-0.01611298 0.020935634 -0.014074656 -0.0060393326 -0.021611901 0.023041015 0.020265335 -0.00342051
0.0053804945 -0.012503428 -0.008677865 0.033079203 0.023999194 -0.0037115975 -0.012551819 -0.010758197
-0.010458456 0.0045686285 -0.003137756 0.006072392 -0.013525377 0.0047024232 -0.006215623 0.00474468
0.009879689 -0.00030395758 -0.01817939 0.024116877 -0.0057174447 -0.027619727 0.000922026 0.012991117
-0.009503751 0.009557099 0.0042452402 -0.0010779266 -0.013146813 0.0027669815 -0.0032958586 -0.017613875
0.01467963 0.023805298 -0.0119268885 -0.017165935 0.0047444645 -0.014370614 0.015246987 0.010720549
-0.02318175 0.007365084 0.007807038 0.015427641 0.008840712 4.4874785e-05 -0.015436445 0.015416097
-0.0069469903 0.0010046713 -0.0027777068 -0.015279369 -0.00024251812 0.0045039896 0.024512064 -0.008641504
0.009049724 -0.005884077 0.030023415 -0.012523828 -0.007971588 -0.0071995463 -0.021517875 -0.0018932256
0.012777314 -0.0006325421 -0.014027838 -0.0027321735 0.020150317 0.0019039259 -0.007810245 0.006723468
0.014549603 0.0010533149 0.001036525 -0.022310376 0.018507142 -0.02465741 -0.008033237 -0.0022517047
0.00961152 0.009122601 0.014785115 -0.013957523 0.018220501 -0.028113471 0.0029989227 0.023407208
-0.013091975 0.0037919844 0.008764929 0.011564725 0.008586094 -0.01972234 -0.008976303 0.0129061695
0.011865152 0.014874825 -0.011360466 -0.023021493 0.020528072 0.019756947 -0.018674888 -0.0030197005
-0.01934055 -0.005457783 0.017473184 0.01422895 -0.017752293 0.010149847 0.008116462 0.00031620744
-0.019747926 9.274383e-05 0.022370113 -0.021955086 0.020621283 -0.022026708 -0.026044767 -0.033915985
0.024631944 0.017768605 0.014928292 0.0041805743 -0.0005642141 -0.00011234624 0.009526737 -0.018394424
0.015903939 -0.012243175 0.023968875 0.0074134455 0.0028677487 0.019203477 -0.004059209 -0.008548681
0.013221871 0.0144340275 0.00614962 -0.015214638 -0.028214995 0.0203308 -0.027460918 -0.024817074
-0.0022390091 0.017053518 0.0014616121 -0.010263609 -0.008780293 -0.011318052 -0.016446365 0.015128442
0.015670627 0.013810972 0.01902704 -0.008216544 -0.03469747 0.011974046 -0.010525679 -0.019109998
-0.0077493303 -0.0060148803 0.0017472986 -0.0030642983 -0.00021534487 0.009413373 -0.020314597 0.039140914
-0.001935278 -0.0038632 0.025730161 0.02213557 0.015164236 -0.008973854 0.016760807 -0.022231204
-0.018313223 0.032749865 0.0067581045 -0.020412596 -0.01749491 0.015362259 0.01566447 -0.021494454
0.011883163 -0.0049721925 0.008678165 0.009968409 0.018627843 -0.009180128 -0.004107762 -0.0032540562
-0.009593845 0.011488882 -0.0124574285 -0.018645251 0.00038794446 -0.014651645 0.007453098 -0.0081672985
-0.0066251657 0.029972538 -0.0077941017 -0.01783018 0.026866004 -0.008874585 0.0011590928 -0.003929723
0.011478685 -0.010943204 0.004969108 -0.022657039 -0.0073988102 0.0027103587 0.014768998 0.022928936
-0.024715148 0.0015064474 -0.0143083995 -0.026091663 0.0040436843 -0.0070134574 0.024076352 -0.010681936
0.005459817 0.018859092 0.014461511 -0.013715629 0.005278802 0.019024916 -0.015179944 0.0020017943
-0.023251679 0.00023429937 -0.005911406 0.016303312 -0.00814948 0.01934998 -0.013241295 -0.017027773
0.0068962406 -0.020898094 -0.020184563 0.014213169 -0.009835268 0.026937915 -0.0017169726 -0.024833301
00000000: 5eff 83bc 3581 ab3c 6399 66bc 98e5 c5bb
00000010: 710b b1bc 83c0 bc3c 7d03 a63c a32a 60bb
00000020: dc4e b03b 2edb 4cbc 9b2d 0ebc 0f7e 073d
00000030: f599 c43c 463e 73bb 25a6 4dbc 2643 30bc
00000040: f259 2bbc 6fb4 953b cfa2 4dbb ebfa c63b
00000050: 8b99 5dbc c916 9a3b 6dac cbbb 4379 9b3b
00000060: 6bde 213c 7f5c 9fb9 f2ec 94bc c290 c53c
00000070: 6759 bbbb c442 e2bc 1eb4 713a b2d8 543c
00000080: 9fb5 1bbc 6195 1c3c a81b 8b3b 3749 8dba
00000090: bb65 57bc 3f56 353b 55ff 57bb f94a 90bc
000000a0: d582 703c 5403 c33c ff68 43bc 939f 8cbc
000000b0: 7477 9b3b b972 6bbc 80ce 793c 3ea5 2f3c
000000c0: a7e7 bdbc cd56 f13b 2ed2 ff3b 37c4 7c3c
000000d0: a2d8 103c ef37 3c38 25e9 7cbc cc93 7c3c
000000e0: 94a3 e3bb 2daf 833a 300a 36bb 5256 7abc
000000f0: 764c 7eb9 3496 933b 86cd c83c 1895 0dbc
00000100: 4b45 143c 37cf c0bb aaf3 f53c be30 4dbc
00000110: 439b 02bc 2cea ebbb 4146 b0bc 1c26 f8ba
00000120: f057 513c 2fd1 25ba 04d5 65bc 440e 33bb
00000130: 4712 a53c 278d f93a 15ed ffbb 8a50 dc3b
00000140: 7561 6e3c 620f 8a3a 02dc 873a 40c4 b6bc
00000150: 4a9c 973c 56fe c9bc d79d 03bc 5691 13bb
00000160: a379 1d3c f676 153c 443d 723c 18ae 64bc
00000170: 2943 953c 394e e6bc 9389 443b 79c0 bf3c
00000180: b97f 56bc f182 783b c79a 0f3c f979 3d3c
00000190: b0ac 0c3c bf90 a1bc 5811 13bc 6674 533c
000001a0: 0e66 423c 8ab5 733c 3f21 3abc 9297 bcbc
000001b0: 7d2a a83c 52d9 a13c 14fc 98bc 2be6 45bb
000001c0: 1370 9ebc 34d7 b2bb ec23 8f3c 8b20 693c
000001d0: 426d 91bc 8b4b 263c e9fa 043c a5c8 a539
000001e0: 67c6 a1bc 777f c238 8741 b73c 27db b3bc
000001f0: f7ed a83c 5b71 b4bc d65b d5bc 7deb 0abd
00000200: eec8 c93c 778f 913c cb95 743c 33fd 883b
00000210: c4e7 13ba 6e9b ebb8 0816 1c3c e7af 96bc
00000220: fa48 823c 9997 48bc 605a c43c 7dec f23b
00000230: d7f0 3b3b 9c50 9d3c 1d03 85bb c40f 0cbc
00000240: 8ca0 583c b37c 6c3c c082 c93b d146 79bc
00000250: 2223 e7bc c78c a63c b8f5 e0bc 2d4d cbbc
00000260: 57bc 12bb d2b3 8b3c 9093 bf3a b228 28bc
00000270: 38db 0fbc 5a6f 39bc 87ba 86bc 49dd 773c
00000280: b05f 803c 6a47 623c 98de 9b3c af9e 06bc
00000290: ef1e 0ebd ca2e 443c e673 2cbc 928c 9cbc
000002a0: 18ee fdbb 7918 c5bb 9d05 e53a 65d2 48bb
000002b0: 33ce 61b9 8c3a 1a3c cc6a a6bc 3952 203d
000002c0: 27a9 fdba be2d 7dbb 0fc8 d23c a855 b53c
000002d0: 6a73 783c 1207 13bc f64d 893c 371e b6bc
000002e0: 9d05 96bc b924 063d 1773 dd3b 5138 a7bc
000002f0: 7c51 8fbc fcb1 7b3c c652 803c 2315 b0bc
00000300: 99b1 423c c6ed a2bb dd2e 0e3c 8a52 233c
00000310: 6b99 983c 3f68 16bc 689a 86bb 0142 55bb
00000320: 812f 1dbc dd3b 3c3c 3e1a 4cbc edbd 98bc
00000330: 0665 cb39 740d 70bc 1e39 f43b 22d0 05bc
00000340: eb17 d9bb f888 f53c aa65 ffbb 9910 92bc
00000350: 1816 dc3c b566 11bc b3ec 973a e8c4 80bb
00000360: 1811 3c3c 204b 33bc e6d3 a23b 419b b9bc
00000370: b871 f2bb 46a0 313b abf9 713c 77d5 bb3c
00000380: 6c77 cabc fd73 c53a c76d 6abc 2fbe d5bc
00000390: e280 843b 25d1 e5bb c53b c53c 4903 2fbc
000003a0: 44e8 b23b 627e 9a3c f9ef 6c3c 84b7 60bc
000003b0: cdf9 ac3b 24da 9b3c 4db5 78bc 8930 033b
000003c0: 4e7a bebc 42ae 7539 78b4 c1bb 868e 853c
000003d0: 6685 05bc d983 9e3c 04f2 58bc d47d 8bbc
000003e0: dcf9 e13b 7b32 abbc 195a a5bc 5ade 683c
000003f0: 1b24 21bc e7ac dc3c 0a0c e1ba 356f cbbc
