DepthSensingCUDA/Source/Scan2CAD/data/checkpoint/scene0470_00/feature2heatmap0.pt (torch, 16848 bytes, 7 tensors)

weight f4 [8, 8, 3, 3, 3]
0	0xbc5cb614	-0.013471145
1	0xbd17f972	-0.037103124
2	0x3be6745c	0.007032914
3	0x3da41aee	0.08012949
4	0x3d151fca	0.03640727
5	0xba6c337b	-0.0009010357
6	0x3c99feae	0.018798199
7	0xbd35c80f	-0.044380244
8	0x3d8077d1	0.06272853
9	0x3cc8cfea	0.024513204
10	0xbd32d74d	-0.043662358
11	0xbd739579	-0.05946872
12	0x3cc72f0b	0.024314424
13	0x3afbcdd6	0.0019211124
14	0x3ce1b5be	0.027552482
15	0xbd7421e2	-0.059602626
16	0x3d440a12	0.047861166
17	0x3d18e9e1	0.03733242
18	0xbd518849	-0.051155362
19	0x3d0fa6ad	0.035071064
20	0xbcf32eab	-0.029685339
21	0xbd3c13a0	-0.045917153
22	0xba5c240c	-0.00083977054
23	0x3db77e4e	0.089596376
24	0x3d67fd1f	0.05663788
25	0xbd3c8296	-0.046022974
26	0x3d843ffd	0.06457517
27	0x3c085767	0.00832162
28	0xbd891d1e	-0.06695007
29	0x3c6f2fc7	0.014598793
30	0x3c7d5f1b	0.015464569
31	0x3d18fe5b	0.037351947
32	0x3b182df6	0.0023220754
33	0x3b2cc4c9	0.002636241
34	0xbc813d06	-0.015776169
35	0x3d483974	0.048882917
36	0xbc052936	-0.008127501
37	0xbd5c9168	-0.053849608
38	0xbd339f4c	-0.04385309
39	0xbbc8e1ef	-0.006130449
40	0x3d93df50	0.07220328
41	0x3dbe28ed	0.0928515
42	0x3cdb5518	0.026773974
43	0xbb87d5b9	-0.004145351
44	0xbd014985	-0.031564254
45	0xbd71bf07	-0.05902007
46	0x3d6f2c7f	0.058392044
47	0xbd5360c8	-0.05160597
48	0x3bc1f02f	0.0059185247
49	0x3d1b75fc	0.037954316
50	0x3d07b7d9	0.033134315
51	0xbb41a6ca	-0.0029548877
52	0xbb5ebeed	-0.0033988312
53	0xbd5667e5	-0.052345175
54	0xbcccdc51	-0.025007399
55	0xbc88a4d5	-0.01668016
56	0xbd5be0f4	-0.05368133
57	0xbcb64a83	-0.022252327
58	0x3d892d2e	0.066980705
59	0x3c19841a	0.009369874
60	0x3d59398b	0.053033393
61	0xbceada31	-0.028668495
62	0x3d87343e	0.06601761
63	0xbc82eb5f	-0.015981374
64	0x3cc98ea2	0.024604145
65	0x3d5a1b24	0.05324854
66	0x3d8e5962	0.06950642
67	0x3cd96e36	0.02654181
68	0x3ccf86f4	0.025332905
69	0x3d110ba3	0.03541149
70	0xbd2b27c5	-0.041785974
71	0xbba67775	-0.0050801584
72	0x3d308baa	0.043101944
73	0x3d093fa6	0.033507966
74	0x3d5007f1	0.050788824
75	0xbc90d7f6	-0.017681103
76	0x3c847059	0.016166853
77	0x3cb19878	0.021679148
78	0x3d6f28a1	0.058388356
79	0xbce4c071	-0.027923794
80	0xbd689bb7	-0.056789126
81	0x3d01adf0	0.03166002
82	0xbc86b828	-0.016445234
83	0xbc2a38cd	-0.010389519
84	0x3d385368	0.045001417
85	0x3d3d0a8c	0.046152636
86	0x3cd1a049	0.025589125
87	0xbdb806a8	-0.089856446
88	0xbcdbfeab	-0.026854834
89	0x3c87268b	0.01649787
90	0x3d281f98	0.041045755
91	0xbd154d38	-0.036450595
92	0x3d6a07e4	0.05713643
93	0x3d4e99c7	0.050439622
94	0x3dd13aae	0.102162704
95	0x3db7e14e	0.0897852
96	0x3dab421b	0.08362218
97	0x3ce016a4	0.027354546
98	0xbba22937	-0.004948761
99	0x3cfcb770	0.030849189
100	0x3cb3076b	0.021854123
101	0xbd188343	-0.037234556
102	0x3d6b07b2	0.057380386
103	0xbca6c309	-0.020356672
104	0xbd5a2528	-0.05325809
105	0x3c866d73	0.016409611
106	0x3d61cb89	0.055125747
107	0x3caac393	0.02084521
108	0xbd0bc25f	-0.034120914
109	0xbd8037a2	-0.06260611
110	0x3cac06b5	0.020999292
111	0x3d810f73	0.06301775
112	0x3d8afce0	0.06786513
113	0x3c81821a	0.015809108
114	0x3cf1f5f5	0.029536227
115	0xbcd66d63	-0.026175207
116	0xbd08381c	-0.033256635
117	0xbb9f4585	-0.0048605823
118	0xbcd3321d	-0.025780732
119	0xbd6f90d2	-0.05848772
120	0x3d0d917c	0.034562573
121	0xbcc74af0	-0.024327725
122	0x3c4be517	0.012444756
123	0x3d7a5cbe	0.061123602
124	0x3c703a0d	0.014662278
125	0x3d098db5	0.033582408
126	0xbd3d2622	-0.046178944
127	0x3d86324d	0.06552563
128	0xbd4e86b1	-0.05042142
129	0xbc9d1e1e	-0.0191794
130	0x3b04bbfc	0.002025365
131	0x3d99d0e2	0.07510544
132	0x3d10732b	0.035266083
133	0x3af32862	0.0018551464
134	0x3d21c715	0.0394965
135	0x3c28edfb	0.010310645
136	0x3d90a82e	0.07063328
137	0xbc323ae2	-0.010878297
138	0xbd199575	-0.03749605
139	0x397369f6	0.0002321376
140	0x3d9bcf71	0.07607926
141	0x3da2137b	0.07913872
142	0x3dc8d156	0.09805553
143	0x3d933967	0.07188683
144	0xbd0a06ae	-0.033697776
145	0x3bce8c68	0.006303359
146	0xbd0c4f04	-0.034255043
147	0xbd0750a3	-0.033035886
148	0xbc3519cd	-0.011053515
149	0xbc8dfc78	-0.0173323
150	0x3db5b717	0.08872812
151	0x3dc71592	0.09720911
152	0x3d23b4b7	0.039967265
153	0x3cd0894f	0.025456099
154	0x3b605150	0.0034228154
155	0x38aebbd9	8.331956e-05
156	0x3cfc2634	0.030779935
157	0x3d799d2b	0.060940903
158	0xbc90a246	-0.017655503
159	0xbc798dbf	-0.015231549
160	0xba0c5320	-0.0005352963
161	0x3db86ff2	0.09005727
162	0xbd829cfb	-0.06377598
163	0xbd85cc20	-0.065330744
164	0xbd818dac	-0.0632585
165	0x3d1dd718	0.038535208
166	0xbd3c5b35	-0.04598542
167	0x3ca073c8	0.019586459
168	0xbc379ade	-0.011206357
169	0xbc9b3bd5	-0.018949429
170	0x3d8832ff	0.06650352
171	0xbc98bdef	-0.018645255
172	0x3d3a9031	0.045547668
173	0xbd8eff19	-0.0698225
174	0x3b75789f	0.003745593
175	0x3a92fe05	0.001121462
176	0x3d9ec895	0.07753102
177	0x3db16ea5	0.08663682
178	0xbd431cf4	-0.047635034
179	0x3d571902	0.052514084
180	0xbce0f8dc	-0.027462415
181	0x3cc9918b	0.024605533
182	0xbd926f21	-0.071501024
183	0x3d7a5f0e	0.061125807
184	0xbd2bb4e0	-0.041920543
185	0x3d7d2078	0.061798543
186	0x3afc8df7	0.0019268383
187	0xbc8878ec	-0.016659223
188	0xbbef638b	-0.0073055676
189	0xbd653c1e	-0.055965535
190	0xbcd7d2c7	-0.026345624
191	0x3d0c7d3d	0.034299124
192	0x3d7d8cab	0.06190173
193	0x3c1840d0	0.009292796
194	0x3d80a801	0.06282044
195	0xbc611394	-0.013737578
196	0xbc852510	-0.016253024
197	0xbd328802	-0.04358674
198	0xbc3bcb6b	-0.011462073
199	0xbcfad0f7	-0.03061722
200	0x3c95722c	0.018242918
201	0xbd7d9b4a	-0.061915673
202	0x3d15ca7e	0.036570065
203	0x3b0b1bc2	0.0021226262
204	0xbd92c433	-0.07166328
205	0xba62021b	-0.00086215296
206	0xbbe19cb2	-0.0068851346
207	0xbcab838a	-0.020936746
208	0xbd5597f5	-0.05214687
209	0x3ca6cd59	0.02036159
210	0x3ca5bf9a	0.020232964
211	0xbc39e9f1	-0.01134728
212	0x3c718817	0.014741919
213	0x3dbc66c3	0.09199288
214	0x3d25500e	0.04035955
215	0x3d8604bb	0.06543871
216	0x3cb61340	0.022225976
217	0x3d4217d8	0.04738602
218	0x3cf35b72	0.02970669
219	0x3b1c7126	0.0023871153
220	0xbd79b031	-0.060959045
221	0xbd40589b	-0.0469595
222	0xbcf16514	-0.029467143
223	0x3d4e8727	0.05042186
224	0xbc93ec65	-0.018057058
225	0xbd8c066c	-0.068371624
226	0x3d66ac88	0.056316882
227	0x3d426763	0.04746188
228	0x3c801e09	0.015639322
229	0x3cd8666d	0.026416028
230	0xbd686e58	-0.056745857
231	0xbbfa502b	-0.0076389513
232	0x3cfc2315	0.030778447
233	0xbc767e05	-0.015044694
234	0xbd70efd0	-0.058822453
235	0xbcc0157e	-0.023447748
236	0xbcfdc515	-0.030977765
237	0xbd12eb27	-0.03586879
238	0xbce3d8ca	-0.027813334
239	0xbd4ba058	-0.049713463
240	0x3c8bc4de	0.017061647
241	0xbd799a10	-0.06093794
242	0xbd895868	-0.06706315
243	0xbcf8ec27	-0.030386044
244	0x3c7b625f	0.015343278
245	0xbcdabf41	-0.026702525
246	0xbd5d5ec3	-0.05404545
247	0x3d50097e	0.050790302
248	0x3d8d07fd	0.06886289
249	0x3d35e114	0.044404104
250	0x3d172952	0.03690464
251	0x3c7a64bf	0.015282809
252	0x3cc9b4fd	0.024622435
253	0x3c17c713	0.009263772
254	0x3d16cfca	0.036819257
255	0xbd115070	-0.0354771

bias f4 [8]
0	0xbddc49d3	-0.10756268
1	0xbdee2466	-0.11628036
2	0xbd8ba33b	-0.06818243
3	0x3e2ee2e8	0.17078745
4	0xbddb90be	-0.10720967
5	0xbe217333	-0.15766601
6	0xbe5ee9c2	-0.21768859
7	0x3d74a7d6	0.059730373

weight f4 [8]
0	0x3f81ab1a	1.0130341
1	0x3f7b8902	0.9825593
2	0x3f8029d8	1.001277
3	0x3f6f9568	0.9358735
4	0x3f71e04e	0.94482887
5	0x3f7ddf93	0.9916927
6	0x3f7cabc0	0.9869957
7	0x3f786426	0.97027814

bias f4 [8]
0	0x3ebbeb58	0.3670299
1	0x3e9a20ca	0.3010314
2	0x3e9944db	0.29935345
3	0xbec9dbae	-0.39425415
4	0x3ebe048c	0.37112844
5	0x3eae6957	0.34064743
6	0x3ea84beb	0.3287042
7	0xbec1fd76	-0.37888688

running_mean f4 [8]
0	0x3f3f01ad	0.7461193
1	0xbee965d6	-0.45585507
2	0xbf3b5544	-0.7317698
3	0xbe187fa0	-0.14892435
4	0x3f67b405	0.90509063
5	0xbd8ea7d9	-0.06965608
6	0x3ed0b6b1	0.40764382
7	0x3dd62047	0.10455375

running_var f4 [8]
0	0x3f2d9158	0.677999
1	0x3f1d4ff1	0.61450106
2	0x3f230b6b	0.636893
3	0x3f78dc34	0.97211003
4	0x3f582a08	0.84439135
5	0x3f314252	0.6924182
6	0x3f90a8c9	1.1301509
7	0x3f52bfdc	0.82324004

weight f4 [1, 8, 3, 3, 3]
0	0xbe190edd	-0.14947076
1	0xbdd401c6	-0.10351901
2	0xbe23cf85	-0.15997131
3	0xbe19ac87	-0.1500722
4	0xbd9a5233	-0.075352095
5	0xbdbdd0b4	-0.092683226
6	0xbdcd598c	-0.10026845
7	0xbd9b2c54	-0.07576814
8	0xbd7c766d	-0.061636377
9	0xbd7e93ca	-0.06215266
10	0xbddb52a9	-0.107091255
11	0xbe2809f3	-0.16410045
12	0xbd977c62	-0.07396771
13	0xbdfcd807	-0.123458914
14	0xbd894301	-0.06702233
15	0xbd977dc6	-0.07397036
16	0xbcdf1492	-0.027231488
17	0xbbdedc82	-0.006801189
18	0xbde16c72	-0.110070124
19	0xbd849237	-0.06473201
20	0xbdea43e3	-0.114387296
21	0xbde73d86	-0.112910315
22	0xbd1f1748	-0.038840562
23	0xbe1d1d2d	-0.15343161
24	0xbb3cf1c1	-0.002883062
25	0xbd5b368c	-0.053518817
26	0xbd4b3723	-0.04961313
27	0xbdccae51	-0.09994186
28	0xbd97bd6f	-0.074091785
29	0xbd5cabc8	-0.05387476
30	0xbdf1566b	-0.11784061
31	0xbc96fd0e	-0.018431213
32	0xbdb866fd	-0.090040185
33	0x3c5884e1	0.013215275
34	0xbd5bb49e	-0.053639047
35	0xbdc77296	-0.097386524
36	0xbe242d0f	-0.16032813
37	0xbe179d47	-0.1480609
38	0xbd6d1f25	-0.05789103
39	0xbe1006de	-0.1406512
40	0xbdda3b21	-0.10655809
41	0xbdae8c53	-0.085228585
42	0xbdb00e9d	-0.08596537
43	0xbdd1db41	-0.102468975
44	0xbddffa9d	-0.109364726
45	0xbde03478	-0.109475076
46	0xbcb69aad	-0.022290552
47	0xbd708c4d	-0.05872755
48	0xbe08e9f2	-0.13370493
49	0xbd6b584f	-0.057457265
50	0xbd8b2272	-0.06793679
51	0xbdddb694	-0.1082584
52	0xbdca447e	-0.09876345
53	0xbd22a2b4	-0.039705947
54	0xbd8974a5	-0.06711701
55	0xbdf5b5ab	-0.11997541
56	0xbde16fed	-0.11007676
57	0xbdf04e7f	-0.11733722
58	0xbe00ce3e	-0.12578675
59	0xbc7f0d74	-0.015567172
60	0xbd3d337b	-0.046191674
61	0xbd203cf6	-0.039120637
62	0xbcce71dd	-0.025200779
63	0xbdef384c	-0.1168066
64	0xbe1645c9	-0.14675058
65	0xbd8d1b37	-0.068899564
66	0xbe145114	-0.14484054
67	0xbe0faa61	-0.14029838
68	0xbdd306c2	-0.10304023
69	0xbc076f4f	-0.008266284
70	0xbdc9f122	-0.098604456
71	0xbdb686ad	-0.08912406
72	0xbc94307a	-0.018089522
73	0xbd226b7f	-0.039653298
74	0xbdfbbdfa	-0.122920945
75	0xbdb3c006	-0.0877686
76	0xbcbca8dc	-0.023029737
77	0xbb733cbd	-0.003711506
78	0xbc5e8d18	-0.013583444
79	0xbc075509	-0.00826002
80	0x3cb07d0b	0.021544
81	0x3de6b27d	0.11264513
82	0x3e4d3dbd	0.20043083
83	0x3e03cc12	0.12870815
84	0x3e189445	0.1490031
85	0x3e7f4420	0.24928331
86	0x3e245aaf	0.16050218
87	0x3e3fa89d	0.18716665
88	0x3e33bbb9	0.1755208
89	0x3e54a76b	0.2076699
90	0x3e365336	0.1780518
91	0x3e77ff5a	0.24218503
92	0x3e611a9c	0.21982807
93	0x3e0aa742	0.13540366
94	0x3e7e92f6	0.24860749
95	0x3e586172	0.21130922
96	0x3e14ef79	0.14544477
97	0x3e308e93	0.17241888
98	0x3e6ed682	0.23324016
99	0x3e3a5e20	0.18199968
100	0x3e54c3c4	0.20777804
101	0x3e48527e	0.19562718
102	0x3e3699d2	0.17832115
103	0x3e2c95e6	0.16854057
104	0x3e31ab09	0.17350401
105	0x3de7d5a0	0.113200426
106	0x3e5d757e	0.21626851
107	0x3df1f530	0.11814344
108	0xbe88e3f2	-0.26736408
109	0xbe6fc288	-0.23414052
110	0xbe14e217	-0.14539371
111	0xbe1a82dc	-0.15088981
112	0xbe3115cd	-0.17293473
113	0xbe059c19	-0.13047828
114	0xbe6da4da	-0.23207417
115	0xbe5bef65	-0.2147804
116	0xbe4fb461	-0.20283653
117	0xbe4c4bd8	-0.19950807
118	0xbe518293	-0.20459966
119	0xbe363788	-0.17794621
120	0xbe105313	-0.1409419
121	0xbe3c31cb	-0.1837837
122	0xbe68735e	-0.22700259
123	0xbe6a3905	-0.22873314
124	0xbe5b539b	-0.21418612
125	0xbe446d09	-0.19182219
126	0xbe7e4ee5	-0.24834783
127	0xbe17bf2e	-0.14819023
128	0xbe6c9bb8	-0.23106277
129	0xbe61a628	-0.2203604
130	0xbe29377f	-0.16525076
131	0xbe11dda5	-0.14244707
132	0xbe510efa	-0.2041587
133	0xbe5959b7	-0.2122563
134	0xbe55384a	-0.20822254
135	0xbdff1e50	-0.124569535
136	0xbe23f467	-0.16011201
137	0xbe172ea3	-0.14763884
138	0xbe659588	-0.22420323
139	0xbe189cdb	-0.14903586
140	0xbe2a6ddb	-0.16643469
141	0xbe2e07ae	-0.16995117
142	0xbe19fb65	-0.15037306
143	0xbe13263a	-0.14370051
144	0xbd902e0e	-0.07040034
145	0xbe454044	-0.19262797
146	0xbe4375cd	-0.19087906
147	0xbe376d8a	-0.1791288
148	0xbe0dab59	-0.13834895
149	0xbe3b0dc6	-0.18266973
150	0xbe1f43c0	-0.15553188
151	0xbe376a62	-0.17911676
152	0xbe51294d	-0.20425911
153	0xbd359484	-0.04433109
154	0xbdb8a969	-0.090166874
155	0xbe117dd1	-0.14208151
156	0xbe653a4a	-0.22385517
157	0xbe57d2be	-0.21076486
158	0xbe3fe6f7	-0.1874045
159	0xbdb35c4f	-0.08757841
160	0xbda54bfa	-0.08071132
161	0xbe1db4e5	-0.15401037
162	0xbe4b9d38	-0.19884193
163	0xbe3e9e7f	-0.18615149
164	0xbe66bd32	-0.2253311
165	0xbe3ff0a4	-0.18744141
166	0xbe1a5449	-0.15071215
167	0xbe368d28	-0.17827284
168	0xbde32245	-0.11090521
169	0xbdeb1f42	-0.11480571
170	0xbe16b1fa	-0.1471633
171	0xbe5fba19	-0.21848334
172	0xbe2f03c9	-0.17091288
173	0xbe49895c	-0.19681305
174	0xbe4de6d1	-0.2010758
175	0xbde8c8e5	-0.113664426
176	0xbe27701a	-0.16351357
177	0xbe02b607	-0.1276475
178	0xbe17a187	-0.14807712
179	0xbe0ffb6c	-0.14060754
180	0xbe5fbea1	-0.21850063
181	0xbdcef8e1	-0.10106064
182	0xbe2f2736	-0.17104802
183	0xbe295060	-0.16534567
184	0xbe230fa1	-0.1592393
185	0xbe071219	-0.13190497
186	0xbdb4352e	-0.08799206
187	0xbe4e16d3	-0.20125894
188	0xbe41a590	-0.18910813
189	0x3d9968f0	0.07490718
190	0x3d107325	0.03526606
191	0x3d652b4d	0.055949498
192	0x3e19d9b1	0.15024449
193	0x3e1a3f99	0.15063323
194	0x3e198eab	0.1499583
195	0x3dcd84c5	0.100350894
196	0x3db119a9	0.086474724
197	0x3dfa4e67	0.12221985
198	0x3d98afec	0.074554294
199	0x3e4b175c	0.1983313
200	0x3dfb299c	0.12263796
201	0x3e0defca	0.13861004
202	0x3dce1aa0	0.10063672
203	0x3dd249f3	0.10268011
204	0x3dd1badb	0.10240718
205	0x3e075f09	0.13219847
206	0x3e01c3cf	0.12672351
207	0x3df32f5d	0.11874268
208	0x3e23088e	0.15921232
209	0x3cd21f67	0.02564974
210	0x3e3172d5	0.17328961
211	0x3e196023	0.1497808
212	0x3e18fcc0	0.14940166
213	0x3dab09c7	0.08351474
214	0x3e0c0f36	0.13677678
215	0x3df4dafb	0.1195583
