DepthSensingCUDA/Source/Scan2CAD/data/checkpoint/scene0470_00/feature2mask.pt (torch, 435309 bytes, 13 tensors)

weight f4 [48, 64, 3, 3, 3]
00000000: d869 9bbc 473a 45bd a823 a0bd 0566 91bd
00000010: e0dd a3bd 2a1d e8bd 6534 87bd 3e19 2abd
00000020: f968 1dbd e387 e13c c9fc 663b 3aeb 00bd
00000030: 8cee dc3b e9f2 9bbc 15cd 62bd 2e0d 3f3d
00000040: 36b9 2f3c a41d 803b e75f 833d 481c 813c
00000050: 93a3 1bbd deb3 f6bb 65d0 5dbd 366b 86bd
00000060: ba2f 713d 4b1b a33d b6ec 343d 0d90 c0bc
00000070: ce57 d7bc e4a2 d23b 4de2 82bc cffa 53bc
00000080: d4ff ac3c b0f6 923c 1f89 d53c b049 8d3c
00000090: 54ab a9bc a2e8 193c 1ec5 9d3c a5bb 613c
000000a0: 1962 d53c 1bc7 983b 07be e33c e8df 083b
000000b0: 190a ee3b 7dc1 083c cc96 86bc aba5 ad3a
000000c0: 25af 88bc a223 c93c 982e 1d3d 9d54 4bbb
000000d0: ec16 e73c 986b d43c fd59 78bc 547d 6e3b
000000e0: c8f2 703c 13bb f1bc fdd0 5bbc 3203 b93c
000000f0: 0a10 9bbc 60c9 42bc 7a45 b73c 6ca3 10bc
00000100: f1b5 b7bc dc9d 94bc 9c01 61bb 7e7f a5bb
00000110: 40bb 61bb 2d46 513c 1c66 42bc 6ff2 b33c
00000120: f812 c63b 0187 633c 8f25 593c 28ca 56bb
00000130: 2216 553c 4bbe 093d bf77 e3bb 240f 91bc
00000140: 6dbf a3bb 054a 05bd 36e0 8fbc 039e 483d
00000150: 6442 8839 c588 2ebb b35a 0dbc ec09 863b
00000160: 8f25 86bc 7a4b 3f3c a614 f5bc 4777 37bd
00000170: ba02 63bd c65c 6ebb c742 38bd 775b 83bd
00000180: c6b4 e0bc 3685 373b fafb d7bb 8ae7 123d
00000190: 94d4 6fbc f9c2 c1bc 2489 803c ef5e 5dbb
000001a0: cdc2 78bd 5f05 833c 381a c43c 3b5b 513d
000001b0: 410d 1fbd 1209 fdbd 6380 4cbd 9a33 0dbd
000001c0: 2c90 90bd 9616 68bd a06f 943b c12f 923c
000001d0: bc78 103d cab9 8b3c 9564 d5bc fe10 8bbc
000001e0: 496f 933b 66fb 2fbc 3d9f a5ba 6fd4 7a3d
000001f0: 5514 fb3c 4b12 643d e1d9 a83d 96a4 e1bc
00000200: 0769 03bd d1f0 fc3c ccc4 3abc 756a 1abd
00000210: 189e 3e3d 279b 81bc c878 703b bfab 113d
00000220: 193d 8fbc 6a48 92bc dcb0 4dbd 6fbe 67bd
00000230: 4469 83bd 84a8 cf3c d423 bebb ba44 69bd
00000240: a9e1 333d ead0 de3b b8a7 033d 110a ddbc
00000250: 81b2 1ebd 4d8a 12bd 761a 803d 4954 753c
00000260: 2bc1 babc 6651 9c3c 6973 0e3d 8c56 203d
00000270: 340c 3bbb 06e6 ecbc 4522 afbc 10a3 3c3d
00000280: 1928 c63c a8d2 a03b 813a a6bb d361 f7ba
00000290: c89a 01bb 3d83 58bd 2a00 8dbd 0092 2fbd
000002a0: a3c2 7d3d c266 b03c 6c31 573c ff74 8f3d
000002b0: 4150 333d 2eff 8f3d 54e6 193d 8432 023d
000002c0: 3aa7 e43a 2235 6e3d f43a 553d 48f4 493d
000002d0: da7a 283d 2b93 9b3c b85d 92ba d62f b8bc
000002e0: 6794 a2bc c547 46bc 0de7 5abc a17c a23c
000002f0: 5ca3 093d 61f1 c93c a0ee e6bb 6ef4 eb3c
00000300: 2ff4 b5bb 323c 983c 75ff 963c a3ce 36bc
00000310: f1a8 22bc c1fe 0abd 30be a2bb f43f 0dbc
00000320: c906 c13a ef8e 313c 03ae f63c 90d3 363b
00000330: 4b42 8d3c f8fb 96bc 3427 e2bc aa00 2e3c
00000340: f46f d1bc 7a01 5fbb b585 a13c 1135 acbb
00000350: a8c8 84bc f62f 033d 8424 5e3c a43b ff3b
00000360: 19d4 1c3b 5195 f4bc e68a 31bc b214 90bc
00000370: e015 bfbc a6a2 853c 6284 7ebb 468e a1bc
00000380: 932f d5bb bf43 ddbc f249 25bc f1b6 0abc
00000390: c2ed 2bba e305 83bc c7bd 9dbb 82c5 fdbc
000003a0: da26 62bc c340 833c b90d 11bd 127e d4bc
000003b0: 1625 3a3c 7b4d 19bd 2353 8637 956f 95bc
000003c0: 3a85 27bd 0c9f c9bc b37d 553b d49d 883c
000003d0: 53ed 80bb fdea 8b3b c8c5 31bb 119b 023c
000003e0: 9e74 9c3c db11 0e3c dcfa d23c 183e fe3c
000003f0: 7f87 4ebb e8a8 9cbc fc54 b0ba ecf8 4fbc
-0.018971369 -0.04815128 -0.07819301 -0.07099537 -0.08001304 -0.113336876 -0.0660179 -0.04152798
-0.038430188 0.027530616 0.0035245887 -0.03147433 0.006742304 -0.019036727 -0.055371363 0.04664343
0.01072531 0.0039097834 0.06414776 0.015760556 -0.037997793 -0.007528766 -0.05415382 -0.065634176
0.058883406 0.0796419 0.044171058 -0.023506189 -0.026286986 0.0064281095 -0.01597705 -0.012938215
0.021118082 0.017939895 0.026066361 0.017247051 -0.020711578 0.009393843 0.019259032 0.013777648
0.026047753 0.004662407 0.027800573 0.0020885412 0.0072643873 0.008346912 -0.016429327 0.0013248225
-0.016685078 0.024553124 0.038374513 -0.0031025775 0.028209172 0.025930211 -0.015158174 0.003639062
0.014706321 -0.02950815 -0.013416526 0.022584531 -0.018928546 -0.011888832 0.022371996 -0.008828025
-0.022425624 -0.01814168 -0.0034333235 -0.0050505986 -0.0034443885 0.012773079 -0.011865165 0.021966187
0.0060447417 0.013887168 0.013253584 -0.0032774303 0.013005765 0.033628743 -0.006941765 -0.017707415
-0.004997185 -0.032541294 -0.017562967 0.048978817 0.00025989406 -0.0026631814 -0.008627581 0.0040905382
-0.016375331 0.01167571 -0.029917073 -0.044791486 -0.055422522 -0.0036371215 -0.04498556 -0.0641393
-0.02742995 0.0028002984 -0.0065913172 0.035865344 -0.014638085 -0.02365254 0.015690394 -0.0033778509
-0.06073265 0.015993772 0.023938283 0.051112395 -0.038831 -0.12355246 -0.049927127 -0.03447304
-0.070587486 -0.056662165 0.0045299083 0.017845036 0.03527139 0.017056365 -0.026048938 -0.016975876
0.00449935 -0.01074109 -0.0012635958 0.06123775 0.030649344 0.055681508 0.08244682 -0.027544301
-0.032082584 0.030876549 -0.011399459 -0.03769918 0.04653749 -0.015821053 0.0036693085 0.03556418
-0.017485188 -0.017856795 -0.050217494 -0.056578096 -0.06416562 0.02534891 -0.005802611 -0.05695031
0.04391638 0.006799807 0.03214237 -0.02698234 -0.038744453 -0.035776425 0.06255047 0.014973708
-0.022797188 0.019081783 0.034778032 0.039145038 -0.002854121 -0.028918277 -0.021378646 0.046053946
0.024189042 0.0049079247 -0.005072892 -0.0018873758 -0.0019776095 -0.052859534 -0.06884797 -0.042863846
0.0619532 0.021533374 0.013134342 0.07004737 0.043777708 0.070310935 0.037573174 0.031786457
0.0017444857 0.05815614 0.052058175 0.04930523 0.041132785 0.018991074 -0.0011166846 -0.022483747
-0.019846154 -0.012102072 -0.013360751 0.019834818 0.033603057 0.024651231 -0.0070474893 0.028803077
-0.0055527906 0.01858339 0.018432358 -0.0111576645 -0.009927974 -0.03393436 -0.00496652 -0.008621205
0.0014726754 0.010837301 0.030112272 0.0027897097 0.017243525 -0.018430695 -0.027606584 0.0106202755
-0.025566079 -0.003402798 0.019717077 -0.0052553494 -0.016208962 0.03202816 0.013558511 0.007789092
0.002393013 -0.029856356 -0.010836339 -0.017587993 -0.02332586 0.016312908 -0.003883623 -0.019721162
-0.0065059154 -0.027009843 -0.010088431 -0.008466468 -0.0006558561 -0.015994018 -0.004813883 -0.030977968
-0.013803208 0.016022092 -0.035413478 -0.025939021 0.011361381 -0.037427407 1.6012758e-05 -0.018241683
-0.04089854 -0.024611972 0.0032576143 0.01667682 -0.0039345413 0.004269956 -0.0027125943 0.007971541
0.019098576 0.008671249 0.025754385 0.031035468 -0.0031513867 -0.01912351 -0.0013453062 -0.012693625

bias f4 [48]
00000000: dd88 453c 85bf 80bc c5b9 85bc ea96 223c
00000010: 0ec2 5f3c e3a0 b83c 5e89 bc3c 1921 323c
00000020: 3677 86bc 100a a6bb 0dcd 053c bace d4b9
00000030: d77f b03c 92ff acbb cdc1 26bc 807f dc3b
00000040: 546e a3bb dd54 0b3b 0232 c63c 375c 8ebc
00000050: 9237 74bc f36b 54bc 5556 c0ba eee1 543c
00000060: 9765 b63c 1cfd 823b 3b10 ab3c 128a 8a3c
00000070: 4e64 f2bb 9ca1 ae3c d82f d9ba 8e60 b93c
00000080: 23c8 2f3c e5aa b5bc d35f b93c b03c 07bc
00000090: 0231 d1ba 8a6f 41bc 4609 34bc e4af 43bc
000000a0: f552 633c d219 94bc 07de a0bc 701f b53c
000000b0: c7a2 893c 454b 14bc a87f 8abb 1182 6cbc
0.0120565565 -0.015716324 -0.016323933 0.009923676 0.013657106 0.022537654 0.02301472 0.010872149
-0.016414266 -0.0050671175 0.008166564 -0.00040589814 0.021545334 -0.00527949 -0.010178042 0.0067290664
-0.0049875174 0.00212603 0.024193767 -0.017377956 -0.014905827 -0.01296519 -0.0014674166 0.012993319
0.022265239 0.003997458 0.020881763 0.01691154 -0.007397211 0.021317296 -0.0016570045 0.022629049
0.010728869 -0.022176215 0.0226287 -0.008254215 -0.001596004 -0.011806378 -0.010988539 -0.011943791
0.013874759 -0.018078718 -0.01963712 0.022109717 0.016801251 -0.009051149 -0.0042266436 -0.014435307

weight f4 [48]
00000000: 4e6d 8b3f ba2c 893f 02aa 643f ea69 7c3f
00000010: 4e4d 843f 6e2d 823f 00ca 893f d27d 7d3f
00000020: d35a 843f 52ef 733f 9b24 823f 1bfc 7f3f
00000030: 2246 7b3f 330f 6c3f ff4a 733f e09a 813f
00000040: 77ee 8a3f a844 613f 84bc 783f 1518 873f
00000050: a5b3 873f 996f 753f 4aad 853f 8c25 8a3f
00000060: 6198 823f d320 883f 79a1 843f b887 8d3f
00000070: 3643 893f d250 713f b344 8f3f f88b 743f
00000080: bdff 833f 92b3 833f 8061 873f 84a7 853f
00000090: 6dad 863f 2602 8e3f d00a 8e3f 4525 6b3f
000000a0: 3f6d 893f 1280 633f 2862 623f 78f4 7e3f
000000b0: 9257 813f 8e33 743f d514 823f c788 8b3f
1.0892732 1.0716774 0.8932191 0.9859911 1.0336092 1.0170114 1.076477 0.9902011
1.0340217 0.9528705 1.0167421 0.9999406 0.9815389 0.9221069 0.9503631 1.0125389
1.0854024 0.87995386 0.9716265 1.0554224 1.0601698 0.9587341 1.0443509 1.0792708
1.0202752 1.0635017 1.0361778 1.1057043 1.0723636 0.94263947 1.119284 0.95526075
1.031242 1.0289176 1.057663 1.0441747 1.0521675 1.1094406 1.109705 0.91853744
1.0736464 0.88867295 0.88431025 0.9959178 1.0104849 0.95391166 1.0162607 1.0901116

bias f4 [48]
00000000: ca19 fbbc 8341 49bd d485 09be 99c6 bdbb
00000010: 574c 90bd 4554 89bd 9580 1fbc dd4f 8dbd
00000020: 7031 05bd d087 abbd a8ec 0bbd f0bc 59bd
00000030: a576 d4bd ced0 7abd 80ed dbbc 3e0d dbbd
00000040: da1b d63c 83cb febd a883 46bd 0699 dfbd
00000050: 2313 07bc beeb c1bd 9cff 94bd 7598 46bc
00000060: 4563 07be 5191 f4bc 4067 debd c988 6abd
00000070: ccf6 89bd a7ab d9bd b4a6 91bd 6b40 dfbd
00000080: 76bd 4f3c 110f 8fbd 058c 773b 8f5f b9bd
00000090: bb09 52bd d92b 21bd efdb 853c 3f42 fabd
000000a0: 80e0 ae3c 354a dcbd 2795 debd 3aaa fcbc
000000b0: f92c 55bc 114e 94bd f3b3 e8bd d0ba 22bd
-0.030651946 -0.049134742 -0.13429958 -0.005791497 -0.07045811 -0.06705526 -0.009735246 -0.06899998
-0.03251785 -0.083755136 -0.03416124 -0.0531587 -0.10374192 -0.061234288 -0.026846647 -0.10695885
0.026136328 -0.124411605 -0.0484654 -0.10917859 -0.008244309 -0.094687924 -0.07275316 -0.0121213095
-0.13221462 -0.029854449 -0.10859537 -0.057259355 -0.06736526 -0.10628443 -0.07111874 -0.109009586
0.012679448 -0.069852956 0.0037772667 -0.090514295 -0.05127881 -0.039348457 0.016340224 -0.12219667
0.021347284 -0.10756341 -0.10868292 -0.03084289 -0.013011211 -0.072414525 -0.113624476 -0.03972894

running_mean f4 [48]
00000000: c7d2 f63e 4dcf 453f 67ea eabd b078 4dc0
00000010: 9d9f c1bf a7c1 fabf 58d6 b1bf 2262 13c0
00000020: 15a5 c9bf 4aa1 38c0 f5fc 16c0 145f 4b40
00000030: 3919 80c0 e785 02c0 d05a 0540 068d 11c0
00000040: 8be2 2abf 8af4 88c0 53ff 06bd a353 8dbf
00000050: b02c 04c0 63f7 35c0 71c9 6cbe 4cd4 dcbf
00000060: 61d1 46c0 f89f d5bf dd94 14c0 5434 d1bf
00000070: aa43 9e3e 74a3 93be 3463 7fbf fdf9 35c0
00000080: 9ebf 573e 83d3 fabf 6a9c 7abf aee3 f5bf
00000090: 5e0c e43d 7b41 eebf d3c7 55bf 92c1 69be
000000a0: 3aa4 a83e 5088 c4be 4d8e 01c0 7719 49bf
000000b0: d979 3bc0 2faa 873f 0e60 61bf 0a2c 9dbf
0.48207685 0.7726944 -0.1147049 -3.2104912 -1.5126835 -1.9590348 -1.3893538 -2.3028646
-1.5753504 -2.8848443 -2.3591893 3.177678 -4.003079 -2.0394228 2.0836678 -2.2742324
-0.6675193 -4.279851 -0.03295834 -1.1041149 -2.0652275 -2.8432243 -0.23123719 -1.7252288
-3.1065295 -1.6689444 -2.321586 -1.6344094 0.30911 -0.28835642 -0.99760747 -2.843383
0.2106919 -1.9595798 -0.9789492 -1.9210107 0.11135171 -1.8613733 -0.8350803 -0.22827747
0.32937795 -0.38385248 -2.0243104 -0.7855448 -2.929312 1.0598811 -0.8803719 -1.2279065

running_var f4 [48]
00000000: daa6 f740 89d6 3041 6769 0241 9a54 d141
00000010: 5bc1 c540 b0a3 ec40 2dd9 eb41 c058 0441
00000020: 8ebf ad40 e374 ea41 3a6b 4842 b3f2 aa41
00000030: e7ab 9e41 d6db bd41 3d72 2941 e23e 3c42
00000040: b567 4241 015b 4341 835b 3140 780f a340
00000050: 3604 6d41 0204 9441 e3df f140 5f04 cc41
00000060: 7852 8041 132b 7e40 1dc7 8741 6528 3e41
00000070: e696 bc40 32c7 e540 3913 6d40 c558 cf42
00000080: 1e60 9c41 67e7 3b41 a901 3a41 1a6c fb41
00000090: ecb3 ed40 e300 2641 51d4 3741 bde8 1c42
000000a0: 6cb4 1741 c677 4641 3a78 8e41 b193 dc40
000000b0: 9ec0 d541 4a32 6741 7b36 2f40 880a 7b42
7.7391176 11.052377 8.150733 26.16631 6.179853 7.3949814 29.481043 8.2716675
5.429633 29.307074 50.104713 21.368505 19.833937 23.732342 10.59039 47.06141
12.150319 12.209718 2.7712104 5.0956383 14.813528 18.501957 7.55858 25.502134
16.040268 3.971379 16.972223 11.884862 5.89342 7.180566 3.7042983 103.67338
19.546932 11.743995 11.625405 31.427784 7.428213 10.3752165 11.489335 39.227283
9.481548 12.404242 17.808704 6.8930287 26.719051 14.449778 2.7377002 62.760284

weight f4 [16, 48, 3, 3, 3]
00000000: 2556 89bd b8af e6bb 9094 bdbc 6206 e53c
00000010: fde1 8b3d 51a7 81ba c6e7 44bd 80ec 69bc
00000020: d304 a5bc 27e3 3abd 2362 173d ad5d cc3b
00000030: f662 903c c265 973d d7c1 ee3c ecf5 30bd
00000040: 818a 703c 87d2 57bd 11aa 683d cdbb 973d
00000050: 2f57 e13c d87b 6f3c 3539 cb3c 1430 053d
00000060: f39f 1ebd b4fe a4bc ad7d 8fbd 2039 3d3b
00000070: 4eee 3cbd c2e9 803c 83fa 803d 229e 89bc
00000080: f695 5d3d 0dd2 463d 94b5 b13b 618f 963c
00000090: feca 8e3a a31f 59bd fb4b 8a3c bbc7 333d
000000a0: 50cc 90bd 5bc9 283d 06a3 06bd b7ec 94bd
000000b0: 66a8 023c 02ca 0ebc 32dd 40bd 643e 533b
000000c0: 9733 083d 336f d6bc 901b 993d 7f94 3ebc
000000d0: 75e0 e33b 67c0 b43c 6b8e a0bc 1c6b 99bc
000000e0: 61b5 8fbc fd7b 19bd 3060 173c 611f b2bc
000000f0: d79f 8ebd 2db6 8e3b e5d5 a8bc 7f8e b6bc
00000100: 5977 85bc 9664 2f3c 6a02 40bc a30f 14bc
00000110: 3320 6c3c 0f35 ccbc 70c9 233d 064b 933c
00000120: fdc9 8bbc 53b3 693c 450b 66bc 91fa 17bc
00000130: e6d8 ef3c b9d8 37bd e6a2 eb3c 1813 9e3c
00000140: d991 52bd da67 283d 9470 a73c 1609 023d
00000150: c3d1 823c 51fc 543c d7db 523c 85e1 6c3d
00000160: f6dd 393d 9144 4a3d f14a e03b 9f08 2dbb
00000170: c526 773d 4a96 633c 9a83 65bc d3eb 5f3c
00000180: a4fa e23c 1703 84bc 16a5 cc3a 3eee 313b
00000190: 7894 83bc e9b5 33bc 3f95 a2bc eda6 08bd
000001a0: f1e2 96bc 15c0 573c 4c5c c3ba 0b80 aa3c
000001b0: ada4 473c c2ff 9bbc 2548 093c 6cee 193c
000001c0: a189 adbd de81 7a3d fd89 723c b558 2bbd
000001d0: fa47 c13b 297a 343d baab a7bc 9ad3 023b
000001e0: 0d81 c33c c705 91bd fc01 e53d 3939 71bb
000001f0: bc6d 82bd 7488 bf3c f920 033d 755f 2dbd
00000200: 2567 243c b38e a8bc adb7 86bc 7f3b 1d3e
00000210: 7897 85bd 1555 b2bc 556c 7e3d 925a ad3b
00000220: c69f 583c 8e88 fb3c 1c2c 19bc 91a2 7b3c
00000230: 38c8 af3c 61c9 473d acbd c33c 5553 4cbc
00000240: 9fa9 243c 5e87 0e3c cf27 6a3d 6341 3c3d
00000250: a7ed 2fbc a678 203d 483a 703d 0411 d13c
00000260: 3ae8 34bc 10aa 073d c7ba 953c 8aec 373d
00000270: 7907 d7ba f41b b1ba 13b8 8dbb dcfc 2f3d
00000280: 12bd 1fbd f7d7 b53c e582 003c e408 ac3c
00000290: 712c 8b3d 8b53 793c 80a0 dbbb 2171 993c
000002a0: bef4 84bc 7a84 9fbd 260d 7d3c 2742 413d
000002b0: 0290 eebc f7f1 1fbb 7860 023d 1e74 95bd
000002c0: b57c 8a3d 1eff f93c 7385 05be f5db 673b
000002d0: 0c3f 173d 51ec babc 7d52 2e3d 47fa 653d
000002e0: 374f b9bc e570 533d 7521 cf3c 8742 25bd
000002f0: c929 9e3d 60c8 153d 045f dbbc 735a 9abc
00000300: d3b8 eabb d422 0a3c 3587 faba 3a24 13bd
00000310: a72c 173d 1429 3abc e20e 3a3c 0da6 57bd
00000320: 023a ed3c 782a fd3c 5bd6 9239 d485 2a3c
00000330: ed31 b8bc 8f6f 063c e472 443c a80f 71bd
00000340: 74b0 e5bc 92d7 633c 6dc8 f6bc 557c 203d
00000350: d058 b03c 537f 28bc 7e9b 413d de73 883d
00000360: 84ef 35bd 53b0 77bc c856 3d3d ace8 b4bc
00000370: 1747 dcbc 99e8 863d 9406 bdbc 3fe9 ebbc
00000380: d85f 983d d161 06bc f83e b53c 76f8 ca3c
00000390: 69af 9c3c df13 b83c 10e1 933d 980b 1ebd
000003a0: 9d5d 97bd 0637 873d 3d1c 8ebc d41c fe3b
000003b0: 7149 85bd 1965 8d3d 075c 663d 61c7 a03c
000003c0: cad7 2f3d cf42 6d3c a99d 3e3d cd6d 81bc
000003d0: 890b 7eb9 7a61 b43c 60a1 9ebc 2ff4 003d
000003e0: 6be0 a83c d382 633b 86c6 713d 60a7 1abd
000003f0: e91b f0ba 0063 6cbc ad28 b83c 7170 60bd
-0.06705884 -0.0070399903 -0.02314213 0.027957145 0.06830213 -0.0009891783 -0.0480726 -0.014277577
-0.020143902 -0.045626786 0.036958825 0.006236753 0.017625313 0.07392456 0.029145164 -0.04320328
0.014681459 -0.05269101 0.056802813 0.07408867 0.027507393 0.014616929 0.024807552 0.032516554
-0.03872676 -0.020140983 -0.07006393 0.002887316 -0.046125703 0.015736464 0.06297781 -0.016799036
0.054098092 0.048540164 0.005423257 0.018378915 0.0010894237 -0.053008687 0.016881933 0.04389165
-0.070702195 0.041207653 -0.032870315 -0.07271712 0.00797472 -0.008715155 -0.04708595 0.0032233233
0.033252325 -0.02617607 0.0747596 -0.011632084 0.0069542476 0.0220644 -0.01959916 -0.018727832
-0.017542543 -0.03747176 0.0092392415 -0.021743478 -0.06964081 0.004355213 -0.020609805 -0.022284744
-0.016292261 0.010705134 -0.011719326 -0.009036931 0.014411974 -0.024927644 0.039987028 0.01798011
-0.017064089 0.014263946 -0.014040773 -0.009276048 0.02927823 -0.044884417 0.0287642 0.019296214
-0.051408622 0.041114666 0.020439424 0.031746946 0.015969163 0.01299961 0.012869797 0.05783226
0.045377694 0.049381796 0.006844871 -0.0026402844 0.060339708 0.013890812 -0.014008427 0.013667065
0.027707405 -0.016114755 0.0015613164 0.002715006 -0.016062006 -0.010968664 -0.019846557 -0.033362318
-0.018418761 0.0131683545 -0.0014904826 0.020813009 0.012185258 -0.019042853 0.008379017 0.009395223
-0.08473516 0.061159007 0.014803407 -0.041832644 0.005898473 0.044061814 -0.020467628 0.001996255
0.023865247 -0.0708118 0.11182019 -0.003680779 -0.063685864 0.023380496 0.032013867 -0.042327363
0.010034357 -0.020575857 -0.016445005 0.15354727 -0.06523031 -0.021769086 0.062115032 0.005290338
0.013221687 0.030704763 -0.009348895 0.015358583 0.021457776 0.048776034 0.023894154 -0.01247104
0.010050206 0.008699266 0.05716687 0.045960795 -0.010737813 0.03917756 0.05864933 0.025520809
-0.011041695 0.03312117 0.018277539 0.044903316 -0.0016405425 -0.0013512359 -0.004324922 0.042965755
-0.03899867 0.022197707 0.007843708 0.021000333 0.06795586 0.015217672 -0.0067024827 0.018730702
-0.016229983 -0.0778894 0.015445029 0.04718223 -0.029121403 -0.0024405697 0.03183028 -0.07297538
0.06762067 0.030517157 -0.13039188 0.0035378907 0.03692536 -0.022817763 0.042559136 0.056146886
-0.02262078 0.051621336 0.025284508 -0.04034665 0.07722814 0.036568046 -0.026778705 -0.018841958
-0.007163146 0.008431155 -0.0019113781 -0.03592322 0.03690782 -0.011362333 0.011356087 -0.052648593
0.028958324 0.03090404 0.00028006997 0.010407884 -0.022484744 0.008205309 0.011990283 -0.05885282
-0.028038241 0.013906376 -0.030124867 0.039181072 0.021526724 -0.010284263 0.04726743 0.06662725
-0.044417873 -0.015117723 0.04622534 -0.022083603 -0.026889367 0.06587333 -0.023074426 -0.028797744
0.07440156 -0.008202032 0.022124752 0.024776679 0.01912661 0.022470413 0.07220662 -0.038585275
-0.07390902 0.06602292 -0.01734745 0.0077549014 -0.065081485 0.069040485 0.056240108 0.019626321
0.0429304 0.01448126 0.046537075 -0.015799427 -0.00024227625 0.022019137 -0.019364059 0.03148287
0.020614823 0.0034715428 0.059027217 -0.037757277 -0.0018318865 -0.0144279 0.022480333 -0.054794732

bias f4 [16]
00000000: ce97 033d 0d85 f43c 3888 f3bc 9994 843c
00000010: 3d83 293d 10dd c6bc cebf 973b 74b2 913a
00000020: b18f 60bc b3bd 04bb 57f9 61bc a3bf 993b
00000030: 0dca 8b3c 0f12 113c 04dc 0fbc b2d7 1bbc
0.032127194 0.0298486 -0.02972804 0.016184138 0.041384924 -0.024275333 0.004631019 0.0011115805
-0.013706134 -0.002025467 -0.013792357 0.0046920343 0.017064119 0.008854403 -0.008780483 -0.009511875

weight f4 [16]
00000000: fdef 9a3f 9493 843f 8b30 8a3f 5c73 893f
00000010: fb66 7a3f 9dde 913f 8a6a 943f 031a 943f
00000020: d8fb 8e3f d9d8 873f 781a 973f 0c94 9e3f
00000030: c156 803f 1241 a23f 7053 8d3f 3f94 983f
1.2104489 1.0357537 1.0796064 1.073833 0.97813386 1.1396061 1.1595013 1.1570438
1.1170607 1.0613052 1.1804953 1.238893 1.0026475 1.2676108 1.1041088 1.1920241

bias f4 [16]
00000000: f843 50bd fe7a 7dbe 72eb 1a3e a623 5abe
00000010: 1235 58be b980 a9bd 6132 3a3e 3b79 f53d
00000020: 837f e43d 1a27 7fbe 7edc 18be 829e 73bd
00000030: 27ba 51be 9956 8bbd 8125 7dbe 7655 a93c
-0.05084607 -0.24753949 0.15128878 -0.21302661 -0.21113995 -0.08276505 0.1818328 0.119860135
0.111571334 -0.2491726 -0.14927861 -0.059477337 -0.20481168 -0.068036266 -0.24721338 0.020670634

running_mean f4 [16]
00000000: ef43 993f 741c 60be 2b73 31bf 8a9b 943f
00000010: 356f a9bf a72b e4be e4b3 1f3f 81f3 323f
00000020: e936 76bf d34b 993d 854d debe aef6 5e3e
00000030: fe39 51bf f83a c43d 2c89 b63e 93f1 a7bd
1.1973857 -0.21885854 -0.6931636 1.1609967 -1.3237063 -0.44564554 0.62383866 0.6990281
-0.96177536 0.074851654 -0.43418518 0.21773788 -0.81729114 0.0958156 0.3565153 -0.082003735

running_var f4 [16]
00000000: 8e16 b63f bbf6 9540 4d48 0c40 9ef2 5140
00000010: 6a42 a340 f195 0240 6d4d 5f40 b87f 3540
00000020: 766a 3740 ca5b c140 de2b 2c40 f751 233f
00000030: c068 c840 5b1c dd3f acd7 2a40 bc36 5240
1.4225633 4.6863685 2.191913 3.2804332 5.101857 2.0404017 3.4891007 2.8359203
2.8658729 6.0424547 2.6901774 0.63796943 6.262787 1.7274278 2.6694136 3.2845907

weight f4 [1, 16, 3, 3, 3]
00000000: 214f f0bd 5d86 fb3a 614d 8abd 9223 d4bd
00000010: c7c6 8e3d 7cdd 48bd 71bc 5dbd 6302 143d
00000020: dc11 67bd f182 e0bc 739f a23d a35b 5fbd
00000030: f2fe 333d 126e 3b3e f934 e43b 2197 963a
00000040: c3a5 4e3c 6b26 79bd 8c55 61bd ea67 a0bc
00000050: 4aa9 b1bd 9362 133c ad86 023e 6dc2 f03b
00000060: e063 b5bd 4e5e 4a3d e4a7 a9bd 0a0b 5bbd
00000070: 92ac 013d db5e ba3d 8d9e b6bd b0f8 053d
00000080: 65de dcbc c85a 133d f565 7e3b 9433 8ebc
00000090: 6e4a a63d dc19 9a3d 9025 fe3d e61b ddbc
000000a0: b07d 203d a2ce 813d 9c9f 03bd 9fce 333d
000000b0: b810 90bc 2150 af3d cb17 f33d 937b f23d
000000c0: 8fc1 8b3d 23c0 cf3d 5bc3 793d af4e 8fbb
000000d0: 7950 963c 740f 033c fd8d 4d3d 2ad5 2a3d
000000e0: d3c9 e9bb a62f a93d ff0e fbbc b151 0dbd
000000f0: 0481 a43c d611 b0bd a55a 19bd 6259 413d
00000100: c393 8abc bf01 8f3d 06be 0d3d b7a3 afbd
00000110: 8e00 523c 5a9f 8a3c 1873 09be 80b5 93bc
00000120: dc6a 00bd 602e 2cbd 49fd 813d 0ba1 573d
00000130: 05a0 79bd c14b 753d 32dc 283c 1e1c 5fbd
00000140: c83b aa3d 5c03 45bd cd41 493b 72ef 4dbd
00000150: 6788 d83c 11f3 e33c a025 62bd 2d50 24bd
00000160: 3cce 12bd 851f b6bd ba5e 923d 74f6 c03d
00000170: d1ff 043d 0ff2 a33d 1d11 ab3d 7195 533d
00000180: a47b 983d d010 863d 14e8 c63c b35a 8cbd
00000190: 1c79 00bd c6a7 22bd 30df 8d3c a4ce e3bc
000001a0: 02d5 1ebd caa5 63bd 1d4c 833b 3c68 7dbd
000001b0: f6a2 823d 728c a53d 6eb3 84bc 6fec b13c
000001c0: 4a34 3c3c 1fe1 6ab9 f182 3e3c 6451 43bc
000001d0: 2404 6abd 4ef8 5b3d 2a83 b0ba ac77 a53c
000001e0: 4c97 a1bb f1cc 55bb d4b0 b63c 23dc 723d
000001f0: 209f 903d f7e0 6f3d c762 acbc e63b 093d
00000200: 2d9a 303c 371d 5dbd f70a 053c 65a1 ae3c
00000210: da32 723d 97b2 dc3b 47d3 b73c c707 d73d
00000220: 68c7 853d 259e 18bd a5fc a03d c4a4 3cbd
00000230: ff17 263d 185f ecbc f10d a5bd 4d52 543d
00000240: c2b9 6f3d ec5f e53a 7673 453d d462 793d
00000250: 37da c2bc 6137 48bc ee56 41bc f6a0 bbbd
00000260: 5da0 203b 2041 16bd 206e 2f3d 0f9a b73c
00000270: c99c 383d 8445 1fbd 7676 f0bc 45ae a93d
00000280: 0001 363b ecfd b9bc efef 74bd 9d07 933c
00000290: 4e9b 70bd aa9e de3c b734 a13d 59ed 713d
000002a0: 5b69 5cbd 33c6 1bbd 27e8 35bd 06fd 22bc
000002b0: b385 d4bd d342 efbd aae8 a23c 1983 6d3d
000002c0: e7fd b8bc 1e41 433d 430a 3e3d fc2e 013d
000002d0: 2d53 bebd 4b11 10be 074a e4bd b094 d5bc
000002e0: 946c 94bc 82ac d53a b050 303d 3e79 713c
000002f0: 600f d3bb 2cf7 2b3d 36ac 0cbd 7865 73bd
00000300: ba71 1e3e caeb 0d3c 1665 8c3c 0d30 94bc
00000310: 3e2d 23bd 4475 b7bd 389a 853d 67e0 183c
00000320: 4e60 fabc 359c 163e dc25 7e3d c47a 18bd
00000330: 6bf3 223a 1979 d9bd bfdf a0bd a19b 2bbc
00000340: be2a b1bd 45d8 b0bc 4adc 433d 51d6 55bd
00000350: 5e49 a5bc c259 56bd 57f1 adbc 1bb7 9bbc
00000360: 3370 ad3d 7502 f03d 1ebe 063e 5629 dbbc
00000370: 6ee5 0e3c e4c8 bc3d da4a 88bd e5c2 c1bc
00000380: f078 d0bc 2fc0 293d 4eca 7f3d 5a96 473d
00000390: 606d c83b 663f 89bd 30be ebbc 2817 96bd
000003a0: f74b 93bd 4052 6cbd 8558 263d 90a0 37bd
000003b0: 7cac 5abc 9e8f b4bb 41f6 d9bd 21d7 cc3b
000003c0: 1e4d 87bd 277d 3dbd 37bb 663d d18c e23c
000003d0: ce2f 9f3d 2e51 cfbb 5abd 3a3c e45e 92bb
000003e0: 5ad7 5fbd 5c2f 393b f840 823d 96ef 44bd
000003f0: 46d1 ac3d cb74 6c3d 0275 7e3d e6f6 e43d
-0.11733843 0.0019189824 -0.0675304 -0.10358347 0.069715075 -0.04903935 -0.05413479 0.03613509
-0.056413516 -0.027406188 0.07940569 -0.05453075 0.043944307 0.18303707 0.0069643226 0.0011489132
0.012612763 -0.060827654 -0.055013224 -0.0195808 -0.086748675 0.00899567 0.12746687 0.007347396
-0.0885694 0.049406342 -0.08283976 -0.053477325 0.031658716 0.091001235 -0.0891696 0.03270787
-0.026961515 0.035975248 0.0038818095 -0.017358579 0.08119665 0.075244635 0.12409508 -0.026990842
0.039182365 0.0633824 -0.032134637 0.04389822 -0.017586097 0.08560205 0.118697725 0.11839976
0.06824028 0.10144069 0.06097732 -0.0043733935 0.01834892 0.00799929 0.05018424 0.041707195
-0.007134655 0.08261041 -0.0306468 -0.034501735 0.02008105 -0.08597152 -0.03743996 0.047204383
-0.016916161 0.06982755 0.03460505 -0.08576148 0.012817515 0.016921688 -0.13422811 -0.018030882
-0.03135191 -0.042036414 0.063471384 0.052643817 -0.060943622 0.059886698 0.010306405 -0.054470174
0.083121836 -0.048098907 0.0030709386 -0.05027718 0.02643223 0.027825864 -0.055211663 -0.040115524
-0.03584121 -0.088927306 0.07146974 0.09422007 0.032470528 0.080051534 0.083528735 0.05165619
0.074454576 0.065461755 0.024280585 -0.06853237 -0.0313655 -0.039710782 0.017318338 -0.027808495
-0.03877736 -0.05557803 0.004006876 -0.061866984 0.063787386 0.080834284 -0.01619884 0.021719186
0.011487076 -0.00022399843 0.011627899 -0.0119212605 -0.057132855 0.0537036 -0.0013466824 0.020198666
-0.004931366 -0.0032623375 0.022301115 0.05929197 0.07061601 0.058564153 -0.021043194 0.03350439
0.010778946 -0.05398294 0.00812029 0.021317193 0.059130527 0.0067351568 0.022439612 0.1049953
0.06532174 -0.037260193 0.07860688 -0.04605557 0.04055023 -0.028853938 -0.080593 0.0518363
0.05852676 0.00174999 0.048205815 0.060885265 -0.023785694 -0.012220235 -0.011800511 -0.0916156
0.0024509646 -0.0366832 0.042829633 0.022412328 0.045071397 -0.038884655 -0.029353362 0.082851924
0.0027771592 -0.022704087 -0.05979913 0.017947966 -0.05874186 0.027175266 0.07871383 0.059064243
-0.053811412 -0.038030814 -0.04441085 -0.009948021 -0.103770636 -0.116826676 0.019886333 0.057986353
-0.022582008 0.047669522 0.046396505 0.03153895 -0.09293208 -0.14069097 -0.11146932 -0.026071876
-0.01811818 0.0016302022 0.0430457 0.014738379 -0.006441042 0.04198377 -0.03434392 -0.05942294
0.1547307 0.0086621735 0.017138045 -0.018089319 -0.03983807 -0.089579135 0.065235555 0.009330845
-0.0305635 0.14708026 0.062047824 -0.037226453 0.00062160817 -0.10618801 -0.07855176 -0.010474117
-0.086507306 -0.0215875 0.047817506 -0.05220634 -0.020176586 -0.052331693 -0.021233244 -0.01900821
0.08468666 0.11719219 0.13158461 -0.026753109 0.0087216925 0.09218004 -0.06654902 -0.023652503
-0.025448292 0.041443046 0.062448792 0.04872737 0.006116554 -0.067015454 -0.028777212 -0.073286355
-0.071922235 -0.057695627 0.040611763 -0.04483086 -0.013346788 -0.0055102846 -0.10642672 0.0062512313
-0.06606506 -0.046261933 0.056330886 0.027655037 0.0777279 -0.006326816 0.011397684 -0.0044668783
-0.054648735 0.0028256988 0.06360048 -0.04808005 0.08438353 0.05772857 0.062123306 0.11179905
