DepthSensingCUDA/Source/Scan2CAD/data/checkpoint/scannet/decode.pt (torch, 885885 bytes, 20 tensors)

weight f4 [48, 16, 6, 6, 6]
00000000: 5b63 8bbd c92c 20bf 0be3 46be 12d7 15bf
00000010: 007b 4abe 5a29 39be eea9 b0bd 8e9d a4bd
00000020: dd96 3dbd 5878 17bd b553 79bd cf71 90bd
00000030: 8fd6 82be ea26 9fbe 5e08 74be 5614 36be
00000040: 0cd4 33be f66c e53d 3910 75bd 40a4 90bd
00000050: 75f7 f0bc 4984 fdbc 155a bfbc 4939 81bc
00000060: 1224 563d f521 aebd f4b8 2cbc ad77 86bc
00000070: 9926 d43c 145e 2d3e 8718 27bd 906e b0bd
00000080: 5782 76bd 7431 4ebd 76a1 2dbd c633 88bc
00000090: dadd 7ebe 1cba 39bf 87d5 f7be 1f2b 24bf
000000a0: c772 bcbe 8b36 c7be 6a75 acbc a551 1bbd
000000b0: ad83 febc e757 abbc 5dd9 c7bc 82b7 63bd
000000c0: 06d0 fbbd 6168 adbe 15a8 39be cb1d 43be
000000d0: 3699 d2bd ace6 54bd 36a9 60bd 98ea b7bd
000000e0: 2360 03bd a2bd 1cbd 93d5 24bc a5a0 46bc
000000f0: 6115 b13d 9c32 0e3d e711 ae3d 3a06 343e
00000100: d9a2 1c3e 474e 0f3e 6c8c a8bd ca68 0dbe
00000110: 8250 d6bd 3086 80bd c1fa 6bbc 88c6 2fbc
00000120: 23a1 40be 7220 8abf 3956 87be f724 75bf
00000130: 3077 73be f8f7 c1be 69b8 ddbb fdcf 4dbd
00000140: e844 93bc b561 4ebc 4bd4 26bc c41f 4bbd
00000150: 0894 92be 2402 1fbf e932 66be e184 d1be
00000160: ddd8 07be 51a6 c5bc b544 ecbd fc98 03be
00000170: aed5 9fbd afb2 45bd 5920 49bd 8b1b 30b9
00000180: eb63 993c 65aa 03be 0a6b 723d 2a80 dcbb
00000190: 792e 653d bb05 3d3e 50be e9bd 479d 43be
000001a0: 8e7f 12be b571 f1bd 7ad9 debc fef9 8fbb
000001b0: db5b 80be 5107 48bf b375 24bf cf04 4abf
000001c0: c57a 05bf 2bc2 c3be 0827 4abc 570a a4bc
000001d0: 5916 703c 6d48 2f3d 0363 153d 38fe ecbb
000001e0: bc18 32be 4954 e7be ca11 86be 898e d4be
000001f0: b8f6 52be 6213 6dbd 4a1b 72bd b1fe b9bd
00000200: 6f48 10bd 59c7 94bc f7da 463c 6d72 fcba
00000210: abd6 293d ed21 9d3d f1a7 863d ecfa 0f3e
00000220: 179c 0c3e d890 623e 604c 98bd c884 f6bd
00000230: b6f9 efbd 795e 31bd b33c 433c bfa5 323d
00000240: 683f 33be 4ef0 25bf 6230 99be 0f6c 34bf
00000250: e9e9 90be 1d8d dabe 6b49 f83c 7a60 6d3d
00000260: 57d3 ea3d 8329 cf3d 67fa a73d a638 013d
00000270: a602 a6be a6e7 eebe c995 90be cc0c bbbe
00000280: be2e 5ebe 852a 0cbe 4f4a adbd a8e0 80bd
00000290: 1fe7 1ebb 2dde 783c 91bb da3b 2cd4 0abd
000002a0: c1c5 ba3b a4ae adbc 09e6 243d d887 793d
000002b0: ac2a 613d f75a 4b3e a8b8 58bb 272c 24bd
000002c0: 0433 753a e7b0 6c3c bb58 b53d 0577 103d
000002d0: fdcc 45bd 1e62 b5be 6da3 99be 8967 97be
000002e0: ecae 99be ae09 56be 9e0a 233d daf5 ce3d
000002f0: 8aa5 0d3e 3dd5 f13d 9627 a13d 5e3d e13a
00000300: 4668 26be 2a6f 34be 0e30 6dbe ac92 8abd
00000310: 6df6 31be 7b15 dc3c 8ad2 1cbd 4aa9 aa3b
00000320: 7390 7b3d e1cd 853d b4fa 843c ffe1 eebc
00000330: 188e d6bc e6f7 383e 8592 44bc f043 9b3e
00000340: 8580 ba3c 9f3b 543e c3fb 523d b23f c53d
00000350: 2f25 103e f286 173e bd83 073e 7e29 b93d
00000360: 8f06 e23d d3ba 7a3d c5d5 ed3d d390 a33d
00000370: c86d fa3d ee0b 2e3d 3904 4e3d 0cb3 79bd
00000380: 6ae3 fa3c e2f4 56bd d968 a53d e351 87bd
00000390: 5552 413d 9773 0b3c d5f6 833c 2859 bd3c
000003a0: 8227 763d 09b1 443d 09ed 903c 5859 8ebd
000003b0: 3dd3 0a3b f73f b7bd f5ba 313d 7daf abbd
000003c0: d84e 88bd f5bb fcbd f6ed b2bd 1353 b9bd
000003d0: 00bc 89bc 60ae 69bc ecf8 3fbd bbf9 99bd
000003e0: 66d9 b0bd 176c 49bd 2c11 29bd a27a 63bd
000003f0: 875d 003e 3d8d 8e3d 3f03 ab3d 2bcf a83d
-0.0680606 -0.62568337 -0.19422548 -0.58531296 -0.19773483 -0.1808218 -0.086261615 -0.08037864
-0.046286453 -0.036980003 -0.060870845 -0.07052957 -0.2555432 -0.31084377 -0.23831317 -0.17781195
-0.17561358 0.11202423 -0.059829924 -0.07062578 -0.029414872 -0.030946868 -0.023358384 -0.015774386
0.052280493 -0.085025705 -0.010542143 -0.016414488 0.025897311 0.16930419 -0.040794875 -0.08614838
-0.060182896 -0.05034013 -0.04239031 -0.01662625 -0.24889317 -0.72549605 -0.48405096 -0.641283
-0.36806318 -0.389088 -0.021052081 -0.03791966 -0.031068647 -0.020915939 -0.02439564 -0.05559493
-0.12295537 -0.33868697 -0.18130524 -0.19054334 -0.10283129 -0.0519778 -0.054848872 -0.08980292
-0.032074105 -0.038266785 -0.010060686 -0.012123262 0.08646656 0.034716234 0.08499508 0.175805
0.15296496 0.13994704 -0.08229908 -0.13809505 -0.104645744 -0.06275594 -0.014403046 -0.010728486
-0.18811469 -1.0791152 -0.2643297 -0.9575953 -0.23775935 -0.37884498 -0.006766368 -0.05024718
-0.017977193 -0.012596537 -0.0101824505 -0.04959084 -0.28628564 -0.6211264 -0.22480358 -0.4092169
-0.1326632 -0.024127157 -0.11536542 -0.12851328 -0.07804428 -0.04826611 -0.049103115 -0.00016794929
0.018724402 -0.12857969 0.05918411 -0.0067291455 0.055952523 0.18459217 -0.11413252 -0.19102965
-0.14306471 -0.11789266 -0.02720331 -0.004393815 -0.2507008 -0.78136164 -0.64242095 -0.7891359
-0.52140456 -0.38234076 -0.012338407 -0.020024462 0.014653766 0.04279368 0.036471378 -0.0072324537
-0.17392248 -0.45181492 -0.26185447 -0.41514996 -0.20601928 -0.057879813 -0.059108056 -0.09081782
-0.035225328 -0.018161463 0.012137166 -0.0019260176 0.04146449 0.076724865 0.06575001 0.14060563
0.13731419 0.22125566 -0.074364424 -0.12037045 -0.117175505 -0.043302987 0.011916327 0.0436151
-0.17504656 -0.648198 -0.29919726 -0.70477384 -0.2830346 -0.42685786 0.030308446 0.057953335
0.11466091 0.101153396 0.08202057 0.031548165 -0.32423896 -0.4666111 -0.28239277 -0.365332
-0.21697518 -0.13688095 -0.08461439 -0.0629285 -0.0024246646 0.01518969 0.0066751917 -0.03389375
0.0056998436 -0.02120144 0.04025844 0.060920566 0.054972336 0.19858919 -0.0033069048 -0.04008117
0.000935361 0.014446474 0.088548146 0.035269756 -0.048291195 -0.3542642 -0.30007496 -0.2957118
-0.30016267 -0.2090213 0.039805047 0.10105486 0.1383268 0.1180825 0.078688785 0.0017184427
-0.16250715 -0.1762053 -0.23162863 -0.06766257 -0.1737916 0.026865711 -0.038286723 0.005208169
0.061417054 0.06533409 0.016232826 -0.029160498 -0.026190802 0.18063316 -0.011997824 0.3032527
0.022766361 0.20725869 0.05150963 0.096312895 0.14076684 0.14797571 0.13233848 0.09041117
0.11036407 0.061213326 0.11613039 0.079866074 0.1222797 0.042491846 0.050296996 -0.060961768
0.030626018 -0.052479632 0.08076639 -0.066074155 0.04719766 0.0085114455 0.01610891 0.023113802
0.06009627 0.048020396 0.017691152 -0.06950635 0.0021183037 -0.08947747 0.043391187 -0.08383081
-0.06655663 -0.123405375 -0.08736794 -0.09049048 -0.016813278 -0.014262766 -0.04686825 -0.075183354
-0.086352155 -0.049175348 -0.041276142 -0.055536874 0.12535678 0.06960533 0.083502285 0.08242639

bias f4 [16]
00000000: e4a8 18bc 299b 01bd 2fc1 623d 6fed 283b
00000010: 9678 2dbd 6056 be3c f6aa 0a3c bf2a bebb
00000020: 41cf 97bc 8553 0a3d 7b60 f33c 6413 c3bc
00000030: f365 dabc 11af da3b 99aa 953b fd89 23bd
-0.00931761 -0.031642113 0.055360015 0.0025776287 -0.042351328 0.023234546 0.008463612 -0.0058034356
-0.018531444 0.033771057 0.029709091 -0.023812957 -0.026659941 0.0066737016 0.004567456 -0.039926518

weight f4 [16]
00000000: cc7d 803f 9216 8a3f b91f 9e3f 757c 633f
00000010: 4194 443f e2a6 4c3f d837 4f3f d8c2 3c3f
00000020: a942 503f 16d0 a83f 11b0 6e3f e471 483f
00000030: 0506 6d3f f588 8c3f 558b 803f dc92 253f
1.003839 1.0788138 1.2353431 0.8886178 0.7678872 0.7994214 0.80944586 0.7373481
0.81351715 1.3188503 0.93237406 0.78298783 0.9258731 1.0979296 1.0042521 0.64677215

bias f4 [16]
00000000: 756e 0dbe 8c99 27be ecc8 d4bd 5900 ddbc
00000010: e09e 34bc 5f3e 97bd 23d3 643d e2cf dc3c
00000020: 0a56 59bd e857 48be 811e 27be 7b9a 4d3d
00000030: 604d 81bd 7369 b3bc 4a1e 69bd 42f8 11ba
-0.13811667 -0.16367167 -0.10389885 -0.026977705 -0.011024207 -0.07384943 0.05586542 0.026954595
-0.05306057 -0.19564784 -0.1632023 0.050196152 -0.06313586 -0.021900868 -0.05691365 -0.00055683043

running_mean f4 [16]
00000000: 6053 b2c1 480c 8fc1 1692 13c2 2040 45c2
00000010: 6f03 69c2 a2eb 23c2 8a22 81c2 59d1 47c2
00000020: ca8a 66c2 a0e7 22c1 ef45 d4c1 2901 9ac2
00000030: da06 67c1 6ff4 88c1 bb3c 10c2 94c2 91c2
-22.29071 -17.880997 -36.892662 -49.312622 -58.253353 -40.98011 -64.56746 -49.95444
-57.635536 -10.181549 -26.534147 -77.002266 -14.439173 -17.119352 -36.059307 -72.880035

running_var f4 [16]
00000000: 0710 ae43 9677 7d44 a11d 6b44 9433 2345
00000010: bcb4 ee45 7cc2 f344 b9fa ef45 3654 c845
00000020: 9106 8d45 160e 5e43 f030 d544 7169 1646
00000030: f7fd 9343 c18b fe43 e7bd a444 1f0e cd45
348.1252 1013.8685 940.46295 2611.2236 7638.592 1950.0776 7679.3403 6410.5264
4512.821 222.05502 1705.5293 9626.36 295.9841 509.09183 1317.9344 6561.765

weight f4 [16, 8, 6, 6, 6]
00000000: a3f1 11be 7d10 05be bdf6 08be d6ac debd
00000010: 45bf 16be ab1f f9bd 5087 07be b3f7 2d3d
00000020: a217 acbd 6e77 353d a03b 47bd 433f a33d
00000030: 719e 78be cb66 18be 2418 93be b825 43be
00000040: befa 70be e01d 06be be3a d3bd 3e2b c9be
00000050: 4908 84bd e3a8 c1be d59d 8ebd fb21 c9be
00000060: db06 79bd f887 29bd d43d 7ebd 6044 89bd
00000070: 5653 83bd e256 80bc c7a4 2b3c 4e53 10be
00000080: c7fc 6a3d ccec 60be 39e6 963d da45 18be
00000090: 9474 abbd adae 21be 5ae6 0ebe ad63 68be
000000a0: a172 a1bd dfad 23be 1e6d 743d 1d1c 08be
000000b0: 97a9 813d 0eee c2bd 3bd0 163d b6fe e3bd
000000c0: a556 26be 795d a9be fda3 46be 7e90 d6be
000000d0: 2f92 14be faf7 abbe 5cb1 e0be aff0 d6bd
000000e0: a326 cabe 3514 c7bd dda0 d6be 2872 10be
000000f0: 10ba 8d3b d179 0dbe 0cd6 5fbd e848 fbbd
00000100: a3da 10bd b777 e6bd 1c91 62be fbcc 4d3d
00000110: c672 85be 58b2 dc3d f269 4cbe e69a 303d
00000120: d957 16be dfd4 11be ce63 5abe a5ac 0ebe
00000130: 1b65 21be 2335 28be 635f d1bd 5847 433d
00000140: db95 b9b9 9b6c 6c3d 1708 0c3c 8b00 793d
00000150: 30a0 8bbe 6e3c 35be 347e 96be d4a6 42be
00000160: a918 76be 5fb9 2ebe 4d17 85bd 1963 b9be
00000170: c752 95bd 0d77 c2be e937 9fbd 7b76 c5be
00000180: 0d3b bdbd 3d17 6ebd 37f7 0abe 0245 a3bd
00000190: d1ca b3bd 7b57 b5bd 1028 cc3d eb0a 48be
000001a0: a43a 0c3e 0010 8bbe dd11 083e 5ddc 3ebe
000001b0: 8388 fbbd 2930 47be abb3 41be 59e6 75be
000001c0: 8a4e c4bd e39d 49be df76 193d 01ba a0bd
000001d0: 1618 263d 7982 2dbd 7442 803d e298 e3bd
000001e0: 4d40 40be 3b3e cabe decf 5fbe e9cc e4be
000001f0: fe81 2abe b5db c7be 05fe adbe 5913 bcbd
00000200: 220e c0be 6025 abbd c796 9ebe c3f3 11be
00000210: 4bb6 7cbd 56fa 04be 9400 d3bd 03c1 36be
00000220: 300f 85bd 5951 d6bd 4451 83be d7e0 003e
00000230: bc87 96be f418 1b3e fd16 87be 03f2 cf3d
00000240: 1e07 00be 6aec a3bd ead3 17be dd1e 8abd
00000250: d2b4 cebd 4210 d5bd b030 c2bd fcd4 b53d
00000260: 288c 7dbd f690 9a3d 507a c1bc edf4 893d
00000270: e02e 6bbe 0ccb 17be 0907 8fbe af8b 42be
00000280: 10f1 4ebe 2451 18be 5690 a6bd 9a62 b9be
00000290: 7584 b3bd 40b3 c0be 095d b3bd fc14 c8be
000002a0: f5af 98bd 55cc 02bd 79b4 88bd 0667 00bd
000002b0: 081a 37bd c587 7abd e1a0 4b3d a35b 30be
000002c0: a269 c93d c4d9 5cbe 3803 9e3d 9640 45be
000002d0: dd7c 03be 96f8 22be 68b8 efbd b94c 54be
000002e0: 094c d5bd 0cac 47be abe7 ad3b e1e0 1bbe
000002f0: 6d56 543c f4c2 fabd 468f e03c 3e9b 26be
00000300: 9beb 09be d4ab 8ebe 04e0 4dbe b96f cfbe
00000310: 2dbd 26be 6c35 a2be 491e dabe d015 06be
00000320: 7185 b5be 4451 0bbe cded d9be c05a 2cbe
00000330: d9a6 abbc c91d 14be fd17 1ebd 7b63 27be
00000340: 7439 10bc c4c3 ffbd 1a82 5dbe 2d05 993c
00000350: 72af 93be 8913 ac3d 6a84 6abe 616d 3db9
00000360: 5b7a c73c 6b6c 98be c57c b03d 5557 9ebe
00000370: c0b3 8abb 628f 91be 9391 9dbe 52a1 93be
00000380: 3fda 9fbe b67c 8bbe 553b a7be 9348 aebe
00000390: 7e77 243d 103a 85be a6b8 123e 8c94 63be
000003a0: 2f32 193d cfe8 84be 26aa dbbd 13a3 a2bd
000003b0: f788 cfbd 5bce a8bd 6687 d2bd 80db cebd
000003c0: 5de5 893d 8597 a2be e555 183e 0f14 a8be
000003d0: e1a1 a33d 1569 96be eedf a9be 85a3 7cbe
000003e0: bd5c acbe a6b3 57be be10 a6be fb3a 66be
000003f0: 5e28 99be 1bba ae3d fe72 89be a2d3 e33d
-0.14252333 -0.12994571 -0.13375373 -0.108728096 -0.14721401 -0.12164243 -0.13235211 0.042472553
-0.08402945 0.04430335 -0.048640847 0.079710506 -0.2427919 -0.14882962 -0.28729355 -0.19057357
-0.2353315 -0.13097334 -0.103139386 -0.39290804 -0.06446893 -0.37824163 -0.06963698 -0.39283738
-0.060797554 -0.041389436 -0.062070683 -0.067024946 -0.064123794 -0.015666429 0.010476298 -0.14094278
0.057369974 -0.21965331 0.0736813 -0.14870396 -0.08371845 -0.1578929 -0.1395506 -0.22694273
-0.07883192 -0.15984295 0.059674375 -0.13291974 0.06331175 -0.095180616 0.036819678 -0.11132567
-0.1624399 -0.33079126 -0.19398494 -0.41907114 -0.1450889 -0.3358763 -0.43885314 -0.104951255
-0.39482602 -0.09720651 -0.41919604 -0.14106047 0.004325159 -0.13816 -0.05464749 -0.12269765
-0.03536476 -0.112533025 -0.22125667 0.050244313 -0.26064128 0.10776204 -0.1996229 0.043116473
-0.14681949 -0.1424136 -0.21327135 -0.13933046 -0.15761225 -0.1642652 -0.10223272 0.04767546
-0.000353976 0.05772076 0.008546851 0.060791533 -0.2727065 -0.17698833 -0.2939316 -0.19008952
-0.24032845 -0.17062901 -0.06498585 -0.36208418 -0.07291179 -0.37981454 -0.07774336 -0.38566956
-0.09239779 -0.05812763 -0.13570867 -0.079721466 -0.087789185 -0.08854576 0.09968579 -0.19535415
0.13694245 -0.27160645 0.13288064 -0.1863875 -0.12281897 -0.19451965 -0.18916194 -0.24013652
-0.09585293 -0.19689135 0.03746688 -0.078479774 0.040550314 -0.042360757 0.06262675 -0.111131445
-0.18774529 -0.39500603 -0.21856639 -0.44687584 -0.1665115 -0.3903481 -0.33982864 -0.09183378
-0.37510782 -0.08356738 -0.3097441 -0.14253144 -0.061697286 -0.1298612 -0.10302845 -0.17847066
-0.064970374 -0.104647346 -0.25647938 0.1258577 -0.29400432 0.15146238 -0.26384726 0.10153582
-0.12502715 -0.08004077 -0.14826933 -0.06744168 -0.100930825 -0.104034916 -0.09481943 0.08878514
-0.06190124 0.0754718 -0.023617893 0.06736169 -0.229671 -0.1482355 -0.27935055 -0.18998598
-0.20209146 -0.14874703 -0.08132999 -0.3620804 -0.087654985 -0.37636757 -0.087579794 -0.3907851
-0.07455436 -0.031933147 -0.066750474 -0.03134825 -0.04470256 -0.061164636 0.049713973 -0.17222457
0.09834601 -0.21567446 0.07715458 -0.19262919 -0.128406 -0.1591514 -0.117050946 -0.20732392
-0.10414893 -0.19499224 0.005307158 -0.15222503 0.012960059 -0.122442156 0.027412068 -0.16270158
-0.13468783 -0.2786547 -0.20104986 -0.40514925 -0.16283102 -0.31681383 -0.4260123 -0.13094258
-0.3545337 -0.13605219 -0.4256424 -0.16831493 -0.020953583 -0.14464487 -0.038597096 -0.16346543
-0.00880276 -0.12488511 -0.21631661 0.018679226 -0.28844792 0.084021635 -0.22902074 -0.00018065191
0.024350336 -0.29770216 0.08617548 -0.30926004 -0.0042328537 -0.28429705 -0.30775127 -0.28834015
-0.31221196 -0.27243584 -0.32662454 -0.34039745 0.04015302 -0.2602086 0.1432825 -0.22224635
0.037401374 -0.2595887 -0.107258126 -0.0794126 -0.10133546 -0.08242484 -0.102797315 -0.1010046
0.06733201 -0.31756225 0.14876516 -0.32827803 0.0798986 -0.29377046 -0.33178657 -0.24671753
-0.33664504 -0.21064624 -0.32434648 -0.22483437 -0.2991361 0.085315906 -0.26845545 0.1112435

bias f4 [8]
00000000: 579c 353e 25ec 88bc 05f3 303e a2fb a7bd
00000010: c0ae 193e 5fff 483e debf 07be f7d6 1ebd
0.1773542 -0.016714165 0.17280205 -0.08202292 0.15008068 0.19628666 -0.13256785 -0.038779225

weight f4 [8]
00000000: 58ff 483f 1ac7 2b3f ae6e 8a3f ba18 a53f
00000010: 66ac 643f 14e6 543f b536 823f abfe 863f
0.78514624 0.6710068 1.0815027 1.2898171 0.8932556 0.8316357 1.0172945 1.0546468

bias f4 [8]
00000000: cded f7bd ff5d f2bd ac64 823e bfc6 403e
00000010: 0968 2bbb fdb1 b1bd 00eb d33d 2a6f 833d
-0.12105904 -0.118343346 0.25467432 0.18825816 -0.002615454 -0.08676527 0.10347557 0.06417687

running_mean f4 [8]
00000000: 536d 70c1 ee65 9ac1 07ab 81c1 d9b6 aec1
00000010: 0bbc f1c0 e304 aac1 b160 6bc1 6fd8 92c1
-15.0266905 -19.29977 -16.20851 -21.839281 -7.5542045 -21.252386 -14.711106 -18.35568

running_var f4 [8]
00000000: 5939 9642 f2d9 9243 3fbf 1f43 d9f8 e542
00000010: abb5 0743 199c 4a43 8f75 0e43 7976 0c43
75.11201 293.7027 159.74706 114.98603 135.70964 202.60976 142.45921 140.46278

weight f4 [16, 48, 3, 3, 3]
00000000: 14ae 85bd b24a db3c 7078 173c 9ab5 f43c
00000010: ea38 fe3c ef63 2e3c ddd9 403e 55e7 733b
00000020: 1639 f6ba c082 a5bd 9ec7 ad3d 820a a83d
00000030: 5c20 2fbc a3f9 babc 2269 8abc 8107 aa3d
00000040: 6982 a13c c2bb b1bd 5097 f8bd 6a91 203e
00000050: be0e 723d 8002 a5bd db18 663d 8c02 3d3c
00000060: d77f b63d 9b1e f23d af86 2b3c 4b20 c939
00000070: 7a01 34bd eee4 5abc c787 c33d a60e a23d
00000080: 9329 0b3d 2fbe d83d 860e 673d b931 ac3d
00000090: a5c6 efbd 81b3 01be 1bc6 e7bd f53e cd3d
000000a0: 82e8 813c a9dc a03d 8f78 a83d 8695 d8bd
000000b0: daad 72bd 48b3 2fbe 5f7d 43be fe28 c3bd
000000c0: a861 d9bd e980 30bd a2fc 8c3d 88dc 7a3b
000000d0: be6c 0cbe aa82 633d 67bc abbd 4c3f 15be
000000e0: 9388 73be f9fb 4f3e db72 1e3e 0c6b ef3d
000000f0: faec 89be 5db5 8bbe 4938 78be 9920 c6bd
00000100: e27c 1dbe 8c2e 87be b044 313e 63ff 233e
00000110: ebe1 953d 8c83 42be 086a 62be 0cce 3cbe
00000120: bc06 42bd 0e7a 0abe 3ef3 21be 04ae 233e
00000130: bdc3 1b3e 371a 083e 0d22 9cbe d5d5 7fbe
00000140: 2fe6 33be 2eef 923e 5db6 1c3e 58c4 7f3d
00000150: 1783 913e 64a4 6c3c 5747 9fbd 8ba4 6b3e
00000160: 8bd8 043e 380b 8dbd 7e04 a33d 603e 633d
00000170: 977c 073e 6d01 273e 6fca 9f3d 0efc 8cbc
00000180: e507 a03d e79b d63b 2d3a 12bd 0f68 ad3d
00000190: fff5 d9bc 6ede 98bd 11c7 963d d7aa 82b9
000001a0: ffe6 843b 8f88 243d a40b 5ebd 888b b4bd
000001b0: ee41 913c 674f 203d d55f 8f3d 693e f0bd
000001c0: 4706 1dbe 9a81 28be 5599 a8bd 3fcf 4bbe
000001d0: 279d 3dbe ca59 2dbe ba4b ef3a a430 c53c
000001e0: 98a8 6cbe a1e3 44be 96ff 16be 561b d7be
000001f0: f9d8 03bf 04ee b9be b46a 2bbe 9138 cebd
00000200: 2d7b 8ebb 8b4b 8dbe c38f 92be 97a3 d1bd
00000210: ff42 90be 2716 96be 93c0 07be 6b0a 37be
00000220: f953 b6bd e7ca f7bd aae1 c1bd 7c2f 83bd
00000230: 7721 e6bd 45d4 d3bd 138b e6bd 6244 a7bd
00000240: 0dbd 03be 4e9b ebbc 5e60 9839 4c2f 10bd
00000250: 939c 81bd a3de 55bd cd58 46bd 8c22 01be
00000260: 2ac3 ebbd 5069 a3bc 34ec b8bd 1eca cbbb
00000270: 053e 093e 1287 bc3c e6b9 4dbc c6df 053e
00000280: 58bf af3c 7a42 fcbc 4d62 a63d 5bd4 873e
00000290: 31a0 3f3e c185 d43e b86b 0a3f c8de fa3e
000002a0: b6e1 af3e 5d91 f23e c25f f13e a85b 393e
000002b0: c9d7 f33d bba5 663e f2ed 063f 14ee 053f
000002c0: c3c5 203f f5cb c23e b08a 0a3f 78f0 073f
000002d0: 4ca3 cd3d d2ed 033e ccc2 92bc 6229 013f
000002e0: 87e8 fb3e cb1b cc3e 5f4a 973e ea82 f73e
000002f0: 48cf e63e ad75 19bd 4471 f0bc f535 63bd
00000300: e7ba e53c 64f7 583c ae80 883d b7ac 50bd
00000310: 8e86 07be 8619 353d dccf 86bd 273d 80bd
00000320: 5c28 ecbd 8a0e 83bd c130 bb3c 5e15 89bc
00000330: 4b53 02be b381 10be 44d9 0ebd 9888 aabb
00000340: 0756 2f3d ea13 98bc f1a2 cf3c 39c6 103e
00000350: 88a1 ca3d 3b8e 613d 8f8f fd3c 0255 b93d
00000360: ebb9 7fbd 7d6e 9d3d 4b12 413c f262 abba
00000370: 2bc1 933d cccf 613d de5f e5bc fa85 ad3d
00000380: f50b 1b3e 37d1 babc 4844 93bb 191d 0ebd
00000390: 9db3 85bd 754c 4cbd 92db 3bbd 702f 21bd
000003a0: 2ae2 033d 2a07 163c 2bb7 07be 0dd3 71bd
000003b0: 8b97 14be 3310 01be bc6c c1bd 3a02 fcbd
000003c0: 9b07 61be b9ae 5ebe 9c22 68be 9387 72be
000003d0: cef7 48bd 7e18 a0bd 0aa1 73be ee76 bcbe
000003e0: 63c4 abbe 4487 1abe 1dc4 33be 2331 94be
000003f0: 6606 92bd 7f25 033d 3765 e2bc 8102 04be
-0.065273434 0.026769016 0.009245023 0.02987175 0.031032998 0.010643943 0.18833108 0.0037216742
-0.0018785323 -0.08081579 0.084853396 0.08205129 -0.010688867 -0.022824114 -0.016895834 0.083022125
0.019715505 -0.0867839 -0.121382356 0.15680471 0.05909609 -0.080571175 0.056176048 0.011536252
0.08911102 0.11822244 0.010469123 0.00038361768 -0.04394672 -0.013360245 0.09547382 0.0791295
0.033975195 0.1058315 0.056410335 0.08407921 -0.1170781 -0.12666132 -0.113170825 0.10021774
0.015857939 0.078545876 0.0822612 -0.10575394 -0.05924783 -0.17158234 -0.19090794 -0.09529303
-0.106143296 -0.04309169 0.068841234 0.003827842 -0.13713357 0.055544533 -0.08385544 -0.14574927
-0.23782568 0.20310964 0.15473501 0.116903394 -0.2693861 -0.27286807 -0.24240221 -0.09674186
-0.1537967 -0.264027 0.17311358 0.16015391 0.07318481 -0.18995494 -0.2211076 -0.18437976
-0.047369704 -0.13523123 -0.15815446 0.1598435 0.15211387 0.1329125 -0.3049473 -0.24983914
-0.17568277 0.28698105 0.15303941 0.062443107 0.28420326 0.014443491 -0.07777279 0.23011987
0.1297323 -0.068869054 0.07959841 0.055479407 0.13231121 0.16309138 0.07802283 -0.017210033
0.07814006 0.0065493467 -0.035700012 0.08467113 -0.026606558 -0.074643 0.07362188 -0.00024922818
0.004055857 0.040169295 -0.05421032 -0.08815676 0.017731633 0.039138224 0.070007004 -0.11730654
-0.15334426 -0.16455689 -0.08232371 -0.19903277 -0.1851698 -0.16928783 0.0018256821 0.024071045
-0.23111188 -0.19227459 -0.14745936 -0.42013043 -0.5150295 -0.36314404 -0.16739923 -0.10069383
-0.00434818 -0.27596697 -0.28625306 -0.102362804 -0.28176114 -0.29313776 -0.13257055 -0.17875068
-0.08902735 -0.120992474 -0.0946687 -0.06405541 -0.11236852 -0.103432216 -0.11256995 -0.0816734
-0.12865086 -0.028760578 0.00029063498 -0.035201356 -0.06328692 -0.052214276 -0.04842453 -0.12610835
-0.11511834 -0.019947678 -0.09029427 -0.0062191626 0.13402565 0.023013625 -0.012556529 0.13073644
0.021453544 -0.030793417 0.08124218 0.26529202 0.18713452 0.41508296 0.54070616 0.48998094
0.3435189 0.47376528 0.4714337 0.1810137 0.11906392 0.22524159 0.52706826 0.52316403
0.6280176 0.38046232 0.5411787 0.531013 0.10040912 0.1288369 -0.017915152 0.5045377
0.49200842 0.39864954 0.29548928 0.48342067 0.45080018 -0.03746574 -0.029350884 -0.05547138
0.028043224 0.013242576 0.06665169 -0.050945964 -0.13234922 0.044213794 -0.06582615 -0.06261664
-0.115311354 -0.063992575 0.022850396 -0.016733821 -0.12727086 -0.14111976 -0.03487517 -0.0052042715
0.04280665 -0.018564183 0.025346251 0.14138116 0.09894091 0.055067282 0.030952243 0.09049417
-0.062433165 0.076870896 0.011784147 -0.0013075753 0.07214578 0.05512981 -0.027999815 0.084728196
0.1514128 -0.02280484 -0.0044942237 -0.03469572 -0.06528399 -0.049877603 -0.045863695 -0.03935188
0.03219811 0.0091569815 -0.13253467 -0.059039164 -0.14510934 -0.12603836 -0.094445676 -0.12305112
-0.21975558 -0.21746339 -0.22669452 -0.2368453 -0.04906445 -0.078171715 -0.237919 -0.36809486
-0.3354827 -0.15090662 -0.1755528 -0.28943738 -0.07130127 0.03201818 -0.027636154 -0.1289158

bias f4 [16]
00000000: 21df 9d3c c8ea 9b3c 1966 b5ba 6b0a d2bc
00000010: d8b7 d1bc 7e07 fabb 2702 d23c 9bbc 623c
00000020: e351 3bbc d38d 07bd ae8f 423c d9b3 12bc
00000030: 2655 b83b 4924 853c 793b 71bb 2196 4a3c
0.019271435 0.01903285 -0.0013839632 -0.025639733 -0.025600359 -0.0076302877 0.025635792 0.013838912
-0.0114330975 -0.03309424 0.011875076 -0.008954012 0.005625385 0.016252654 -0.003680913 0.012364895

weight f4 [16]
00000000: 551b a33e 84a0 363e 97b0 b03e 5f9c 833e
00000010: be4a 063f 393d 033f 8681 903e bc1c ce3e
00000020: c70d bf3e c3e2 1f3f f1b0 8e3e 88eb fe3e
00000030: 50fa f83e 0cde b33e 645c 0e3e 8d11 843e
0.3185679 0.1783467 0.34509727 0.2570524 0.524578 0.51265293 0.2822382 0.40256298
0.373152 0.62455386 0.2786937 0.4978907 0.48628473 0.35130346 0.13902432 0.2579464

bias f4 [16]
00000000: b0ef d33d 4d07 883d 92e0 dfbd ce77 803d
00000010: a790 34be 2ebc 523e 771b c5bd 8fc5 03be
00000020: 39e1 b9bd b5b3 233d b4a4 a93d eb65 57be
00000030: 362a 263c 025e 013e 21c8 22bd d688 b63d
0.10348451 0.066420175 -0.10931505 0.06272851 -0.17633305 0.20579597 -0.09624379 -0.12868331
-0.09076161 0.039966304 0.08283368 -0.21034972 0.0101419 0.12633517 -0.03974164 0.08912818

running_mean f4 [16]
00000000: efc6 d441 90f5 b241 7b9b d8c1 35f3 9341
00000010: 61be f2c1 d31a 0542 1a29 cac1 b395 cac1
00000020: 55cb 81c1 c477 1ec1 ef7f a241 7003 05c2
00000030: b117 14c1 903f e841 bd41 91c1 d1f9 7541
26.597136 22.369904 -27.075918 18.493753 -30.342958 33.276196 -25.27007 -25.323095
-16.224283 -9.90424 20.312468 -33.253357 -9.255784 29.031036 -18.157099 15.37349

running_var f4 [16]
00000000: 5659 9f45 f80e 2c45 d9c7 a145 dfda 8145
00000010: a4fd 9a45 a6ba a345 b11c 2b45 9ddc 9a45
00000020: 6d7f 5145 84c4 7445 5f4d 4c45 d1e9 c945
00000030: 1519 7745 d912 8a45 4f08 4045 2e6a 5e45
5099.167 2752.9355 5176.981 4155.359 4959.705 5239.331 2737.7932 4955.5767
3351.964 3916.2822 3268.8357 6461.227 3953.5676 4418.356 3072.5193 3558.6362

weight f4 [3, 16, 3, 3, 3]
00000000: 572c 523d 330a 6c3d 8865 723d 25ff 993d
00000010: b6ae cb3c 9774 a33b 55c7 2f3e fae5 113e
00000020: 732d b33d 8ab8 01bd 70e2 b4bd 69fc f6bc
00000030: 6c0c 063d 3209 efbc 3833 28bd f384 213d
00000040: bede d13b 1313 823c 422a 50bc 0062 21be
00000050: 471a cbbd 2aee 5c3c e4a6 6bbd 619d 28bd
00000060: c6d8 a2bd 282d e8bd 2d55 95bd ba29 e1ba
00000070: 9afc b23d 15da 553d ec73 98bc 04b9 893b
00000080: 709e f4bc 46d8 b2bd 815c 94bd de36 c23d
00000090: d7ba 59bb b84c 923d 9b40 583d 5963 143c
000000a0: 9ce9 343d 8cb9 923d 6298 37be 192a 02be
000000b0: 34fc c63d a01d f1bc 671c 22bc 8c14 373d
000000c0: 218a 893c ea5b a4bc 6d3e f43d 760a 36be
000000d0: 62ea 2abe 780d de3d 1589 f13d 7f81 373d
000000e0: c7b2 59bd f912 ff3c ef1c 793c b6b6 11bd
000000f0: 99bc 4dbd f2f7 23bd 5c4e 7ebd 491e 8c3d
00000100: f669 d23c b186 76bd 6fdd 1a3c 28bc 3d3d
00000110: cb9a 8fbd 6309 cebb 215a ec3c 7f8b a8bc
00000120: 8104 9d3c 3a63 66bd b867 5cbb 545f d3bc
00000130: 4a06 88bd 6dd6 27bd d20a 2a3d 732b c23c
00000140: db7c 063c 7b4f a4bd e5a3 7ebd af09 b0bc
00000150: fc47 26bd da1f c53b baa4 aa3d 73dc 8abd
00000160: eb45 89bd cde7 3c3d f1f4 b4bd 2d3d 66bd
00000170: ae99 64bd fe8d 03bd 9238 70bc bda3 7e3d
00000180: 18d5 3dbd 389f 6ebd 5e89 e43d ad5b 01bd
00000190: 759d 5bbd 902c 62bd 7924 713d 695b 2f3d
000001a0: 7b3a 863d 23dd 1e3d 9edf b63d 2062 383e
000001b0: 115e e7bc 48c9 c1bc 353d 0b3d 06d8 183d
000001c0: 68ec 443d 3aa5 2a3d 0f69 463d 84fa 633d
000001d0: 3cc1 c63d 836b aabd e18d 2fbd ff16 df3c
000001e0: 60c8 c0bb fefe e13c 1c7f d83d e2a3 50bd
000001f0: 8312 1abd 1345 063e b063 61bd 3d28 c5bc
00000200: 2860 fcba b093 ae3c 6aff 573d d791 583d
00000210: 3400 9cbd 9a54 7fbd 2c59 573d 8f5f 06bd
00000220: 0188 d2bc 0059 d83c dbaa 79bc c56a d03c
00000230: 7ec3 0c3b e5b2 b9bd 8353 72bd 761a 783d
00000240: 89b1 263c ad73 54bd e5ee 47bc ddf3 f83c
00000250: 17f4 cfbc cc01 19bc cda0 ddbc f628 3b3c
00000260: b2f4 b83d c916 cbbc faf6 1f3b df89 3fbd
00000270: 0abd 0c3d 263c 063d 33b1 9a3d 7c6b a63d
00000280: 1113 303e ab30 0e3e efd1 c4bc eaf5 43bd
00000290: c66c 15be b315 fdbc a338 c1bd 5703 10be
000002a0: 451d 0cbe a639 febd ccfa f1bd ae63 7e3d
000002b0: d836 f33d c444 103d af03 9dbb c926 c43b
000002c0: 37ec dcbc 5dba 38bd c46b dfbc 1bdd b23c
000002d0: 0a4a 963d 2e05 1c3d 12e3 5b3d 1e15 ef3d
000002e0: 4174 a93d e1e8 5e3a bdb2 263e 60da 313e
000002f0: e828 8d3e 2a8f 65bd 0e43 7e3c 6c39 473d
00000300: 7af7 e7bd efbb 443d c2e2 0a3d 7cf2 debd
00000310: fec9 d6bd 7929 f93b d936 7bbd 99f4 843d
00000320: abf5 983d 4357 5bbc a0df 003d 0420 953d
00000330: 4a2d 0fbe 129e dbbc 66b9 963d aa74 a7bb
00000340: 179e 0e3d 56a0 af3d 5814 1fbd 1013 acbc
00000350: eb7e 0c3d 3ccc a9bd 5b7a b13c bedb cf3d
00000360: f948 15bd 7b2a dd3c feb7 463d cbcb 71bd
00000370: 4c11 4d3b 833d 863c 502a 6cbc d7fa 2abd
00000380: 0209 73bd 9494 d3bc 04a7 27bd 779b 133d
00000390: 5669 a0bc 420c 07bd 56bf 04bd a39e dfbd
000003a0: 6566 3bbd 2ff7 9fbd ecc8 c43c 1870 6abd
000003b0: 3b8f c7bc adcc 10bc 9c80 1fbd a8ea 3fbd
000003c0: e0b8 6dbd ae11 91bd 7d7a ebbd d341 993d
000003d0: d287 4b3d 78c9 a03d 0121 b13c ca2e a53d
000003e0: cac2 ab3d a3e3 853d a909 753d b4e2 a73d
000003f0: 8fa3 433d de5c 873d 3d27 873d 53e9 a73d
0.051311817 0.057626914 0.05917886 0.07519368 0.024863582 0.004988264 0.17165883 0.14247885
0.08748903 -0.03167013 -0.08832252 -0.030149655 0.03272669 -0.02917919 -0.04106447 0.03943343
0.0064047268 0.015878236 -0.012705388 -0.1576004 -0.099171214 0.013484517 -0.057532206 -0.041165713
-0.079515025 -0.11336738 -0.072916366 -0.0017178573 0.08739586 0.052209932 -0.018609963 0.004202964
-0.029860705 -0.08732657 -0.07244206 0.09483121 -0.0033222937 0.07143539 0.052795988 0.009056889
0.0441681 0.071642965 -0.17929223 -0.12711371 0.09716073 -0.029433072 -0.009894467 0.04469733
0.016789498 -0.02006336 0.11925969 -0.17777428 -0.16690972 0.10842413 0.117937244 0.04480123
-0.05314901 0.031136977 0.015204652 -0.035574637 -0.05022869 -0.04003138 -0.062086448 0.06841714
0.025685292 -0.060187045 0.009452208 0.046322018 -0.07011946 -0.00628774 0.02885157 -0.02057433
0.019167187 -0.056246974 -0.0033631157 -0.025802292 -0.066418245 -0.040975977 0.041514225 0.023702359
0.008208479 -0.08022972 -0.06216802 -0.021488992 -0.040595993 0.00601576 0.083322 -0.067803286
-0.06702789 0.0461195 -0.08835781 -0.056210686 -0.055810623 -0.032117836 -0.014661925 0.06216787
-0.0463458 -0.05825731 0.11159013 -0.03158157 -0.05361696 -0.05521828 0.058872674 0.042811785
0.06554123 0.03878511 0.0892937 0.18006182 -0.028243097 -0.023655549 0.03399392 0.03731539
0.048077017 0.04166148 0.048440035 0.055658832 0.09704825 -0.083212875 -0.042859916 0.027232645
-0.0058832616 0.02758741 0.10571119 -0.05093754 -0.03761531 0.13112287 -0.05502671 -0.024067039
-0.0019254731 0.021310657 0.052733816 0.05287346 -0.07617226 -0.06233654 0.052575275 -0.032805976
-0.025699617 0.026409626 -0.015238489 0.025441537 0.0021478827 -0.090673245 -0.059161674 0.06057211
0.010174164 -0.05186813 -0.012202953 0.03038972 -0.025384946 -0.009338807 -0.027054215 0.01142334
0.09031047 -0.024791138 0.0024408684 -0.046762343 0.03435997 0.032772206 0.07553329 0.0812597
0.17194773 0.13885753 -0.024025885 -0.047841944 -0.14592275 -0.030894136 -0.09434631 -0.14063774
-0.1368304 -0.12413339 -0.11815414 0.06210678 0.11875695 0.03522183 -0.004791699 0.005986069
-0.026968105 -0.045099605 -0.027273066 0.021833947 0.073383406 0.038090877 0.053683348 0.1167395
0.08274127 0.00085033296 0.1627912 0.1736846 0.27570271 -0.056044735 0.015518917 0.048638746
-0.11326499 0.04803079 0.03390766 -0.10886094 -0.10487746 0.007603821 -0.061331604 0.06491966
0.074687324 -0.013387504 0.031463265 0.07281497 -0.1398212 -0.026808772 0.07359581 -0.005110343
0.034818735 0.085755035 -0.03883776 -0.021005183 0.034300726 -0.08290908 0.021664789 0.10149334
-0.036446545 0.026997795 0.048515312 -0.059032243 0.0031290827 0.016386753 -0.014414385 -0.041743126
-0.059334762 -0.025827684 -0.040930763 0.036036935 -0.019581478 -0.032970674 -0.032409035 -0.109189294
-0.045751948 -0.078108184 0.024021588 -0.057235807 -0.02436029 -0.008837861 -0.03894101 -0.046854645
-0.05803764 -0.0708345 -0.11497972 0.07483258 0.049690075 0.07850927 0.021622183 0.08065565
0.083867624 0.06537559 0.059823666 0.08197537 0.047763404 0.0660951 0.06599281 0.081988

bias f4 [3]
00000000: f6d4 943e 9b9b ed3e bad8 af3e
0.29068726 0.4640778 0.34345037
