DepthSensingCUDA/Source/Scan2CAD/data/checkpoint/scannet/feature2heatmap0.pt (torch, 16838 bytes, 7 tensors)

weight f4 [8, 8, 3, 3, 3]
0	0xbdb90f09	-0.09036071
1	0x3e394b3c	0.18095106
2	0xbca9d98c	-0.020733617
3	0x3d921309	0.07132537
4	0xbda2f50d	-0.07956896
5	0x3e222a6e	0.15836498
6	0xbe3a488a	-0.18191734
7	0x3e09ec13	0.13468961
8	0xbe5d5776	-0.21615395
9	0x3d6896da	0.05678449
10	0x3cef753c	0.029230706
11	0x3e12fc8c	0.14354151
12	0xbd6e8b57	-0.058238354
13	0x3dbb898e	0.09157096
14	0xbd44ff92	-0.048095293
15	0x3d950c31	0.07277716
16	0xbd9371fd	-0.07199476
17	0x3b1d1bfc	0.0023972979
18	0xbd2933dd	-0.041309226
19	0x3da729b8	0.08162254
20	0x3b99ee69	0.00469761
21	0x3e0d7d4d	0.1381733
22	0x3d2d8c12	0.04236991
23	0x3e43efd9	0.19134463
24	0xbea11b6f	-0.31466243
25	0x3db8fa4d	0.09032116
26	0xbe7e89ba	-0.24857226
27	0xbd70d391	-0.058795515
28	0xbc09fe5c	-0.00842246
29	0x3d203dcd	0.039121438
30	0x3cf1b63d	0.029505843
31	0x3df2b038	0.11850017
32	0xbd94d2e7	-0.07266789
33	0x3d00bfbb	0.03143285
34	0x3d0a875d	0.0338205
35	0xbca9bb82	-0.020719294
36	0xbcab7b58	-0.020932838
37	0xbd5ee6d5	-0.054419357
38	0xbd9edff0	-0.077575564
39	0x3cbf6c2d	0.023367012
40	0x3d7805ec	0.060552523
41	0x3db41c28	0.08794433
42	0xbd9c50a6	-0.0763257
43	0x3c66af1c	0.014079835
44	0x3b83b8a3	0.004019813
45	0xbd1ebc0a	-0.038753547
46	0xbd632b7f	-0.055461403
47	0xbd07427f	-0.0330224
48	0x3d351333	0.044207763
49	0x3e14ee48	0.14544022
50	0x3d45961c	0.04823886
51	0x3c6036e5	0.013684963
52	0x3ca003b2	0.019533012
53	0x3d30076a	0.04297582
54	0x3e278193	0.16358022
55	0xbcefe6f7	-0.029284937
56	0x3e1188d6	0.14212355
57	0xbe2275f2	-0.15865305
58	0xbe43b90b	-0.19113557
59	0xbdeab4dd	-0.11460278
60	0x3d1b4aaf	0.03791302
61	0xbe16acf4	-0.14714414
62	0x3c366fd2	0.0111350585
63	0x3d4170ce	0.04722672
64	0x3ded1b4c	0.11577472
65	0x3d89d66e	0.06730352
66	0xbd843ad5	-0.06456534
67	0xbef8d0ad	-0.48596707
68	0xbcee8f78	-0.029121146
69	0xbe5fcdfb	-0.21855919
70	0xbd093567	-0.033498194
71	0xbe6d067c	-0.23147005
72	0x3e19c27c	0.15015596
73	0x3d804b20	0.06264329
74	0x3e0681ec	0.13135499
75	0xbd18edfb	-0.03733633
76	0xbe7f8385	-0.24952514
77	0xbe0cabab	-0.13737361
78	0xbcb530e4	-0.02211804
79	0xbdbca889	-0.09211833
80	0x3c279b6f	0.010229929
81	0xbdfb791a	-0.12278958
82	0xbe64c54d	-0.2234089
83	0xbe582073	-0.21106128
84	0xbe6dab1c	-0.23209804
85	0x3d51c4f5	0.051213223
86	0xbe5e6ed9	-0.21721973
87	0xbe8da856	-0.27667493
88	0xbe9366fa	-0.28789502
89	0xbe968ced	-0.29404393
90	0xbe908356	-0.282252
91	0xbe580f63	-0.2109962
92	0xbeb339d0	-0.35005045
93	0xbe0f9ac5	-0.14023884
94	0xbd90f9be	-0.070788845
95	0xbe28d6f4	-0.16488248
96	0xbeff34de	-0.49845022
97	0xbeb7e616	-0.3591773
98	0xbf02a990	-0.5103998
99	0xbe089d94	-0.13341361
100	0xbe899583	-0.2687188
101	0xbe402038	-0.1876229
102	0xbea7657f	-0.32694623
103	0x3abf3749	0.001458862
104	0xbe857e9b	-0.26073155
105	0xbe528e7c	-0.20562166
106	0xbeb5a513	-0.35477504
107	0xbe9fc2ed	-0.31203404
108	0xbd7c8cb9	-0.06165764
109	0x3c19384e	0.009351803
110	0xbc9dc5ff	-0.019259451
111	0x3e1995ad	0.14998503
112	0x3e49d459	0.1970991
113	0x3dd0e892	0.10200609
114	0xbcc704b6	-0.024294239
115	0xbd9cd017	-0.076568775
116	0x3c63b9a6	0.0138992425
117	0xbd35085c	-0.044197425
118	0x3d24c3de	0.040225856
119	0xbc2b9dc1	-0.010474623
120	0xbce3e208	-0.027817741
121	0x3f0f96dd	0.56089574
122	0x3d54ddbb	0.05196927
123	0xbd03d95e	-0.03218972
124	0x3d8dc158	0.06921643
125	0x3c8c13a9	0.017099218
126	0xbdcc536a	-0.099768475
127	0xbd826b8f	-0.063681714
128	0xbd38b6d4	-0.045096233
129	0x3df3d52f	0.11905896
130	0x3e7d133d	0.2471437
131	0x3cf69557	0.030100508
132	0xbd059c69	-0.032619867
133	0xbd44cf0a	-0.04804901
134	0x3c6347ef	0.013872131
135	0xbd823f5a	-0.063597396
136	0xbd383624	-0.044973508
137	0xbdcd3532	-0.10019912
138	0xbc435462	-0.011921974
139	0xbc5aa7e4	-0.013345692
140	0xbd251f1d	-0.040312875
141	0xbc9e3aac	-0.019315086
142	0xbc90a274	-0.017655589
143	0xbc3451d1	-0.011005835
144	0xbd4379db	-0.047723632
145	0xbc12d98f	-0.008963003
146	0x3c79a564	0.015237186
147	0xbb40ed1a	-0.0029438199
148	0xbdfcaf9b	-0.123381816
149	0x3d72dfc9	0.05929545
150	0xbcc45893	-0.023968017
151	0xbdac2ae8	-0.08406621
152	0xbd528bae	-0.05140274
153	0x3d228202	0.039674766
154	0x3c01db35	0.007925798
155	0xbd38a00c	-0.045074508
156	0xbb990730	-0.0046700463
157	0x3cc5ae09	0.024130838
158	0xbc14db11	-0.009085433
159	0xbdb3f31e	-0.08786605
160	0xbd872348	-0.06598526
161	0x3c812c3f	0.015768168
162	0x3ea04cb9	0.31308535
163	0xbe25b99c	-0.16184086
164	0x3e3c27e2	0.18374589
165	0xbe064045	-0.13110454
166	0x3d8e0117	0.069338016
167	0xbe42f7df	-0.19039868
168	0x3e3f43c4	0.18678194
169	0xbd9b538e	-0.07584296
170	0x3e4b38f7	0.19845949
171	0x3e71224d	0.23548241
172	0xbe534b5d	-0.20634218
173	0x3e73ad35	0.23796542
174	0xbdcb4ca1	-0.09926725
175	0x3ba25d48	0.0049549676
176	0xbe127e1c	-0.1430592
177	0x3e6791aa	0.2261416
178	0xbe287d91	-0.1645415
179	0x3e1395f5	0.14412673
180	0x3e7b3c5e	0.24534747
181	0xbe15e331	-0.14637448
182	0x3e8a537f	0.27016827
183	0xbdfd2629	-0.12360794
184	0x3cef90d2	0.02924386
185	0xbe1cade0	-0.15300703
186	0x3e8272ee	0.2547831
187	0xbdd8871d	-0.10572646
188	0x3e1a2cdc	0.15056175
189	0x3d8a8d5f	0.06765246
190	0x3d6ae6ce	0.05734902
191	0xbcf81277	-0.030282242
192	0x3e849475	0.25894514
193	0xbdd079f0	-0.10179508
194	0x3e825515	0.25455537
195	0xbd52173d	-0.051291693
196	0xbd77a130	-0.060456455
197	0xbda615fb	-0.08109661
198	0xbc1d385b	-0.009595956
199	0xbe237c74	-0.15965444
200	0xbdb9d0a7	-0.090730004
201	0x3e8b09f6	0.27156037
202	0xbe79cc82	-0.2439442
203	0x3e76f0c1	0.24115278
204	0xbdceff35	-0.10107271
205	0xbdc483d7	-0.09595459
206	0xbd31126c	-0.04323046
207	0xbaca4970	-0.0015433263
208	0x3ccbe88a	0.024891157
209	0xbd3f6b1a	-0.046733
210	0x3e898b74	0.26864207
211	0xbe6c529b	-0.23078386
212	0x3e7fdb1e	0.2498593
213	0xbdcfab66	-0.101401135
214	0xbd4d6999	-0.050149534
215	0xbe1d4d59	-0.15361537
216	0xbc190fe4	-0.0093421675
217	0xbdb30ecc	-0.08743057
218	0x3dde5e18	0.10857791
219	0xbe058752	-0.13039902
220	0xbd438127	-0.04773059
221	0xbde9be26	-0.11413221
222	0x3dfea96a	0.12434657
223	0xbd9a7204	-0.07541278
224	0x3d573dd0	0.052549183
225	0xbcd1921a	-0.025582362
226	0x3d3861e9	0.04501525
227	0xbdc71671	-0.09721077
228	0x3d794a40	0.060861826
229	0xbde2057e	-0.11036204
230	0xbc951c78	-0.018202052
231	0x3d693674	0.056936696
232	0x3e123ed3	0.14281778
233	0x3cef1322	0.029183928
234	0x3dc14d5a	0.09438582
235	0xbc242218	-0.010017894
236	0x3d5c596a	0.05379621
237	0xbdc9e770	-0.09858596
238	0xbd74e080	-0.059784412
239	0xbdd5ded1	-0.104428895
240	0x3e22b035	0.1588753
241	0xbd390461	-0.04517019
242	0x3e1d6dee	0.15373966
243	0xbc544010	-0.012954727
244	0x3d05f13e	0.03270077
245	0xbd7559ea	-0.0599002
246	0x3d6a4c8f	0.05720192
247	0xbda2a5c7	-0.07941776
248	0xbc2de191	-0.010612861
249	0xbd97f3dd	-0.0741956
250	0x3c1d0f80	0.009586215
251	0xbcc7be1d	-0.024382645
252	0x3c713ceb	0.014723997
253	0xbd59863f	-0.053106543
254	0x3c10aff3	0.008831012
255	0xbd835a76	-0.064137384

bias f4 [8]
0	0xc1c13054	-24.148598
1	0x41c07da3	24.061346
2	0x41c25b91	24.29471
3	0x41be45ce	23.784084
4	0x41beafa7	23.835768
5	0xc1c0ad49	-24.084612
6	0x41c09390	24.072052
7	0x41bcf4e7	23.619581

weight f4 [8]
0	0x3f549be7	0.8305039
1	0x3f499b5c	0.78752685
2	0x3f652069	0.8950258
3	0x3f593fa7	0.8486275
4	0x3f3e20d0	0.7426882
5	0x3f5c2f37	0.86009544
6	0x3f3e9a96	0.7445463
7	0x3f59ed13	0.8512737

bias f4 [8]
0	0xbec37cf8	-0.3818128
1	0x3ec7fa0b	0.39057955
2	0x3ed6ca5b	0.4195126
3	0x3f0660ad	0.52491266
4	0x3ecda29d	0.40163127
5	0xbeaf1aa3	-0.3420001
6	0x3ec63393	0.38711223
7	0x3f0a9092	0.54126847

running_mean f4 [8]
0	0xc1e0a711	-28.081575
1	0x41dab178	27.336655
2	0x41c5f407	24.744154
3	0x41f6974c	30.823875
4	0x41e4dc58	28.60759
5	0xc1f037db	-30.027273
6	0x41f05fae	30.046719
7	0x41d7383a	26.902454

running_var f4 [8]
0	0x42061ea0	33.529907
1	0x424b5da5	50.84145
2	0x41d89dc1	27.077028
3	0x3ff32641	1.8996049
4	0x4272cb91	60.698795
5	0x425ea331	55.659367
6	0x4256a26f	53.658627
7	0x40138949	2.3052542

weight f4 [1, 8, 3, 3, 3]
0	0xbba33b29	-0.0049814177
1	0x3dededcb	0.11617621
2	0xbce398bf	-0.027782796
3	0xbcabbe5b	-0.020964792
4	0x3d86e876	0.06587307
5	0x3df7bb44	0.12096265
6	0x3d36cfc8	0.04463175
7	0x3e6961a1	0.22791149
8	0x3e3d678c	0.18496531
9	0xbda96802	-0.08271791
10	0x3e1d30e4	0.15350682
11	0x3d6a039c	0.05713235
12	0x3d0c8c15	0.03431328
13	0x3e81a4cf	0.2532105
14	0x3e0368b1	0.12832905
15	0x3dc9405f	0.09826731
16	0x3e8edfef	0.27905223
17	0x3e769381	0.24079706
18	0xbc025687	-0.0079552
19	0x3d27c712	0.040961333
20	0x3d340a32	0.043955036
21	0xbc87f3d3	-0.016595757
22	0x3e15f5c3	0.14644532
23	0x3e340736	0.17580876
24	0x3df467d7	0.119338684
25	0x3e39d4c3	0.18147568
26	0x3e71890d	0.23587437
27	0xbddf05b2	-0.10889758
28	0xbe8dda5b	-0.27705655
29	0xbe4ad0d5	-0.19806226
30	0xbe29de88	-0.16588795
31	0xbe9e2f25	-0.30895343
32	0xbe95878e	-0.29204983
33	0xbdc9e60a	-0.098583296
34	0xbe4108c9	-0.18851008
35	0xbe59003c	-0.21191496
36	0xbe50b0d3	-0.20379953
37	0xbea5fbf1	-0.3241878
38	0xbe823286	-0.2542917
39	0xbe7f4906	-0.249302
40	0xbecbb615	-0.39787355
41	0xbe997496	-0.2997176
42	0xbe440d16	-0.19145617
43	0xbe8d1b58	-0.27559924
44	0xbe6e619f	-0.23279427
45	0xbdf56e58	-0.11983937
46	0xbe76edb4	-0.24114114
47	0xbdfdd5b6	-0.12394278
48	0xbe717bd5	-0.23582394
49	0xbe9daa42	-0.3079396
50	0xbe82e21c	-0.25563133
51	0xbe0ef95f	-0.13962315
52	0xbe8569a1	-0.2605715
53	0xbe2df0df	-0.16986416
54	0xbdece803	-0.1156769
55	0xbe0967f9	-0.13418569
56	0xbdeb40d8	-0.11486977
57	0xbe2be2b4	-0.16785699
58	0xbe0b6fe4	-0.13616902
59	0xbd52230f	-0.051302966
60	0xbbf39177	-0.0074331122
61	0xbd51ad2c	-0.05119054
62	0x3c33997a	0.010961885
63	0xbe967fad	-0.29394284
64	0xbeaf2536	-0.34208077
65	0xbe79da97	-0.24399792
66	0xbec8a31a	-0.39186937
67	0xbed6da77	-0.4196355
68	0xbea03450	-0.3128991
69	0xbdb7d770	-0.08976638
70	0xbdfbe926	-0.12300329
71	0xbd3e78a1	-0.04650176
72	0xbe221ed5	-0.15832074
73	0xbe53887a	-0.2065753
74	0xbe24c6b3	-0.16091423
75	0xbe196a74	-0.14982015
76	0xbe9754d4	-0.29556906
77	0xbe2a16e1	-0.1661029
78	0xbdad7d6c	-0.08471188
79	0xbd5ca43e	-0.05386757
80	0x3acfcab4	0.0015853257
81	0x3d219afc	0.039454445
82	0x3b335b9c	0.0027367836
83	0xbd9bbac4	-0.07603982
84	0xbd8a797f	-0.06761455
85	0xbdcbb3dc	-0.09946415
86	0xbda09468	-0.07840806
87	0xbd6bfee4	-0.05761613
88	0xbd525d12	-0.05135829
89	0xbdb8ca5c	-0.09022972
90	0xbd274b6f	-0.040843423
91	0x3c36b3b4	0.011151243
92	0xbd3d4dab	-0.046216648
93	0xbdf550b1	-0.11978281
94	0xbdc61e72	-0.09673776
95	0xbe185aeb	-0.14878432
96	0xbdb62b6d	-0.088950016
97	0xbddbe1f2	-0.10736455
98	0xbe07137d	-0.13191028
99	0xbd3df0c4	-0.04637219
100	0xbbbbeb23	-0.0057348176
101	0xbd002c9b	-0.03129254
102	0xbd03f7e1	-0.032218818
103	0xbd3812f4	-0.04493995
104	0xbdacd258	-0.084385574
105	0xbd0e1ba8	-0.034694344
106	0xbcb9c1fa	-0.022675503
107	0xbc88cf22	-0.016700331
108	0xbde851bd	-0.11343715
109	0xbe3f4c95	-0.18681557
110	0xbdd6712b	-0.10470804
111	0xbe86aa11	-0.26301625
112	0xbe69378e	-0.22775099
113	0xbe601869	-0.21884312
114	0xbe26ebee	-0.16300938
115	0xbe89662a	-0.26835757
116	0xbe43942b	-0.1909949
117	0xbe23bf1e	-0.15990874
118	0xbe64ac16	-0.2233127
119	0xbe1f25a4	-0.15541703
120	0xbe8b8abb	-0.2725428
121	0xbe8f8ca4	-0.28036988
122	0xbe3f7eb3	-0.18700676
123	0xbe4f734e	-0.20258829
124	0xbe66b44c	-0.22529715
125	0xbe061906	-0.13095483
126	0xbe12420a	-0.14283004
127	0xbe5db382	-0.21650508
128	0xbe52d7ec	-0.2059018
129	0xbe10c9bc	-0.14139456
130	0xbe526259	-0.20545329
131	0xbe40bd28	-0.18822157
132	0xbe71f3da	-0.23628178
133	0xbe3b6820	-0.1830144
134	0xbe30fe33	-0.1728447
135	0x3e11c863	0.14236598
136	0x3dce29a2	0.100665346
137	0x3e269a79	0.16269864
138	0x3df5714a	0.11984499
139	0x3e4f21b3	0.20227699
140	0x3e082566	0.13295516
141	0x3d6c8969	0.057748232
142	0x3db35ad9	0.08757562
143	0x3e02121a	0.12702218
144	0x3e59d3d1	0.21272208
145	0x3e83df46	0.25756282
146	0x3e4b5621	0.19857074
147	0x3e50704b	0.20355336
148	0x3e728cde	0.23686549
149	0x3e8060ba	0.25073797
150	0x3de99abc	0.11406466
151	0x3dc7d644	0.09757665
152	0x3e3abb4f	0.18235515
153	0x3e00bc43	0.12571816
154	0x3e03f270	0.12885451
155	0x3dc9a906	0.09846692
156	0x3e1366ac	0.14394635
157	0x3e85e2ec	0.2614969
158	0x3e5ca220	0.21546221
159	0x3db54969	0.088518925
160	0x3d86511c	0.06558439
161	0x3db8c9f9	0.09022898
162	0xbe84b85f	-0.25921914
163	0xbe6bcfc4	-0.23028475
164	0xbe5475e3	-0.20748095
165	0xbe969599	-0.2941101
166	0xbe76e6ef	-0.24111532
167	0xbe953b0e	-0.29146618
168	0xbe8dd952	-0.27704865
169	0xbe77d527	-0.24202405
170	0xbe38bf48	-0.18041718
171	0xbeb38c04	-0.3506776
172	0xbe9f399e	-0.31098646
173	0xbea1b7c5	-0.31585518
174	0xbecd6592	-0.40116554
175	0xbea67f34	-0.32518923
176	0xbebd2f37	-0.36950085
177	0xbe8ee4fb	-0.27909073
178	0xbe9a51b0	-0.30140448
179	0xbe93b3c2	-0.28848082
180	0xbe8e10bd	-0.27747145
181	0xbe8ef9c8	-0.27924943
182	0xbe36cb39	-0.17850961
183	0xbea2f018	-0.31823802
184	0xbebf9a2b	-0.37422308
185	0xbe677464	-0.22602993
186	0xbe489fdc	-0.19592232
187	0xbe96f689	-0.29484966
188	0xbe76f7ee	-0.24118015
189	0x3bf69aaa	0.0075257616
190	0x3ce5c13f	0.028046248
191	0x3cfee058	0.031112835
192	0xbcaf7eed	-0.021422828
193	0xbd8cc643	-0.06873753
194	0xbcbb5716	-0.022868674
195	0xbdd3dd71	-0.10344971
196	0xbd8737af	-0.06602418
197	0xbd1f65fe	-0.038915627
198	0xbc7e2768	-0.015512325
199	0xbcc69a70	-0.024243563
200	0x3d540178	0.051759213
201	0xbd984a19	-0.07436008
202	0xbe23e3b7	-0.16004835
203	0xbdbbd7e0	-0.09172034
204	0xbdb16eba	-0.086636975
205	0xbe0ad3da	-0.13557377
206	0xbe18188b	-0.14853112
207	0x3d1683aa	0.03674666
208	0x3cab2109	0.020889776
209	0x3ce7bdb8	0.028288707
210	0xbd328587	-0.043584373
211	0xbdb6daa3	-0.089284204
212	0xbccebce2	-0.02523655
213	0xbd39ffc5	-0.045409936
214	0xbdf12252	-0.11774124
215	0xbde18351	-0.11011375
