DepthSensingCUDA/Source/Scan2CAD/data/checkpoint/scannet/feature2mask.pt (torch, 435287 bytes, 13 tensors)

weight f4 [48, 64, 3, 3, 3]
-0.31756717 -0.2802146 -0.401372 -0.0118634915 -0.048563644 -0.14355135 0.34016332 0.31165078
0.28028935 -0.09149075 -0.105167426 -0.13254449 0.1258011 0.059964422 -0.059432764 0.13356087
0.024174845 0.029767632 -0.017693566 0.007448207 0.056797717 0.23330952 0.20366487 0.19180514
0.29546613 0.17349133 0.29298702 -0.11884588 -0.07844035 -0.16591203 -0.015413688 0.020107662
-0.16234644 0.020209955 0.07223169 -0.0050438675 -0.14549583 -0.09222281 -0.20682997 0.06505088
0.11427887 -0.0039686183 0.094166204 0.15455651 0.105416395 -0.16742805 -0.16546756 -0.29771587
0.14925729 0.104826756 -0.08554425 0.23308422 0.22203518 0.12650125 0.15203074 0.052624512
-0.13590856 0.015978439 -0.14478818 -0.07775167 0.08334523 -0.20939578 0.10862325 0.12961714
0.024518967 -0.17575622 -0.1310641 -0.23937163 -0.22824916 -0.33158827 -0.6152588 -0.23822328
0.1908807 0.11138253 0.020677103 -0.11530538 -0.21989828 -0.09066009 -0.05668776 -0.30787334
0.13579561 -0.035280544 -0.13300754 -0.3427636 -0.052667253 -0.34255743 -0.36986688 0.106125124
-0.34689525 -0.18930389 0.15638648 0.050798345 -0.20362501 0.035893925 -0.23605013 -0.297297
-0.013287022 -0.43250138 -0.30504826 -0.0521963 -0.11325636 -0.25184032 -0.069740735 -0.24242616
-0.22744933 0.059340373 -0.23916423 -0.108396515 0.06733383 0.09108123 0.068630114 -0.07197851
-0.036275316 -0.13692564 -0.39740512 -0.34955978 -0.3906842 0.16888487 0.13106063 -0.0155135095
0.05572498 0.06439602 0.008240618 -0.24028449 -0.41474184 -0.4061405 0.07756631 0.050296668
0.014317018 -0.036533915 0.037234854 -0.0024422288 -0.44876364 -0.6946811 -0.62943304 0.29728597
0.27838326 0.20177037 0.114320815 0.18661155 0.18318002 -0.07874368 0.038211558 0.36216858
0.25479716 0.16192344 0.15746994 -0.06020345 0.033644587 0.09342148 -0.47141996 -0.5034765
-0.030111574 0.20262308 0.24741443 0.29461387 -0.0064224782 0.11038452 0.1659426 -0.13664225
-0.09670311 0.2596969 -0.25482175 -0.19685537 -0.31482336 -0.11462973 -0.09806842 -0.0486523
0.1270068 0.099553734 0.3883169 -0.2611019 -0.17120796 -0.28954223 -0.20089763 -0.12903303
-0.061940014 -0.18860856 -0.2945296 0.031048218 -0.25063652 -0.16242059 -0.23100802 -0.22904639
-0.07507367 -0.004314684 -0.067073286 -0.124468066 0.2337057 0.19356368 0.12318028 0.15930201
0.16297677 0.097515434 0.04188989 -0.048406385 0.09923384 0.19178465 0.21302839 0.03571167
0.08358278 0.29933658 0.1738782 0.13803425 0.017782958 0.081454925 0.24801481 0.33597434
0.1532236 0.19008371 0.26477373 0.18240774 0.21343704 -0.21525303 -0.045294568 0.27172598
-0.29846835 -0.20042749 0.035686497 -0.07285239 0.025214845 0.10125949 0.016179161 0.15016344
0.1942473 -0.45951542 -0.41827717 -0.063270226 -0.08562831 -0.043249547 0.078719884 0.039196905
0.14316821 0.17321734 -0.43746364 -0.47421753 -0.09843977 -0.09820644 -0.06479026 0.01925766
-0.059841692 0.00823333 0.013984529 0.005095782 0.030634845 0.018011073 0.007824391 0.14907604
0.06805895 -0.15390101 0.19502217 -0.024545152 -0.01453097 -0.069338456 -0.014550194 0.068349406
00000000: 2a98 a2be 4a78 8fbe a180 cdbe 175f 42bc
00000010: acea 46bd 20ff 12be e329 ae3e b190 9f3e
00000020: 1682 8f3e 815f bbbd 0562 d7bd beb9 07be
00000030: 01d2 003e 419d 753d c56f 73bd 2ec4 083e
00000040: 530a c63c 40db f33c 19f2 90bc 1710 f43b
00000050: b9a4 683d b1e8 6e3e 868d 503e 9168 443e
00000060: 5647 973e b6a7 313e 6502 963e 7865 f3bd
00000070: 56a5 a0bd d8e4 29be b189 7cbc d3b8 a43c
00000080: 253e 26be 598f a53c 35ee 933d 0747 a5bb
00000090: dcfc 14be 50df bcbd 3ccb 53be 6539 853d
000000a0: 0a0b ea3d 2f0b 82bb 36da c03d 1044 1e3e
000000b0: 8de4 d73d 4272 2bbe 5470 29be 376e 98be
000000c0: e7d6 183e 69af d63d d331 afbd a1ad 6e3e
000000d0: 315d 633e 8b89 013e f2ad 1b3e cd8c 573d
000000e0: 9d2b 0bbe 37e5 823c 5a43 14be 443c 9fbd
000000f0: e7b0 aa3d d96b 56be de75 de3d 5bba 043e
00000100: 00dc c83c 70f9 33be ab35 06be d61d 75be
00000110: 26ba 69be f0c5 a9be 9a81 1dbf cef0 73be
00000120: 3b76 433e 861c e43d 0763 a93c 3a25 ecbd
00000130: 042d 61be ffab b9bd 6d31 68bd 93a1 9dbe
00000140: 010e 0b3e 5582 10bd 2133 08be b67e afbe
00000150: 9eb9 57bd b063 afbe 315f bdbe 2158 d93d
00000160: 419c b1be e1d8 41be c723 203e ed11 503d
00000170: 1383 50be 8205 133d 20b7 71be 5037 98be
00000180: cfb1 59bc d270 ddbe 492f 9cbe cacb 55bd
00000190: f3f2 e7bd 37f1 80be 3bd4 8ebd 903e 78be
000001a0: 7ae8 68be e40e 733d 78e7 74be fefe ddbd
000001b0: 52e6 893d cc88 ba3d f28d 8c3d 7869 93bd
000001c0: 6d95 14bd 3c36 0cbe af78 cbbe 80f9 b2be
000001d0: c207 c8be 28f0 2c3e c234 063e 602c 7ebc
000001e0: e03f 643d 0fe2 833d a803 073c 230d 76be
000001f0: 0b59 d4be a6f1 cfbe 16db 9e3d e103 4e3d
00000200: ed91 6a3c 96a4 15bd 9383 183d cd0d 20bb
00000210: 59c4 e5be 9fd6 31bf 8622 21bf de35 983e
00000220: 4088 8e3e e49c 4e3e 0821 ea3d 1917 3f3e
00000230: 8b93 3b3e 5e44 a1bd b983 1c3d 296e b93e
00000240: c674 823e 42cf 253e cd3f 213e e597 76bd
00000250: e8ce 093d c353 bf3d f55d f1be d6e3 00bf
00000260: 8cac f6bc 6d7c 4f3e 355a 7d3e a1d7 963e
00000270: a773 d2bb 4711 e23d dbec 293e f2eb 0bbe
00000280: 480c c6bd fef6 843e ff77 82be 7494 49be
00000290: 8730 a1be fec2 eabd 19d8 c8bd a247 47bd
000002a0: 120e 023e d4e2 cb3d 79d1 c63e 26af 85be
000002b0: 2451 2fbe e13e 94be 1cb8 4dbe 3c21 04be
000002c0: d0b4 7dbd 9a22 41be 95cc 96be d558 fe3c
000002d0: 6e53 80be 9551 26be 5e8d 6cbe 238b 6abe
000002e0: 39c0 99bd 3162 8dbb b85d 89bd 1de9 febd
000002f0: 8c50 6f3e 8f35 463e f145 fc3d 1120 233e
00000300: 62e3 263e 2cb6 c73d bc94 2b3d c645 46bd
00000310: 1d3b cb3d 3263 443e 1d24 5a3e 6646 123d
00000320: 732d ab3d a542 993e 200d 323e da58 0d3e
00000330: 91ad 913c d7d1 a63d 98f7 7d3e d404 ac3e
00000340: a6e6 1c3e 4ea5 423e 6c90 873e 18c9 3a3e
00000350: 3d8f 5a3e 4a6b 5cbe cc86 39bd ab1f 8b3e
00000360: d8d0 98be dd3c 4dbe 012c 123d a233 95bd
00000370: 5d8f ce3c 2361 cf3d 298a 843c 72c4 193e
00000380: c4e8 463e 9b45 ebbe 6d28 d6be d293 81bd
00000390: e55d afbd 7026 31bd e437 a13d ef8c 203d
000003a0: b09a 123e e35f 313e 3cfb dfbe a4cc f2be
000003b0: ca9a c9bd 7520 c9bd c1b0 84bd 3dc2 9d3c
000003c0: 901c 75bd 17e5 063c 5e1f 653c 85fa a63b
000003d0: edf5 fa3c f58b 933c e031 003c 64a7 183e
000003e0: 7e62 8b3d 3a98 1dbe e4b3 473e ea12 c9bc
000003f0: 4e13 6ebc 5201 8ebd f063 6ebc c6fa 8b3d

bias f4 [48]
-0.005886037 -0.014310712 -0.007393801 0.021343756 0.018059094 -0.022817807 -0.014490839 -0.013860665
-0.01928868 0.020290954 -0.010699284 -0.019891094 0.013743718 0.020298522 -0.013826313 0.017868388
0.020229556 -0.012459866 -0.0032437574 -0.0067388467 0.018071035 -0.01946658 0.017831055 0.019209895
0.023664922 -0.021541474 -0.013011924 0.016157538 0.016086156 -0.0110092135 0.018476784 0.0079797
0.01695158 -0.014213157 0.02563582 -0.00035443003 0.018266425 0.0020790463 0.025070827 0.021641867
-0.012386201 0.005745353 -0.015613305 -0.015301998 -0.01048463 0.018884577 0.024449263 -0.0055875303
00000000: a8df c0bb 7a77 6abc b347 f2bb 1ad9 ae3c
00000010: aaf0 933c 69ec babc fc6a 6dbc d817 63bc
00000020: 4b03 9ebc 3739 a63c 0d4c 2fbc a6f2 a2bc
00000030: 552d 613c 1649 a63c c387 62bc ba60 923c
00000040: 74b8 a53c 7724 4cbc 3895 54bb 8bd1 dcbb
00000050: b509 943c 6178 9fbc 6f12 923c 125e 9d3c
00000060: f0dc c13c bf77 b0bc f72f 55bc d05c 843c
00000070: 1dc7 833c fd5f 34bc a05c 973c 4abd 023c
00000080: 0ade 8a3c 4dde 68bc 3602 d23c cbd2 b9b9
00000090: 78a3 953c 9c40 083b 5661 cd3c 494a b13c
000000a0: 7eef 4abc 8443 bc3b f3ce 7fbc 3bb5 7abc
000000b0: bac7 2bbc d4b3 9a3c d249 c83c 9a17 b7bb

weight f4 [48]
0.92369443 0.80501574 0.90016454 1.1202596 1.1265327 0.9090484 0.9751929 0.8156009
0.6591385 0.9403687 0.9076705 0.70900357 0.9748757 0.86097467 0.85991067 0.8283917
1.1177186 0.9763427 1.0073158 0.98448956 0.9470802 0.8160526 0.654175 0.9207564
0.91127324 1.0174805 0.97572577 0.7286395 0.9774851 1.1131537 0.8908144 1.0805416
0.7333339 0.97715026 0.8040147 0.8236252 0.94208026 0.984021 1.0084784 1.0210354
1.1245922 0.9904763 0.914306 0.9689166 0.84135675 0.81938267 0.82707906 1.0692629
00000000: 3d77 6c3f 8315 4e3f 2f71 663f ab64 8f3f
00000010: 3932 903f 65b7 683f 3ea6 793f 38cb 503f
00000020: 4dbd 283f 01bc 703f 185d 683f 4281 353f
00000030: 7491 793f d668 5c3f 1b23 5c3f 7a11 543f
00000040: 6711 8f3f 98f1 793f b9ef 803f 8207 7c3f
00000050: d973 723f d3e8 503f 0378 273f b1b6 6b3f
00000060: 3449 693f cd3c 823f 2ac9 793f 1e88 3a3f
00000070: 773c 7a3f d27b 8e3f 6a0c 643f 304f 8a3f
00000080: c5bb 3b3f 8526 7a3f e8d3 4d3f 1ad9 523f
00000090: 2c2c 713f cde8 7b3f d215 813f 4ab1 823f
000000a0: a3f2 8f3f db8f 7d3f f50f 6a3f eb0a 783f
000000b0: 2863 573f 10c3 513f 74bb 533f 9bdd 883f

bias f4 [48]
-0.21993731 -0.3645526 -0.31223106 -0.47282162 -0.430489 -0.43361238 -0.35951406 -0.098495096
-0.39732972 -0.30680257 -0.5110504 -0.4156072 -0.3234907 -0.52469516 -0.46425623 -0.4347746
-0.4620928 -0.41883844 -0.36897618 -0.4023529 -0.41346502 -0.33094 -0.22523879 -0.5609587
-0.31261617 -0.41209278 -0.40608326 -0.42227352 -0.54477835 -0.5233774 -0.3241912 -0.49281842
-0.40886566 -0.41578057 -0.4451887 -0.34565526 -0.6354144 -0.398858 -0.6803794 -0.5141132
-0.45614672 -0.42350024 -0.33814403 -0.4418073 -0.5184063 -0.5126891 -0.6528731 -0.4945327
00000000: 3f37 61be a3a6 babe c0dc 9fbe ad15 f2be
00000010: 0e69 dcbe 7102 debe 3a12 b8be ccb7 c9bd
00000020: cd6e cbbe 3a15 9dbe 33d4 02bf 78ca d4be
00000030: 93a0 a5be 6c52 06bf feb2 edbe c79a debe
00000040: 6d97 ecbe fe71 d6be 72ea bcbe 3301 cebe
00000050: b0b1 d3be f870 a9be ffa4 66be fd9a 0fbf
00000060: 3a0f a0be d3fd d2be 25ea cfbe 3c34 d8be
00000070: 9876 0bbf 10fc 05bf 64fc a5be b252 fcbe
00000080: d756 d1be 31e1 d4be c6ef e3be baf9 b0be
00000090: 85aa 22bf 1e37 ccbe 582d 2ebf ec9c 03bf
000000a0: 108c e9be 06d5 d8be 3721 adbe 9134 e2be
000000b0: 46b6 04bf 983f 03bf b122 27bf 6433 fdbe

running_mean f4 [48]
-0.8055477 -6.8706074 -11.927354 -1.1848222 -0.106475055 -7.301169 -8.164125 0.048740413
-6.0635705 -5.5508385 -2.405842 -6.0813837 -9.223131 -2.586754 1.3134342 -3.614626
-4.114244 -6.1469817 -1.7061405 -6.634578 -1.7814816 -9.879608 -2.3172603 -3.8439333
-4.1112123 -2.3385475 -4.6436987 -5.693628 1.0742651 -5.376784 -2.1818619 -1.2505906
-5.1793427 -3.0490222 -4.833641 -2.583273 -0.9356476 -4.1250925 -1.5731626 -1.4589617
-3.0552673 -2.6154602 -2.9600518 -3.1817324 -3.8592713 -3.7125692 -4.5333824 -1.9279404
00000000: 6038 4ebf 04dc dbc0 71d6 3ec1 41a8 97bf
00000010: 980f dabd 2da3 e9c0 42a0 02c1 07a4 473d
00000020: c508 c2c0 78a0 b1c0 51f9 19c0 b29a c2c0
00000030: f291 13c1 618d 25c0 9d1e a83f 0856 67c0
00000040: e3a7 83c0 13b4 c4c0 d062 dabf 774e d4c0
00000050: 9707 e4bf e012 1ec1 fe4d 14c0 0103 76c0
00000060: 0d8f 83c0 c3aa 15c0 2e99 94c0 3332 b6c0
00000070: 8581 893f 9d0e acc0 a0a3 0bc0 5a13 a0bf
00000080: 2dbd a5c0 2e23 43c0 30ad 9ac0 5854 25c0
00000090: 9a86 6fbf c200 84c0 645d c9bf 42bf babf
000000a0: 8089 43c0 b363 27c0 7d71 3dc0 81a1 4bc0
000000b0: 4dfe 76c0 bc9a 6dc0 7811 91c0 c0c6 f6bf

running_var f4 [48]
59.851532 88.89329 147.20946 29.154463 41.943565 64.11823 48.649296 49.782963
56.02099 38.05514 45.279503 72.69368 73.04723 47.399998 42.692272 48.201267
54.82758 45.139744 67.21868 85.55991 34.666584 65.559814 54.93386 45.28371
95.787926 40.817665 46.43652 53.17908 56.22932 37.975834 42.938004 35.97539
39.53429 71.11979 49.04171 51.871464 65.062096 31.398554 48.333252 50.7919
30.758228 43.15243 35.615902 50.59737 46.792328 68.52127 44.91834 39.111965
00000000: f867 6f42 5dc9 b142 9f35 1343 573c e941
00000010: 36c6 2742 893c 8042 e198 4242 c121 4742
00000020: 7e15 6042 7738 1842 361e 3542 2a63 9142
00000030: 2f18 9242 9999 3d42 e3c4 2a42 19ce 4042
00000040: 714f 5b42 198f 3442 f76f 8642 ad1e ab42
00000050: 95aa 0a42 a01e 8342 46bc 5b42 8522 3542
00000060: 6b93 bf42 4a45 2342 ffbe 3942 61b7 5442
00000070: d3ea 6042 41e7 1742 84c0 2b42 cde6 0f42
00000080: 1d23 1e42 553d 8e42 b62a 4442 617c 4f42
00000090: cb1f 8242 3d30 fb41 4055 4142 e82a 4b42
000000a0: da10 f641 179c 2c42 af76 0e42 b563 4a42
000000b0: 582b 3b42 e40a 8942 61ac 3342 a772 1c42

weight f4 [16, 48, 3, 3, 3]
0.15292086 -0.04321516 0.05312154 0.060361773 0.03618935 0.17981331 0.06319895 -0.013422439
0.18407996 0.039297357 -0.12674579 -0.037259053 0.10853037 0.08552034 0.12427426 0.1540012
0.09436568 0.25193697 0.070188425 -0.08329333 0.008438113 0.055772517 -0.0053536594 0.01815617
0.121208705 0.17776793 0.28238702 -0.09389006 -0.102297194 -0.08622591 -0.09477728 -0.13458297
0.059736665 -0.1545959 -0.21201411 0.0032403523 0.1414926 0.22249164 0.15227066 -0.010007251
-0.01877925 0.19327192 -0.04232764 -0.080186926 0.121845156 0.1173198 0.08500659 0.121338435
0.014470536 -0.08669936 0.043576565 0.0074995924 -0.109441966 0.033671346 0.15683906 -0.20528865
-0.05046846 0.09341986 -0.095338196 -0.1099942 0.1305823 0.013631174 -0.14323491 0.100519516
-0.32827774 -0.07280242 0.09856284 -0.17634265 -0.018308345 0.13714764 -0.12548584 -0.12866919
0.0053560166 -0.2545398 0.07895251 -0.04070846 -0.18929395 0.10418144 -0.11128372 -0.19503903
0.038233552 -0.24948946 -0.1931241 -0.070774004 -0.17235039 0.034641843 0.03762896 -0.07543261
0.15206514 0.17359656 -0.19029383 -0.072575085 0.030950734 -0.077723265 0.23838857 0.11474575
0.086287275 0.38690028 0.26846343 -0.017386712 0.12342968 0.09617095 -0.042287827 0.19379774
-0.032209486 0.108843915 0.3587519 0.2265641 -0.025398904 -0.0027247013 0.057743747 -0.03331055
0.02255589 -0.004587167 -0.037305407 -0.04705121 -0.04348476 -0.129892 -0.026568344 -0.03286295
-0.020527055 0.10259773 0.01739416 0.057271842 0.04929871 0.032856323 -0.051085204 0.08785306
-0.091751345 0.10498006 0.2797842 0.10927709 0.036439396 0.14983892 0.11041073 -0.13296002
-0.14114626 -0.14810012 -0.20164235 -0.2194474 -0.051831357 -0.06600685 -0.21051359 -0.13517955
0.048662864 0.22359625 0.067423485 0.16913301 0.36865926 0.24224615 0.21296944 0.2297519
0.03709058 -0.20684996 -0.18646719 -0.2075444 -0.10466651 -0.07698701 -0.22765955 -0.074251115
-0.085837446 -0.24437056 -0.18539895 -0.043061875 0.041250177 -0.20718195 -0.110767506 -0.039630182
-0.065726556 -0.027263638 0.06533894 -0.019480363 0.05803017 0.19142622 -0.09345288 -0.04230604
0.028925162 -0.18649541 -0.17414044 -0.12873508 0.16004072 0.28842136 0.38736713 0.014985213
0.06555991 0.20986828 -0.08472396 -0.08593547 0.06682199 -0.027130723 -0.10227423 -0.1546188
-0.24777365 -0.17249809 -0.19149266 -0.22510278 -0.12827098 -0.087844305 0.06204237 0.0129603585
-0.11270739 -0.06993935 0.042192325 -0.039435536 -0.02575772 0.07276598 0.033105094 -0.23114283
-0.2386738 -0.24570994 -0.13217245 -0.08523752 0.040284336 -0.07720747 0.0021049902 0.13136752
-0.050788566 -0.03254022 0.09980282 -0.1456759 -0.15816936 0.03785906 -0.22381963 -0.30291808
-0.12804043 0.056820992 -0.011510036 0.04438845 0.010125794 0.030673537 0.08158616 -0.034405496
-0.025636794 -0.06419517 0.044476017 0.061339997 0.18535402 -0.11638046 -0.08985984 -0.0055756825
-0.13099736 -0.11412537 -0.12522149 -0.042184107 -0.14420703 0.08429975 -0.17333779 -0.18053788
-0.16451803 -0.23296785 -0.13062976 -0.10279583 -0.036321893 -0.12834199 0.1288537 -0.17282738
00000000: 4997 1c3e 6102 31bd f995 593d e83d 773d
00000010: 493b 143d fb20 383e 736e 813d cae9 5bbc
00000020: 757f 3c3e 44f6 203d a6c9 01be f39c 18bd
00000030: 2c45 de3d 4a25 af3d 8183 fe3d 7eb2 1d3e
00000040: cb42 c13d e2fd 803e f3be 8f3d b295 aabd
00000050: 0340 0a3c b971 643d c06d afbb 40bc 943c
00000060: 453c f83d cc08 363e 0895 903e 6f49 c0bd
00000070: 3181 d1bd 3697 b0bd 971a c2bd 1ed0 09be
00000080: 6fae 743d 634e 1ebe 3a1a 59be 175c 543b
00000090: 70e3 103e d9d4 633e d7ec 1b3e 74f5 23bc
000000a0: f1d6 99bc 13e9 453e bf5f 2dbd 0b39 a4bd
000000b0: f489 f93d 5d45 f03d ef17 ae3d 4980 f83d
000000c0: d415 6d3c 6f8f b1bd 577d 323d 24bf f53b
000000d0: 1c23 e0bd f7ea 093d 6b9a 203e 3037 52be
000000e0: 04b8 4ebd e952 bf3d ac40 c3bd a444 e1bd
000000f0: 5eb7 053e 4a55 5f3c 2cac 12be 2ddd cd3d
00000100: 0514 a8be 6f19 95bd 50db c93d 2b93 34be
00000110: 62fb 95bc 6e70 0c3e 5c7f 00be dbc1 03be
00000120: 8681 af3b 0a53 82be dbb1 a13d eabd 26bd
00000130: 46d6 41be 145d d53d b8e8 e3bd 50b8 47be
00000140: c99a 1c3d 2a7a 7fbe 53c2 45be f6f1 90bd
00000150: 9f7c 30be 9be4 0d3d d320 1a3d 6a7c 9abd
00000160: f7b6 1b3e 4cc3 313e 63dc 42be 3fa2 94bd
00000170: 658c fd3c 602d 9fbd 221c 743e d2ff ea3d
00000180: 62b7 b03d cb17 c63e 0a74 893e 946e 8ebc
00000190: b3c8 fc3d 46f5 c43d 0036 2dbd ea72 463e
000001a0: 18ee 03bd 8fe9 de3d 54ae b73e 6b00 683e
000001b0: 5d11 d0bc e790 32bb b584 6c3d a570 08bd
000001c0: 21c7 b83c f24f 96bb 8ecd 18bd c5b8 40bd
000001d0: 131d 32bd 6902 05be dba5 d9bc 4d9b 06bd
000001e0: 5b28 a8bc c21e d23d 337e 8e3c e195 6a3d
000001f0: 72ed 493d 5a94 063d b83e 51bd 4eec b33d
00000200: 21e8 bbbd c9ff d63d e03f 8f3e abcc df3d
00000210: 7a41 153d 606f 193e 051f e23d ac26 08be
00000220: a588 10be 8fa7 17be 557b 4ebe d2b6 60be
00000230: 1e4d 54bd 992e 87bd e090 57be 826c 0abe
00000240: b652 473d 6af6 643e 5315 8a3d 3431 2d3e
00000250: e8c0 bc3e 600f 783e a914 5a3e 1544 6b3e
00000260: 4bec 173d 7ad0 53be 41f1 3ebe 8586 54be
00000270: 655b d6bd 5eab 9dbd 961f 69be f810 98bd
00000280: 8bcb afbd 473c 7abe 39d9 3dbe a661 30bd
00000290: f2f5 283d 8127 54be 13da e2bd 4253 22bd
000002a0: a59b 86bd fe57 dfbc 6cd0 853d 4895 9fbc
000002b0: 0bb1 6d3d 3c05 443e 3964 bfbd 1949 2dbd
000002c0: 76f4 ec3c a7f8 3ebe df51 32be 21d3 03be
000002d0: b7e1 233e f7ab 933e fc54 c63e 8a84 753c
000002e0: 4644 863d b6e7 563e c183 adbd f0fe afbd
000002f0: f8d9 883d 4041 debc 2775 d1bd 6454 1ebe
00000300: 60b8 7dbe 57a3 30be a716 44be 5881 66be
00000310: 7859 03be b7e7 b3bd 2420 7e3d af57 543c
00000320: 22d3 e6bd 5d3c 8fbd dcd1 2c3d 2887 21bd
00000330: db01 d3bc 5506 953d 3599 073d b5b0 6cbe
00000340: e866 74be 639b 7bbe 3758 07be 0291 aebd
00000350: 3001 253d f31e 9ebd e0f3 093b 3585 063e
00000360: ac07 50bd e548 05bd 6c65 cc3d 102c 15be
00000370: 26f7 21be 1a12 1b3d f930 65be 1418 9bbe
00000380: 081d 03be 21bd 683d 9794 3cbc aad0 353d
00000390: a9e6 253c 1247 fb3c a516 a73d c7ec 0cbd
000003a0: 4104 d2bc c278 83bd 7c2c 363d a63f 7b3d
000003b0: 72cd 3d3e e158 eebd 7008 b8bd 37b4 b6bb
000003c0: 2c24 06be 90ba e9bd 103a 00be 3ec9 2cbd
000003d0: 02ab 13be 59a5 ac3d 767f 31be ecde 38be
000003e0: 6a77 28be 208f 6ebe cfc3 05be 9f86 d2bd
000003f0: 44c6 14bd 156c 03be 39f2 033e a9f9 30be

bias f4 [16]
0.03643467 -0.021468371 0.012052949 -0.027151009 0.03676842 0.010920598 0.028013602 -0.026380638
-0.024591368 0.014537633 0.005136686 -0.00922861 0.008193015 -0.010596889 0.012310727 0.017817795
00000000: 853c 153d 70de afbc bb79 453c cb6b debc
00000010: 7c9a 163d 4fec 323c c87c e53c 351c d8bc
00000020: d673 c9bc 412f 6e3c a551 a83b 9933 17bc
00000030: ff3b 063c 939e 2dbc eeb2 493c a0f6 913c

weight f4 [16]
0.47759494 0.33299303 0.49818617 0.51298845 0.32488498 0.6197169 0.43703568 0.42517823
0.5330645 0.61884636 0.68737847 0.6554924 0.28264925 0.67123735 0.55104786 0.3350803
00000000: 5387 f43e 107e aa3e 4212 ff3e 3653 033f
00000010: 5357 a63e c4a5 1e3f 24c3 df3e f6b0 d93e
00000020: ea76 083f b76c 1e3f 09f8 2f3f 5ace 273f
00000030: 67b7 903e 36d6 2b3f 7911 0d3f a58f ab3e

bias f4 [16]
0.08065473 -0.024052707 0.07123828 0.0099299 -0.05705776 -0.06834527 -0.032786533 0.017184727
0.04680577 -0.06909521 0.026778417 0.020350324 0.07767055 0.08106784 -0.031832278 0.070541255
00000000: 4f2e a53d 2f0a c5bc 60e5 913d 05b1 223c
00000010: 66b5 69bd 9bf8 8bbd 2c4b 06bd fcc6 8c3c
00000020: 68b7 3f3d ca81 8dbd 695e db3c b9b5 a63c
00000030: bd11 9f3d e506 a63d 9062 02bd ef77 903d

running_mean f4 [16]
0.21827285 2.9942713 -0.9299928 -3.1919513 -2.4475324 -6.2148223 -1.7994376 -4.049374
-0.1729854 -1.1194109 -3.8208454 -3.700938 -3.6538954 1.2215892 4.822172 -0.7287659
00000000: eb82 5f3e 24a2 3f40 0214 6ebf ee48 4cc0
00000010: 5fa4 1cc0 d3df c6c0 f953 e6bf 7994 81c0
00000020: 1623 31be db48 8fbf bb88 74c0 2bdc 6cc0
00000030: 6cd9 69c0 095d 9c3f 3c4f 9a40 6790 3abf

running_var f4 [16]
20.561876 16.210024 34.3653 19.255705 9.160107 44.15864 18.215235 13.512884
29.031937 34.643974 32.99432 24.19194 30.14002 65.23615 40.652298 13.569797
00000000: b97e a441 21ae 8141 1176 0942 af0b 9a41
00000010: cc8f 1241 73a2 3042 cdb8 9141 c634 5841
00000020: 6841 e841 6e93 0a42 2ffa 0342 1889 c141
00000030: c31e f141 e978 8242 f49b 2242 e31d 5941

weight f4 [1, 16, 3, 3, 3]
-0.029239936 -0.21074131 0.0055281096 -0.16082665 -0.17454968 -0.03647495 -0.07976792 -0.08093137
0.048563402 0.057730008 -0.0006319333 0.15659946 -0.06538103 -0.13337931 0.0035479565 -0.07227259
0.057688184 0.175302 0.058566447 -0.0049534813 0.15255404 0.013001253 0.04807803 0.054914784
-0.073389746 0.097325385 0.18344684 0.051671136 -0.061174314 -0.047657 -0.10332461 -0.11402559
-0.0691268 -0.05420314 -0.13733236 0.001317732 0.23606119 0.22322068 -0.118079245 0.030512312
0.15751877 -0.13108596 -0.062840365 0.06398058 -0.124301895 0.13399069 -0.024132403 -0.14508118
0.06690519 0.0087433 -0.08881683 0.029199447 -0.0006377418 0.03393209 0.0627015 -0.04844381
-0.07638583 0.100930184 -0.016634932 -0.015639227 0.11694372 0.055424966 -0.04422181 -0.0019113034
-0.13063177 -0.18291982 0.0116670495 0.023083696 -0.08426182 0.11303036 0.09076573 -0.085605465
-0.14890271 -0.25200754 -0.32668322 0.05201268 -0.012974903 -0.11747597 -0.029558333 -0.038761247
-0.08789062 0.13293335 0.11804347 0.18576719 -0.0107150925 -0.06565436 0.020605091 0.17380376
0.01854623 0.1029041 0.0084564295 -0.22658151 0.14039715 -0.06586535 -0.2552306 0.031771865
0.06821668 -0.35545146 -0.017057791 0.11681193 0.031002812 0.05289779 0.13240571 0.093720935
0.019173423 0.11433105 -0.019492032 0.03599685 0.14805184 0.09844481 -0.1465567 0.24662468
0.1235947 -0.040067654 0.025478574 0.010336051 0.12654318 0.14505474 0.032776203 -0.20101164
0.08943981 -0.08031045 -0.012035426 -0.102320515 -0.109291404 0.15394181 0.012726555 0.067931496
-0.043714177 -0.0214653 -0.08261254 -0.109267965 -0.1832721 -0.07296183 0.17277113 0.04312314
0.00017292365 -0.0067568156 -0.026199952 -0.058832854 -0.048769504 0.2532735 0.18286182 0.07045154
0.0035995846 -0.12195026 -0.07562094 0.030361053 -0.07521058 -0.07484962 0.16587426 0.009221932
0.059626274 0.16653271 0.021141635 0.029905697 0.1236989 0.040690295 -0.0029559422 0.28530693
0.16197525 0.15854646 -0.046532284 0.00428583 -0.012008705 0.06702993 0.01717439 -0.05553233
0.0065243915 -0.1489107 0.05877699 -0.0052115447 -0.19428317 -0.13518097 -0.04071821 -0.028858015
-0.070598386 0.001500409 -0.2120843 0.09316648 0.22501762 0.09659054 0.13326801 0.17018886
0.10219143 0.0484523 0.11185498 -0.09274067 0.058164604 0.13247895 0.02571543 0.15845732
0.096365765 -0.048436556 0.10581055 0.0017103497 -0.0049943626 -0.010391381 0.18784346 -0.17615306
0.085597545 0.031058988 -0.3030216 -0.0011248639 -0.0109472815 -0.0852897 0.09178921 -0.017015498
-0.20553859 -0.07402434 0.0020573905 -0.09504143 0.06313718 0.109772235 0.1433941 0.11240045
0.09826864 -0.11797837 -0.15284191 0.08183358 -0.10883077 -0.1493382 0.08631869 -0.010408365
-0.26481748 0.16897756 -0.0017437576 -0.07034799 0.14368534 -0.047288638 -0.03506369 0.08958962
-0.072479926 -0.29495487 0.028032592 0.07488655 0.037993707 0.08557753 0.013640103 0.015434148
0.0067742183 0.06612969 -0.16070046 0.19042867 0.1820347 0.100116916 -0.030558886 -0.032350793
-0.09303699 0.03177946 0.047243096 -0.028281737 0.124085076 0.16154598 0.038934182 0.007992972
00000000: 9788 efbc 92cc 57be 2525 b53b beaf 24be
00000010: 27bd 32be c266 15bd 5d5d a3bd 59bf a5bd
00000020: 6bea 463d 4d76 6c3d 53a8 25ba 9c5b 203e
00000030: 7de6 85bd 9694 08be d584 683b a703 94bd
00000040: 724a 6c3d 5e82 333e 5fe3 6f3d d050 a2bb
00000050: 2037 1c3e 3503 553c 78ed 443d 53ee 603d
00000060: 5d4d 96bd 8852 c73d 7dd9 3b3e 1da5 533d
00000070: eb91 7abd fd33 43bd da9b d3bd 4086 e9bd
00000080: 5a92 8dbd 1d04 5ebd dba0 0cbe c0b7 ac3a
00000090: 06ba 713e f693 643e 88d3 f1bd f5f4 f93c
000000a0: 9a4c 213e 663b 06be 73b2 80bd 4008 833d
000000b0: fe91 febd db34 093e 51b1 c5bc 2990 14be
000000c0: 9705 893d 0f40 0f3c 99e5 b5bd ae33 ef3c
000000d0: 212e 27ba 60fc 0a3d a569 803d 046d 46bd
000000e0: 2d70 9cbd 7cb4 ce3d fb45 88bc d61d 80bc
000000f0: 3080 ef3d 4a05 633d ee21 35bd b384 faba
00000100: 56c4 05be 554f 3bbe 2727 3f3c 051a bd3c
00000110: 7691 acbd 767c e73d 62e3 b93d eb51 afbd
00000120: f479 18be 2207 81be 0643 a7be 3f0b 553d
00000130: b094 54bc 3e97 f0bd 5124 f2bc 1dc4 1ebd
00000140: ffff b3bd ae1f 083e c6c0 f13d c139 3e3e
00000150: 5b8e 2fbc cb75 86bd 02cc a83c 9df9 313e
00000160: 43ee 973c 63bf d23d d68c 0a3c fc04 68be
00000170: 45c4 0f3e 6ae4 86bd 96ad 82be 3723 023d
00000180: 30b5 8b3d bcfd b5be c8bc 8bbc 183b ef3d
00000190: 9cf9 fd3c 5aab 583d 5d95 073e c3f0 bf3d
000001a0: 9511 9d3c 6626 ea3d c1ad 9fbc 6f71 133d
000001b0: e79a 173e 6f9d c93d f612 16be 2e8b 7c3e
000001c0: 381f fd3d fb1d 24bd 71b8 d03c 8a58 293c
000001d0: 8994 013e 3b89 143e 5740 063d ffd5 4dbe
000001e0: 382c b73d ce79 a4bd 3c30 45bc 6b8d d1bd
000001f0: 2cd4 dfbd eca2 1d3e 0a83 503c ab1f 8b3d
00000200: a30d 33bd ffd7 afbc c330 a9bd e2c7 dfbd
00000210: aeab 3bbe 036d 95bd eaea 303e e4a1 303d
00000220: d752 3539 4768 ddbb 48a1 d6bc b8fa 70bd
00000230: 88c2 47bd 10ad 813e 2140 3b3e e648 903d
00000240: 02e7 6b3b 0fc1 f9bd 27df 9abd beb7 f83c
00000250: 0108 9abd c24a 99bd f1da 293e 9617 173c
00000260: ae3a 743d 8d87 2a3e 3931 ad3c cbfc f43c
00000270: d955 fd3d deaa 263d 7bb8 41bb c013 923e
00000280: d7dc 253e 015a 223e a398 3ebd 2670 8c3b
00000290: 29c0 44bc fd46 893d 4eb1 8c3c de75 63bd
000002a0: 90ca d53b 0c7c 18be 24c0 703d 9bc5 aabb
000002b0: 2bf2 46be e16c 0abe 23c8 26bd a567 ecbc
000002c0: e395 90bd 5fa9 c43a a02c 59be 11ce be3d
000002d0: 056b 663e 43d1 c53d 6977 083e fd45 2e3e
000002e0: be49 d13d eb75 463d 3914 e53d d2ee bdbd
000002f0: 023e 6e3d 90a8 073e 2aa9 d23c a342 223e
00000300: 6a5b c53d 6965 46bd 34b3 d83d d02d e03a
00000310: c0a7 a3bb 9c40 2abc 095a 403e 7861 34be
00000320: c44d af3d 6b6f fe3c a625 9bbe 2b70 93ba
00000330: 3a5c 33bc 5eac aebd fbfb bb3d 1664 8bbc
00000340: b578 52be 139a 97bd 49d5 063b 15a5 c2bd
00000350: 114e 813d 44d0 e03d e7d5 123e 3532 e63d
00000360: 1241 c93d a59e f1bd 9782 1cbe 5d98 a73d
00000370: abe2 debd 1dec 18be dac7 b03d d987 2abc
00000380: 2896 87be 7408 2d3e cc8e e4ba 9b12 90bd
00000390: 4022 133e bbb1 41bd f29e 0fbd c37a b73d
000003a0: 5b70 94bd 5304 97be 9ba4 e53c 1f5e 993d
000003b0: 4a9f 1b3d 4643 af3d bd7a 5f3c 82df 7c3c
000003c0: 43fa dd3b 016f 873d a98e 24be bcff 423e
000003d0: 4e67 3a3e 190a cd3d a156 fabc 4482 04bd
000003e0: 2d8a bebd 2e2b 023d fa81 413d 1aaf e7bc
000003f0: 5120 fe3d 4f6c 253e 7379 1f3d f4f4 023c
