DepthSensingCUDA/Source/Scan2CAD/data/checkpoint/scannet/feature2noc.pt (torch, 805872 bytes, 9 tensors)

weight f4 [64, 64, 3, 3, 3]
00000000: 15b5 8abe 61ad 34be a621 2cbe 745c 61be
00000010: b591 1ebe e2d9 08be e59f 61be 031d 30be
00000020: 8633 1bbe 98eb b7bd 2ec2 f83c 3966 3c3d
00000030: 93f3 483d 97cb 243e 3a77 083e b147 99bc
00000040: ae5f 073e 35f7 d93d 8c82 bd3d 95e2 ac3d
00000050: c2a4 303e 55a7 c53c 92d8 843d c716 1d3e
00000060: 410b 90bd 5bbf 96bc 47da 723d 4cb9 dcbd
00000070: d38a 183d 746b cd3d 301d d7bd 0ff0 e83c
00000080: f7d7 9b3c ca20 44bd 8373 5c3c d04a 4bbd
00000090: 0b03 cdbd 7167 0d3c aa5e c83b 5898 2cbd
000000a0: 2ae4 b53d e9dd 853d a5b0 d4bb 5404 973c
000000b0: c6c0 3a3d 91d9 abbd 8247 59bc 8864 b43b
000000c0: 6a51 c1bc 5ae1 ea3d 6c4d 8f3d 4874 13bd
000000d0: 368c 853d 0890 c23d 1c3b 82bc 0c4f b3bd
000000e0: bc60 e53c 38c0 993d 9af2 a13b acbd 12bd
000000f0: 0ae0 85bb 209c 5fbd a4c7 ac3c 6c69 893d
00000100: 8f3e 6dbd 6ab5 efbd e5e9 1a3e 3a53 093d
00000110: 3084 e4bd 1694 eab9 005b a5bd 9bb8 45be
00000120: 3712 8f3e 1518 c73c bb84 fbbc c21e 5f3e
00000130: 50da 1e3d 13e6 01be 5aa3 4b3e 13ca eabc
00000140: 5344 0fba 596a bbbe 0800 79be ae7e 6c3d
00000150: b5c1 6cbe b20d 1cbe 6b89 c13d a16b d4be
00000160: bf38 7ebe 25a9 103e 970c 9f3c 9ee9 04be
00000170: cb17 0c3e e3b4 573c f325 75bd 5684 0d3e
00000180: d7c3 a1bd e384 49be b74b b53d 3be9 27be
00000190: b5da 8ebe c418 4b3c 3bfb f6bd 6a99 37be
000001a0: 33cf 9f3b a221 f0bd e17d 81be eea5 a6bc
000001b0: a0e6 a3bd 5ead 1b3d 935d b93d c2db e1bb
000001c0: 5d9c c83d afd1 1a3d c4bf 87bd fc35 f3bc
000001d0: 307e 3f3e 6fd4 57bd 1a37 a53c cecc a73d
000001e0: 710d a93d 99d7 dd3d e550 ee3d 3d55 8cbc
000001f0: 1c8a 77bd 07be b93c 8925 103e 69ae 84bd
00000200: e4f6 1e3e 97e1 c23d cd86 90bc d559 acbc
00000210: f872 e73d bd7c 10be 0f1b 833c f171 49bd
00000220: dfce 41bd 1b54 fd3d beb0 3e3c cc3a 3c3b
00000230: 3ff6 8f3d c07a b73d 942f feba 325d 8a3d
00000240: 1f2b 14be e1cf 25be 48d1 a8bd a5be 3c3d
00000250: f0fb 8fbc aecf 6bbc 3b5a 0d3c 457d f7bc
00000260: 5013 61bc d9fb 0d3e f770 0cbe 3878 afbd
00000270: 2050 0c3e 0a1b 88bd b321 14be 8536 263e
00000280: beca 68bd 49da 22bd 4a54 153e 8950 ea3d
00000290: 30d0 373e 2b71 333e f071 2b3d 0a7e d53d
000002a0: 4d63 103e fd22 cf3c ea3d ca3d effb e03d
000002b0: e7fa 863c 428e 9bbd 2a39 d83d e23c cb3a
000002c0: 2720 38be a67e d83d 9f3e 29bd fa84 3fbe
000002d0: 60b9 f93a 1815 cf36 61f7 44bd 9154 62bc
000002e0: 7008 95bd bf5e 4dbe 2742 e53d 6d7a 7cbd
000002f0: 5491 acbd d28c 9939 1fac 333e 8bd9 da3a
00000300: 4574 4abd cde8 013e 93af 87bd 099b 87bb
00000310: e59a cc3d 0737 c43d 937c eebc 8988 7abd
00000320: 6dc0 abbe a3f1 6ebb b62c 243d 14ee 50be
00000330: a505 66bc e819 1cbd 463d 67be 182f 21bd
00000340: b4c0 96be da1a 45be bd17 5bbd cde5 6dbe
00000350: 10dd 6fbe bc8d 1a3d f69f 8fbe 0041 82be
00000360: 08bb 8ebe 33f9 88bc e097 2dbe da30 75be
00000370: 93ac ef3c ed74 04be f322 f4bd 3c95 973d
00000380: f130 b4bd b6e8 24bd dd5a 063e a9b4 36be
00000390: 99ba 60bc 6a6d 083e bdf6 24be 8274 2ebd
000003a0: 155a 103e 036c 51be fb1a 873b e57e 8e3d
000003b0: ddc3 c5be dafa 583c cf1b 1e3c ca54 d4be
000003c0: f6ad 69bd 0df4 d4bc bf71 e0be 00c8 683b
000003d0: 3c46 d33b 2930 ee3b 45ab 6ebd 0939 e53c
000003e0: 6347 acbc 6ffc d1bd a098 213d 2e3d a53c
000003f0: e8a9 47be a2b1 81bd 64ab f53d 5e9b 01be
-0.2709128 -0.17644264 -0.16809711 -0.22007924 -0.1548527 -0.13364366 -0.22033651 -0.17198567
-0.15156373 -0.08980483 0.03036603 0.045995925 0.049060415 0.16093288 0.13326731 -0.018710943
0.13220093 0.10642854 0.092534155 0.084416546 0.1725035 0.024127642 0.0648662 0.1534072
-0.070333965 -0.018401792 0.059290197 -0.1077753 0.037241768 0.10030261 -0.10503614 0.028434781
0.019023878 -0.047882833 0.0134552745 -0.049631894 -0.10010346 0.008630619 0.0061148005 -0.042137474
0.088814095 0.06536467 -0.006490784 0.018434681 0.045594 -0.08391107 -0.013261678 0.0055051483
-0.023598392 0.11468764 0.06997189 -0.035999566 0.06520884 0.09500128 -0.015897326 -0.08755311
0.028000228 0.07507366 0.0049422504 -0.035825416 -0.0040855454 -0.05459225 0.02109129 0.06709561
-0.05792099 -0.11704524 0.15128286 0.033526637 -0.11158025 -0.0004474229 -0.080739975 -0.19308703
0.27943584 0.024303475 -0.03070294 0.21789077 0.038782418 -0.12685423 0.19886532 -0.02866081
-0.0005465198 -0.36604574 -0.24316418 0.057738 -0.23120768 -0.152396 0.094500385 -0.41488364
-0.24826334 0.14127024 0.019415183 -0.12979743 0.13680951 0.013165685 -0.059850644 0.13820013
-0.078986816 -0.19679599 0.08852332 -0.16397564 -0.27901235 0.012396041 -0.12059637 -0.17929617
0.004876995 -0.11725165 -0.2529135 -0.020342793 -0.080029726 0.038007133 0.09051051 -0.0068926523
0.09795449 0.037797626 -0.06628373 -0.029688828 0.1870048 -0.052692827 0.020167876 0.0819336
0.08254517 0.108321376 0.11636523 -0.017130489 -0.060434446 0.02267362 0.14076819 -0.064785786
0.15523869 0.09515684 -0.017642403 -0.021038929 0.113012254 -0.14110084 0.016004113 -0.04918093
-0.04731643 0.123695575 0.011638818 0.002872157 0.070293896 0.089589596 -0.0019392841 0.06756057
-0.14469574 -0.16192581 -0.08243042 0.04608025 -0.017576188 -0.014392776 0.00862747 -0.0302111
-0.013737515 0.13865604 -0.13714968 -0.08567852 0.1370244 -0.06645782 -0.1446598 0.16231735
-0.056833975 -0.039758954 0.14582935 0.11441142 0.17950511 0.17523639 0.041856706 0.10424431
0.1410038 0.025285238 0.098750904 0.109855525 0.016477061 -0.07595493 0.10557778 0.0015505815
-0.17981015 0.10571031 -0.041319486 -0.1870307 0.0019052438 6.1715364e-06 -0.04808748 -0.0138141075
-0.07277 -0.20055674 0.11194258 -0.06164019 -0.08426157 0.00029287353 0.17546128 0.0016696913
-0.04942729 0.12686463 -0.06625285 -0.0041383547 0.09990481 0.09580808 -0.029112136 -0.061165366
-0.33545247 -0.0036459945 0.040081702 -0.2040332 -0.014039432 -0.038110644 -0.22581968 -0.039351553
-0.29443896 -0.19248524 -0.053489435 -0.23232193 -0.23424172 0.037732825 -0.28051728 -0.25440216
-0.2787707 -0.01672039 -0.16952467 -0.23944417 0.029257094 -0.12935229 -0.119207285 0.07401511
-0.08798397 -0.040260993 0.13120599 -0.17842354 -0.013716363 0.13322988 -0.16109748 -0.04259158
0.14096864 -0.2045136 0.0041230894 0.06957797 -0.38625994 0.013243401 0.009650185 -0.4147094
-0.057050668 -0.025995279 -0.4383678 0.00355196 0.0064475816 0.0072689247 -0.058268804 0.027981298
-0.021030134 -0.10253226 0.039452195 0.020170774 -0.19498408 -0.06332709 0.11995581 -0.12656924

bias f4 [64]
00000000: 4fe5 003d 5175 a53b 3f4b 803a 8110 4d3c
00000010: c246 033d 2b09 d0ba e44f f63c d898 ec3b
00000020: eb94 553b a0c9 15bc adec a23c d8a1 cd3b
00000030: b8bf 00bc 249a 9c3b bad2 9c3b 2bdc 063c
00000040: 6108 bb3c a84b ac3c c9ab 9f3b 4978 3abc
00000050: c190 6d3c fdda cc39 384a bbbb dff7 253c
00000060: 4470 b93c eb1d cbbb e2e7 413b ad65 913c
00000070: b8b6 47bb 6c9c b63c 0ba5 7f3c 799d 6e3c
00000080: 94ca 633b 111f 7b3c c2c8 dd3b c20b 773c
00000090: 2620 37ba 5339 ee3c 599d 18bb 0cc0 973c
000000a0: 6b52 233d 97a3 d53c 9b5d 213c 985d 3ebc
000000b0: 8ec2 7f3c 0404 8bbb 20bd 0a3c a104 1f3d
000000c0: 0fe5 053d 0c9f 973c 46e7 9f3c 93bf 8bbc
000000d0: e5a5 143b 7b94 343b 65e4 303d 7eb3 79bc
000000e0: 12d1 c53b dee9 fb3c ce1b d63c 540b 173d
000000f0: 9fd8 243c ffe4 e2bb 1ccb 6b3d 5c43 84bc
0.031468686 0.0050493856 0.000978805 0.012516142 0.0320499 -0.0015871873 0.030067392 0.007220369
0.0032589983 -0.009142309 0.019888246 0.006275397 -0.007858209 0.004779117 0.0047858628 0.008231203
0.022831144 0.02103217 0.0048727733 -0.011381217 0.014499844 0.0003907307 -0.0057156347 0.010129898
0.02263654 -0.006198635 0.0029587676 0.017748678 -0.00304739 0.022291385 0.015603314 0.014563912
0.0034758197 0.015327231 0.006768317 0.015078487 -0.00069856865 0.029080069 -0.0023287146 0.018524192
0.03987352 0.026078982 0.009848977 -0.011618994 0.01561035 -0.004242422 0.0084679425 0.038822774
0.03268915 0.018508457 0.01951946 -0.017059123 0.0022681889 0.0027554322 0.043186564 -0.015240548
0.006036886 0.030751165 0.026136305 0.036876038 0.010061412 -0.006924271 0.057566747 -0.0161454

weight f4 [64]
00000000: 3623 063f 4bc0 0c3f 73ca 133f d9e4 0b3f
00000010: 2798 ca3e 0f7d 0a3f 47fc 043f aa4b 0c3f
00000020: 49b9 073f eb12 073f c927 0f3f 0557 103f
00000030: 83e9 103f addb 103f 16ad 0c3f fb98 053f
00000040: 22ab 0f3f 0b92 f93e 8b08 133f a60e 0c3f
00000050: fed8 0f3f e042 0c3f 0f78 093f 156d 043f
00000060: d1b1 b83e e961 113f b95d 013f 58b2 113f
00000070: c44a 0f3f 94e4 0d3f c247 093f 9dd2 0f3f
00000080: 0660 123f 12f3 013f d5d0 143f 21e2 0c3f
00000090: cf25 0f3f d334 0b3f f852 0f3f ae99 0a3f
000000a0: 3ebd 053f 8570 173f ea13 143f 6861 033f
000000b0: 7707 113f af5a 113f ef34 0e3f 873e 103f
000000c0: 1545 013f 9780 0b3f 5104 043f 63a8 023f
000000d0: aea1 093f 8249 ff3e 4a8d 093f a293 0b3f
000000e0: 2df1 063f 1ab9 093f f92c 0a3f b954 fd3e
000000f0: 3759 f73e 16e0 0f3f 1e76 0c3f 350f 033f
0.5239748 0.54980916 0.5773079 0.5464607 0.39569208 0.54097074 0.51947445 0.54802954
0.530171 0.5276324 0.5592008 0.5638278 0.5660631 0.565852 0.5495161 0.52186555
0.561205 0.48744234 0.5743491 0.5470985 0.5619048 0.54789543 0.5369882 0.51728946
0.36073163 0.56790024 0.50533634 0.56912756 0.5597346 0.5542691 0.5362512 0.56180745
0.5717777 0.5076152 0.5813115 0.55032545 0.55917066 0.5437748 0.55985975 0.54140747
0.52241886 0.59156066 0.57842886 0.51320505 0.56652015 0.56779 0.5554952 0.5634541
0.50496036 0.5449309 0.51569086 0.5103819 0.5376233 0.4986077 0.53731215 0.54522145
0.52711755 0.5379807 0.5397487 0.494787 0.48310253 0.56201303 0.5486773 0.5119508

bias f4 [64]
00000000: d495 8bbe 0df6 9cbe ea64 d1be 3934 9dbe
00000010: 423a 8bbe 2d12 d3be e933 aebe e085 cfbe
00000020: 0675 acbe ad09 9dbe 0b03 d7be 941e a8be
00000030: 1878 cebe 3025 cabe 0b16 aabe 3beb 89be
00000040: cbf1 c0be 53c8 93be 8f9c e1be fb12 cebe
00000050: 8873 b3be 8da7 eabe 72d3 a9be b0b3 c0be
00000060: b4bd 68be 5166 bdbe a87b a7be f6c4 cdbe
00000070: 724a c7be df36 b3be c726 a9be b488 c5be
00000080: 595a c9be d0cc acbe 73bb cfbe 733f c1be
00000090: 8ca0 cebe 7910 94be d484 e9be 6f56 d6be
000000a0: 36b4 a8be 1898 d5be fa0f b9be 8061 99be
000000b0: e845 cebe d1a4 c6be fe2f ccbe 834f abbe
000000c0: b139 adbe 4eea c5be c8be 9cbe 925e 83be
000000d0: a797 d8be 3740 e3be aeba 78be 6d17 eabe
000000e0: 7109 c2be b087 acbe 2e10 e7be 0f6b 81be
000000f0: 14ef 89be 7103 bebe 66da 4fbe 2684 54be
-0.27262747 -0.30656472 -0.40897304 -0.30703905 -0.27192885 -0.41224805 -0.3402398 -0.40531826
-0.33683032 -0.30671445 -0.4199451 -0.3283583 -0.40326 -0.39481497 -0.33219942 -0.2693728
-0.37684473 -0.28863773 -0.44064757 -0.40248856 -0.3504908 -0.45830956 -0.33169132 -0.3763709
-0.22728616 -0.36992124 -0.3271153 -0.40189332 -0.38923985 -0.350028 -0.33037397 -0.3858086
-0.39326742 -0.3375001 -0.405727 -0.3774372 -0.40356863 -0.28918818 -0.45609152 -0.4186282
-0.3294999 -0.417176 -0.36145002 -0.299572 -0.4028771 -0.3879762 -0.39880365 -0.334591
-0.33833078 -0.38655323 -0.30614305 -0.2565809 -0.42303202 -0.4438493 -0.24289963 -0.45720997
-0.37897828 -0.3369727 -0.45129532 -0.25276992 -0.26940215 -0.37112 -0.20298156 -0.20753536

running_mean f4 [64]
00000000: ecbf 61c1 15aa 85c1 d4dc 64c1 4103 83c1
00000010: d8b0 4cc1 80e8 8fc1 ea12 8ac1 6b00 51c1
00000020: e1f5 84c1 2c7a 7bc1 a106 95c1 9f13 89c1
00000030: fb88 a7c1 f053 65c1 d3a1 8cc1 ecec 4cc1
00000040: b5aa 82c1 0813 90c1 5ada f1c0 09ce 99c1
00000050: 032a 90c1 7eca 52c1 c3b4 8ac1 f335 5fc1
00000060: 2d5d 56c1 dc95 78c1 e92c 83c1 ea18 85c1
00000070: ca5a 95c1 5cb7 95c1 a49e 7fc1 6ac2 a0c1
00000080: 985e 9bc1 3539 6fc1 36d1 adc1 ec1d 78c1
00000090: 32f3 88c1 9c13 5dc1 7cc7 8ec1 7a87 71c1
000000a0: dfa3 6ac1 9a21 a1c1 42d5 8fc1 cfbb 8bc1
000000b0: ca29 83c1 0a7d 75c1 386f 9cc1 dfa2 8dc1
000000c0: 232e 84c1 f99e 65c1 4263 64c1 080d 68c1
000000d0: 1121 2ec1 c8cb e0c0 27db 7ac1 23a9 35c1
000000e0: 2898 8bc1 f9a3 56c1 fda0 5cc1 0246 84c1
000000f0: 4acf 9ac1 976d 35c1 33cc 92c1 b62b 8cc1
-14.109356 -16.708048 -14.303913 -16.376589 -12.793175 -17.988525 -17.259235 -13.062602
-16.620058 -15.717327 -18.628237 -17.13458 -20.941885 -14.332993 -17.579016 -12.807842
-16.333353 -18.009293 -7.5579042 -19.225603 -18.020514 -13.174437 -17.338263 -13.950671
-13.397748 -15.536587 -16.396929 -16.637165 -18.66933 -18.71453 -15.976231 -20.094929
-19.421188 -14.951467 -21.727154 -15.507305 -17.118748 -13.817287 -17.847404 -15.095575
-14.665008 -20.141407 -17.97913 -17.466703 -16.395405 -15.343027 -19.554306 -17.704527
-16.522528 -14.351312 -14.274233 -14.503181 -10.883073 -7.0248756 -15.678504 -11.353793
-17.449295 -13.415032 -13.789304 -16.534184 -19.351215 -11.339255 -18.349707 -17.521343

running_var f4 [64]
00000000: 405e e043 085e 2444 9285 fb43 e37b 0c44
00000010: 28c5 4843 a639 de43 eaae 2744 a705 a243
00000020: 25c9 f343 bff7 0344 6281 6744 d804 2744
00000030: dea6 2744 63db d343 5146 1644 fa40 ce43
00000040: 0e43 0844 3334 5644 0e57 7843 4951 3344
00000050: 5f3e 1944 67e1 1e44 9b6a 4244 2aa6 c743
00000060: 84d0 8443 54f0 0044 3269 0844 e3f7 2844
00000070: c8b4 4444 098c 7844 635a 0b44 2b4f 6244
00000080: 5a13 5244 2bae d943 5eb1 7c44 483c ff43
00000090: ae5e 0344 f098 f143 c037 2244 d8ca d843
000000a0: 43e2 ba43 d4b3 2844 5e54 3444 68e0 2144
000000b0: 07ae d643 aa95 0644 0df5 1d44 ea01 1944
000000c0: 4cb0 0a44 64ba a943 a6e9 f643 c952 1444
000000d0: 1d7a a343 eb17 7e43 98e9 2f44 15e3 de43
000000e0: 485f 2544 3242 0e44 b125 0544 0df3 f143
000000f0: 69b7 6844 d311 8343 aa24 a644 ccc6 8a44
448.73633 657.46924 503.04352 561.9357 200.77014 444.45038 670.73303 324.04416
487.57144 527.87103 926.0216 668.0757 670.6073 423.71396 601.0987 412.50763
545.0477 856.8156 248.34006 717.2701 612.97455 635.5219 777.6657 399.29816
265.62903 515.7551 545.6437 675.8732 786.8247 994.18805 557.4123 905.237
840.30237 435.3607 1010.77136 510.47095 525.4794 483.19482 648.8711 433.58472
373.76767 674.8098 721.31824 647.50635 429.3596 538.3385 631.8289 612.0299
554.75464 339.45618 493.82538 593.2935 326.954 254.09343 703.6499 445.77408
661.4888 569.0343 532.5889 483.89883 930.8658 262.13925 1329.1458 1110.2124

weight f4 [48, 64, 3, 3, 3]
00000000: 0218 19bd f032 2fbc 1a8c 6f3c eefa bcbb
00000010: 0498 023d 1cb8 b63d b3c0 cbbd 2e15 213c
00000020: 9ecb 2e3e b674 c23c 335e 063c c330 213d
00000030: 69c4 84bc 3a7d 68bd e28b 4ebd 83cc 11ba
00000040: 81ec 783c 1804 383d 0d06 803d 2d50 c03c
00000050: a8fd 873d 0fcc 8f3b 4e5f 5cbd cb46 28bd
00000060: f46d 33bd 67ac 1bbd 6d5f f7bc e4ed 53bd
00000070: 26d8 6e3c beff 0cbd 2e6b e2bd c9c6 68bd
00000080: e572 1cbd 3b2d efbd a940 bebd 1d0f f0bc
00000090: 8c4f 183c d287 e23c 30de 50ba 7d9e 96bc
000000a0: d229 ed3b 54bb a53d f194 15bd 7ecd 10bd
000000b0: 90a6 093d 2d84 b33c 7a4b 85bd 3d0d a8bd
000000c0: ebec 693d 2de9 223c 63d3 093d d51f 4dbb
000000d0: 812d 2dbb e56d 2c3d bd46 303d 64b2 dd3d
000000e0: 20d3 16bd 782c f2bc 2086 b93d 8c0f 983c
000000f0: b705 a23d 92d2 cebc aeda ec3d 1d19 db3d
00000100: 3afb 76bd 78a5 32bd 6525 8f3d a890 523b
00000110: 4438 e1bc 6512 6cbb e367 87bd 45fe 453e
00000120: 16f4 b13d 1353 fd3d 2f8e adbd 1f75 f23d
00000130: 2573 0e3e 727c 10bd 8e4c 11bc f8bd 793d
00000140: b32d df3e c67a bb3d b851 853c d4f7 8f3c
00000150: 2349 bcbb 4090 41bd bec4 513c c285 a3bc
00000160: ed2c 17bd be31 c3bc 84c8 693d 7ab0 303d
00000170: ddf6 31bd 8151 53bb eb32 eebc fc57 dabc
00000180: b597 acbc 2da6 19bd 685f 30bd 802f 9abd
00000190: 8946 5f3d eb24 0ebd 0c2e 12bd d0ee c83c
000001a0: 04c0 f7bc 2f94 443c 2cb8 243d 660b ff3d
000001b0: 70a8 cabd 5092 9cbc 5761 0dbb 673f 07bd
000001c0: 84f1 39bb 0fb9 263d ad5e acbd 953f d6bc
000001d0: c0ca 73bb 4a2c 553c d8f1 a7bb a97c 32bc
000001e0: a58a fbbb 5fa8 e6bc eab2 153d 5a64 74bd
000001f0: 92be 713c aa25 433c c205 c2bc f6e0 d6bb
00000200: fbcb 09b9 a5b2 153d 5082 86bc b5f3 a4b9
00000210: f2e1 493d 2742 dbbb 9fca 8b3d 178e 3ebe
00000220: 54eb 19be 636f f9bd 7378 1dbd 728e d8bb
00000230: 9df0 44bd badc bcbd c099 03bd e9db 93bd
00000240: f91d 97bd cbdf 9d3c 9e53 15be e2d1 3b3b
00000250: aaae 02bc a10a d93b 45eb 383d ce7e 1b3c
00000260: f0d2 a3bd e5ce 623d 448c a63d 6dd0 84bd
00000270: 022e ea3d d7e0 a83d 678e 54bd 182e cb3d
00000280: 5752 93bc 2675 5ebc c462 883d a4ef 1a3d
00000290: c138 7e3c cdc2 c0ba 5d51 e3bb b5e8 3bbd
000002a0: 7519 15bd d9ba 13bd e127 0fbe 212f 393d
000002b0: 2fe7 c13c b747 39bd fbdf 27bd 736b e0bc
000002c0: 1db0 313c 87e2 923c 564d a53d 9bcd 993d
000002d0: 604c 6c3c 360f 0b3c 086d 27bc 0af7 48bd
000002e0: 8e93 923c cca8 f73d dc92 06bd 6b0d 66bb
000002f0: 7cb8 b5bc cbd9 14be 0d00 87bc 6489 9a3d
00000300: 33a7 d8bc 2ff3 663e 0a45 083e e8ee 07be
00000310: 15f4 32be ce90 813c e3f6 0ebe 6d29 b0bd
00000320: e054 3d3d 67b3 dcbc d41e bfbd 80ec a93c
00000330: cb46 61bd 9449 83bd 6631 1f3e 0f9c ec3c
00000340: 8a9c 88bd ce94 5b3d 68cd 123d 806f c5bc
00000350: e611 6dbc b95e 24bd c665 36b7 c27b e53d
00000360: 8e4c 033d d7db a1bd 686f 2fbd c99a e3bc
00000370: 26cb 8cbd 53dd d63d 7e0c 893c 4986 30bd
00000380: e24a 253d e84b 843d 51c9 efbb 8d77 7bbd
00000390: a935 0ebc 3295 a0bc 8395 673c f189 15bd
000003a0: d9a5 64bc c11a 4dbd 922c ab3d d423 3f3c
000003b0: c5e3 353d 6f29 083d 4569 3f3c d01a 363d
000003c0: 82ac d23c 7405 253b af96 0a3d 44fd 4ebd
000003d0: 9c23 2f3d 6b60 c3bc bca1 98bd 31bf 55bb
000003e0: 997c d63c db2c 753d 2f6c 123d df74 88ba
000003f0: 8f74 9f3d 5bd6 4d3b f6ea d5b9 4cc3 89bc
-0.03737641 -0.010693297 0.014620805 -0.005767218 0.031883255 0.08921835 -0.09948864 0.00983171
0.17069861 0.023737293 0.00820117 0.039353143 -0.016206937 -0.05676005 -0.05042637 -0.00055617857
0.015193106 0.04492578 0.06251154 0.02347573 0.06640178 0.0043883394 -0.053801827 -0.04108314
-0.04380603 -0.038006213 -0.03019687 -0.051740542 0.014577901 -0.034423582 -0.11055599 -0.0568302
-0.03819551 -0.11678549 -0.09289677 -0.029304082 0.009296309 0.027652655 -0.0007967679 -0.01838612
0.0072376514 0.08092371 -0.036518995 -0.035352223 0.033606112 0.021913612 -0.06508537 -0.0820565
0.05711071 0.009943289 0.03364886 -0.003129949 -0.0026424828 0.04209699 0.04303621 0.10825041
-0.03682244 -0.02956222 0.090587854 0.0185621 0.07911246 -0.025246892 0.11565147 0.10698149
-0.060298182 -0.043614835 0.06989554 0.003212968 -0.02749265 -0.0036021706 -0.06611612 0.19335277
0.08689134 0.12369361 -0.08474385 0.11838745 0.13911112 -0.03527493 -0.00886835 0.060972184
0.43589553 0.091542765 0.016274318 0.017574228 -0.0057460233 -0.04725671 0.012803255 -0.019961242
-0.03690808 -0.02382743 0.057075992 0.04313705 -0.043448318 -0.0032244625 -0.029077014 -0.026653282
-0.021068433 -0.037511993 -0.043059736 -0.07528591 0.054510627 -0.034703176 -0.035688445 0.024527937
-0.030242927 0.01199822 0.040214702 0.12453346 -0.09895408 -0.019112736 -0.0021572912 -0.03301945
-0.0028372714 0.04070383 -0.084164955 -0.026153365 -0.0037199706 0.013011048 -0.0051252656 -0.010893979
-0.00767644 -0.028156457 0.03654758 -0.059666015 0.014754908 0.011910835 -0.023684386 -0.006557579
-0.00013141327 0.03654732 -0.01641956 -0.00031462093 0.049287744 -0.0066912356 0.06825756 -0.1860889
-0.15031177 -0.121794485 -0.038444947 -0.0066087777 -0.04808103 -0.09221788 -0.03212905 -0.07219679
-0.07378764 0.019271752 -0.14582679 0.0028659035 -0.0079762135 0.0066235815 0.045146246 0.009490682
-0.079992175 0.05537309 0.08132222 -0.064850666 0.114345565 0.0824601 -0.051893618 0.09920901
-0.017983599 -0.013577735 0.06659463 0.037826195 0.015516461 -0.0014706493 -0.0069371895 -0.045876224
-0.03640123 -0.036066864 -0.13980056 0.04521096 0.023669807 -0.04523441 -0.04098509 -0.027394986
0.010845211 0.017930282 0.08071391 0.07509919 0.014422506 0.008487513 -0.010218866 -0.04906372
0.017892625 0.12092742 -0.0328549 -0.0035103213 -0.022182696 -0.14536206 -0.016479516 0.075457364
-0.026446914 0.22553705 0.13307586 -0.13274729 -0.17475922 0.015816119 -0.13961367 -0.08601651
0.04622352 -0.026941014 -0.09332052 0.020742655 -0.054999154 -0.06410518 0.15546188 0.028883008
-0.066704825 0.053608708 0.035840422 -0.024101019 -0.014469599 -0.040129397 -1.0871741e-05 0.112052456
0.03205543 -0.07903259 -0.042830855 -0.027783768 -0.06874685 0.10491433 0.01672959 -0.043096814
0.040354617 0.064597905 -0.0073177 -0.06139331 -0.008679786 -0.019602392 0.014134767 -0.036508504
-0.013955557 -0.050074343 0.083581105 0.011666257 0.04440667 0.03324264 0.011682813 0.044459164
0.025717024 0.0025180252 0.03383511 -0.0505345 0.04275857 -0.023849687 -0.074527234 -0.003261518
0.02618246 0.05985723 0.035747703 -0.0010410807 0.07785904 0.0031408283 -0.00040801585 -0.016816758

bias f4 [48]
00000000: f72c a5ba 80cd e83d eb4f 003b 429b 03bb
00000010: af0c 45bc dd7a e6ba 2bab f439 a545 053c
00000020: b145 8f3b 5cce 733a 4b36 4bb9 8dba 073b
00000030: 97ff e3b8 86f3 2bba 593f 1c3b e4b1 ad3a
00000040: ce81 08b9 53b2 bf3a e4f9 043b a893 8fba
00000050: 986e 1338 6f10 7f3d 70fd 5abc e9c4 593c
00000060: f71f 6e3a 8d94 143a dcc0 f5ba 0dba 18bb
00000070: eda3 88be d3f9 1c3a 4609 47ba ede8 8fbc
00000080: e7a3 a13a 0815 31ba 9b28 c13a 6f56 60bb
00000090: e37e 4bbc 5240 b4b9 62dd 03bb b186 8f3b
000000a0: a954 e23a 15c1 4c39 9b92 29be 4efb 803a
000000b0: c513 bc39 c60c 26bd fdab b0bd 5307 473b
-0.0012601902 0.11367321 0.0019578885 -0.0020081555 -0.01202695 -0.0017584224 0.00046666837 0.00813428
0.0043723215 0.00093004643 -0.00019379814 0.0020710558 -0.00010871811 -0.000655942 0.002384147 0.0013251868
-0.00013018327 0.0014625288 0.0020290548 -0.0010954039 3.515053e-05 0.06227153 -0.013366088 0.013291576
0.00090837426 0.0005667888 -0.0018749493 -0.0023304254 -0.26687565 0.00059881544 -0.00075926294 -0.017567122
0.0012332172 -0.0006755148 0.0014736833 -0.0034231206 -0.012420389 -0.00034380198 -0.0020120968 0.00438007
0.0017267662 0.00019526885 -0.16559832 0.000984052 0.00035872884 -0.040539525 -0.08626554 0.0030369356

weight f4 [3, 48, 3, 3, 3]
00000000: 91d2 a0bc f317 cb3c d612 473c b816 d43c
00000010: 93c5 f83b f478 e2bb 691b f3bc 892e 673b
00000020: 04b7 63bc eb6b 793c 86ef 86bc 97a6 7a3c
00000030: 567e 673c 6c5d fcbc c67b b3b9 a1e8 b93b
00000040: a2c2 a93c d47b 873c de5c 5a3c 9c66 4d3b
00000050: 8554 853c 8d7f 8abc 9eb9 b3bb e254 9ebb
00000060: 88b3 93bb a440 f43b c296 65bc 414b 123d
00000070: 5750 f73c e34a 7b3c 848c 9b3d e7ec fc3d
00000080: bea3 7b3d 3aa3 1c3d b543 f83c 024a 0d3d
00000090: a2d3 9b3d a1be a33d a820 323d 9e90 fc3d
000000a0: cd1c 323e b7fe ea3d 01e4 513d 79b6 c33d
000000b0: 2253 143d 1d54 803c 27ba 953d c8f8 a03c
000000c0: 2d69 983d 2e8e e23d a219 a73d 722a b33c
000000d0: e2b1 4e3d c657 9c3c 1b87 a33c 43c2 80bc
000000e0: 7f40 5fbc 8b4f 0cbc baff b73c 09bd bf3c
000000f0: 5460 3c3b 6406 abbc ebb6 ab3b 491f 6bbb
00000100: 87f6 713c 33ba 81bc 4f75 6dbc ee2b 15bb
00000110: e2aa 0dbb 1a08 533c 64cc 933c 9b80 15bc
00000120: acde e13c ff0d 4dbc 8eec 57bb a828 193c
00000130: 0573 ac3c 02db f23b efa9 45bd d0ce b2bc
00000140: a196 1b3c d7f0 2abc b453 863c d7b2 5cbd
00000150: d87f 7a3c 94d3 fabb ff1c e83c 942a 58bc
00000160: 4db6 0dbd 93ab 753d cf7c 823c 3f12 ce3c
00000170: 6d2f 08bd cda6 623c 2c20 9bbc d16a bb3b
00000180: 6912 623c 2303 1bbd 3662 d93c 98c1 8abc
00000190: 14bb 43bb 660b 96bb ee22 c2bc fc65 093c
000001a0: 53ec 443c 3db1 1fbc 5127 2b3c 2a35 f63c
000001b0: 13ab 563d 33e6 b43b d39b 8dbd 1699 ef3c
000001c0: 0220 b93c 0987 553b a9d2 123d fb12 743c
000001d0: 964b bbbd a44c d5bc 4f7e 303c a1e4 52bc
000001e0: e902 9fbc 95ef 41bd 6f0c fc3c 0fec 863c
000001f0: ccf5 843c 65c6 95bc f358 16bd fb76 a43a
00000200: 461a 893d 90aa 50bd 2a05 aa3c a8bf 3d3d
00000210: 6b9d 79bc 8e64 463c dfd6 903c b313 edbc
00000220: 4760 8e3c bfc3 19bd 9f36 a1bc e411 b53c
00000230: 7a3a df3c 79cd da3c 7a0c c9bb f471 e33b
00000240: c148 783c 415b de3b 9e78 9d3b e5ee bc3b
00000250: 1cea d1bc 5fbd 9eba 4614 923c 65d2 b9bc
00000260: cf10 cd3b a286 1abc 8b98 8f3c 0935 7e3c
00000270: 3355 833b 8ce1 823b 72d9 f4bc a401 6f3b
00000280: a3e8 2bbc 0c9e 0f3c e905 b33b 68e8 1abc
00000290: 3679 bfbb 3064 08bc 7a26 853a a3ca 1c3b
000002a0: d811 673c a5ec 543c cc8e 62bc f600 18bc
000002b0: 33e6 9dbb 37bd 113c 98e7 9e3a 1f74 dfba
000002c0: 4af0 0abb cec6 91bc acbf 063c 1356 243a
000002d0: 2f65 ffbc 4b01 e43b ff3e 423d f1a1 b13c
000002e0: 0988 56bc a8b0 b4bc 7090 b13c c0b7 e33a
000002f0: 2fa2 dcbc 55a1 fabc b9a7 3d3d 9b3a 433c
00000300: 8cea 28bb 340f c7bb a940 593c e331 44bc
00000310: f7db a73c d584 22bd 63da 7ebc 21d5 a3bc
00000320: 0326 76bb a320 913c ba3c 02bc 7226 6cbc
00000330: 29f8 da3c 7f27 703c 5646 af3c 8d59 933c
00000340: 0826 133c 5a80 0c3d b761 afbb 5009 18bd
00000350: b1ea ccbc c3e5 b43c 0f5d c9bc 893f 9a3c
00000360: cc0e 81ba f4b8 72bc 0261 d23c 906b b53c
00000370: 82ed bb3c f4a0 54bc 6caf 7cbc 59c8 27bd
00000380: 1398 c83c 3462 22bc 570b c3bc 2728 adbb
00000390: a107 7ebc 1c1e 19ba 1326 09bd 6591 e23c
000003a0: b12c f93c 1e73 073d 8e67 fc3a 7404 1d3d
000003b0: a96d 99bc 9dcc b93b 39f3 433c 0573 a0bc
000003c0: 127e c0bc a131 15bc fefb 7abc a29f 6abc
000003d0: 3ab5 c73c b108 40bd 9d47 02bb eeb9 e43c
000003e0: 9d79 10ba e5ce efbc 1e3a 6c3c 33bd 933c
000003f0: 9037 d4bc c8ac 043c 6c0f 693c 1ef5 0d3d
-0.019631656 0.024791693 0.012150487 0.02588974 0.007591912 -0.0069113914 -0.029676156 0.003527554
-0.013898615 0.015223484 -0.016471636 0.015298507 0.014129242 -0.030806266 -0.0003423376 0.0056734835
0.020722691 0.016538538 0.013327805 0.0031341678 0.016275654 -0.016906524 -0.005484774 -0.004831896
-0.004507486 0.007453995 -0.014012994 0.0357163 0.030189676 0.015337679 0.075951606 0.12349873
0.061435454 0.038241602 0.030305723 0.034494407 0.07608725 0.07995344 0.043488175 0.12332271
0.17393799 0.11474364 0.051242832 0.09556288 0.036212094 0.015665108 0.07310896 0.019649878
0.07441936 0.11062275 0.08159186 0.021870825 0.05046261 0.019084822 0.019961884 -0.015717631
-0.013626217 -0.008563886 0.022460807 0.023405569 0.002874394 -0.02087707 0.0052403114 -0.0035876802
0.014768249 -0.015835857 -0.014493301 -0.002276178 -0.0021616747 0.0128803495 0.018041797 -0.0091249
0.027571999 -0.012515544 -0.0032947394 0.009348072 0.02105094 0.0074113617 -0.048257764 -0.021827132
0.009496362 -0.010433397 0.016397335 -0.053881492 0.015289269 -0.0076546166 0.028334139 -0.013193745
-0.034597684 0.05997808 0.015928654 0.025155185 -0.033248354 0.013833714 -0.01893624 0.0057195206
0.013798335 -0.03784479 0.026536088 -0.016938016 -0.0029866146 -0.0045789955 -0.023698296 0.008386131
0.012019235 -0.009746847 0.0104463855 0.030054647 0.052409243 0.005520606 -0.06914487 0.029247802
0.02259827 0.0032581708 0.035845432 0.014897103 -0.09145276 -0.026037522 0.010772302 -0.012871892
-0.019410567 -0.047347624 0.030767648 0.016469983 0.016230486 -0.018283078 -0.036705922 0.0012547666
0.066944644 -0.05094391 0.020754416 0.046325356 -0.015235285 0.012108935 0.017680584 -0.028940057
0.017379893 -0.037540194 -0.019679366 0.022103257 0.027249563 0.026709305 -0.0061355205 0.0069410745
0.015154065 0.0067857807 0.0048056385 0.005765783 -0.025624327 -0.001211088 0.017831933 -0.022683332
0.0062581073 -0.009431513 0.017528793 0.015515574 0.0040079593 0.0039941724 -0.029888842 0.0036469484
-0.010492477 0.008765709 0.005463351 -0.009454824 -0.005843307 -0.008324668 0.0010158562 0.0023924492
0.014103375 0.012995874 -0.013827991 -0.009277573 -0.0048187017 0.00889521 0.0012123464 -0.0017048157
-0.0021200352 -0.017794993 0.008224409 0.00062689296 -0.031176178 0.006958162 0.04742336 0.021683665
-0.013093957 -0.022056893 0.021675318 0.0017373487 -0.026932804 -0.030594507 0.04630253 0.011915828
-0.0025774566 -0.0060748104 0.013260045 -0.011974785 0.02049063 -0.03967746 -0.015554997 -0.019999089
-0.0037559278 0.017715758 -0.007949049 -0.014413463 0.02672966 0.014657854 0.021395843 0.017987037
0.008981235 0.034302093 -0.0053522247 -0.037118256 -0.025014253 0.022082215 -0.024580507 0.018829124
-0.0009846329 -0.014814604 0.025681023 0.022146016 0.022940401 -0.012977827 -0.015422683 -0.04096255
0.024486577 -0.009911109 -0.023809118 -0.0052843275 -0.015504749 -0.00058409735 -0.033483576 0.02765722
0.030416818 0.03306877 0.0019256936 0.038334325 -0.018729048 0.0056701438 0.011959844 -0.019586096
-0.023497615 -0.009106071 -0.015318869 -0.014320286 0.024378408 -0.04688329 -0.001987911 0.02792069
-0.0005511286 -0.02927346 0.014418153 0.018034553 -0.0259054 0.008097835 0.014224868 0.03465759
